src/franka_h2/scripts/RL/pth/arm_ppo.pth (torch, 67506 bytes, 11 tensors)

shared_layer.0.weight f4 [128, 24]
0	0x3dd3bb27	0.10338431
1	0xbd0cae7e	-0.034346096
2	0xbd59e6f9	-0.05319879
3	0x3e126ac8	0.14298546
4	0xbdd3f7b7	-0.10349982
5	0x3de51ba5	0.111869134
6	0xbe44dc4a	-0.19224659
7	0x3d57f38e	0.052722506
8	0xbe485bec	-0.19566315
9	0x3cfa4cde	0.030554231
10	0xbd4f41a2	-0.0505997
11	0x3d31920a	0.043352164
12	0xbb4344c8	-0.0029795635
13	0x3dea391a	0.114366725
14	0xbe4eb2a0	-0.20185328
15	0x3e152438	0.14564598
16	0x3d15d377	0.03657862
17	0xbe112415	-0.1417392
18	0xbd706f6b	-0.058700006
19	0xbe29de84	-0.16588789
20	0xbe0b0849	-0.1357738
21	0x3dd467a7	0.103713326
22	0xbe4203e2	-0.18946794
23	0x3dc2e295	0.09515873
24	0x3e19f247	0.15033828
25	0xbc9b0688	-0.018924013
26	0x3e36dbce	0.17857286
27	0xbc258fd4	-0.010105092
28	0xbe088222	-0.13330892
29	0x3e0871fb	0.1332473
30	0x3e219b38	0.15781868
31	0x3df027fa	0.11726375
32	0x3db6baa6	0.08922319
33	0x3e21487c	0.15750307
34	0xbd7fac14	-0.062419966
35	0x3df1968e	0.11796294
36	0x3e448edd	0.19195123
37	0xbe21a264	-0.15784603
38	0xbe339751	-0.17538191
39	0xbd078b9a	-0.03309212
40	0x3e209be8	0.15684474
41	0x3e3d0fac	0.1846301
42	0xbc4ea20f	-0.01261188
43	0xbd8c822c	-0.06860766
44	0x3b693ab9	0.003558798
45	0x3e36b574	0.17842656
46	0x3dbf6efe	0.09347342
47	0x3bdb420f	0.0066912244
48	0x3ddfc6db	0.109266005
49	0xbdae012c	-0.08496317
50	0x3e1b280f	0.15152
51	0xbe123598	-0.14278257
52	0xbd33f3dd	-0.043933738
53	0x3b86c71b	0.0041130907
54	0x3da19856	0.07890384
55	0xbe1ab2ee	-0.15107319
56	0xbe2dc46d	-0.16969462
57	0xbe32687e	-0.17422673
58	0xbdbb6dcb	-0.09151801
59	0xbbf1a1fd	-0.007374047
60	0xbdf8ed37	-0.1215462
61	0xbdac80d5	-0.0842301
62	0x3c5c3d08	0.013442285
63	0x3e05f0ca	0.13080135
64	0x3e482e84	0.19548994
65	0x3e193b56	0.14964041
66	0xb93df002	-0.00018113854
67	0xbe1b3137	-0.15155493
68	0xbd871a70	-0.065968394
69	0x3da55d52	0.0807444
70	0x3d717aa4	0.05895485
71	0xbcfbaf96	-0.030723374
72	0xbe2d5581	-0.16927148
73	0xbe4ab2c7	-0.1979476
74	0xbe1b38cf	-0.1515839
75	0xbe454437	-0.19264303
76	0xbd6421d5	-0.055696327
77	0x3d9f29c2	0.077716365
78	0x3e4a38cd	0.1974823
79	0x3e2b6de5	0.1674114
80	0x3e12998d	0.14316387
81	0xb94a5d14	-0.00019298895
82	0xbe2802c0	-0.16407299
83	0xbdf4f10a	-0.11960037
84	0x3cc5b3b7	0.024133546
85	0xbe310aa8	-0.17289221
86	0xbe2254ea	-0.15852705
87	0xbd5332d3	-0.05156214
88	0xbcbe1767	-0.023204518
89	0xbe247874	-0.16061574
90	0xbbd3d67b	-0.006464777
91	0x3e2b23e0	0.16712904
92	0xbe4afee5	-0.19823797
93	0x3d96a357	0.07355373
94	0xbe3ed3c5	-0.18635471
95	0x3bbc0ca4	0.0057388116
96	0xbe398f74	-0.1812113
97	0xbe3a0495	-0.1816581
98	0x3ddfb407	0.10923009
99	0xbe203962	-0.1564689
100	0xbd7694ae	-0.060200386
101	0x3d13753e	0.036000483
102	0xbe3e86b5	-0.18606074
103	0x3cce6eb9	0.025199281
104	0x3de13fab	0.10998472
105	0xbe08aed4	-0.13347942
106	0x3ddb1555	0.10697428
107	0xbe4015d1	-0.18758322
108	0xbe4ff0f7	-0.20306765
109	0x3d79f496	0.06102427
110	0x3de1d5bd	0.110270955
111	0x3e05d609	0.13069929
112	0x3e031f3f	0.12804888
113	0xbdb32f3a	-0.08749242
114	0xbdd0477d	-0.10169885
115	0xbdb3397c	-0.08751199
116	0xbe0e6540	-0.13905811
117	0x3db5b494	0.08872333
118	0xbde5bc47	-0.11217552
119	0xbe201c52	-0.15635803
120	0xbc4efdb6	-0.012633732
121	0x3dba6e69	0.0910309
122	0x3d943e20	0.07238412
123	0x3d4cb4a4	0.04997696
124	0xbdfdc5c4	-0.123912364
125	0xbe4b8c82	-0.19877818
126	0x3b5365ce	0.0032256725
127	0x3e070878	0.13186824
128	0xbd186096	-0.037201487
129	0x3d55b33d	0.052172888
130	0xbde74509	-0.11292464
131	0xbe2599d0	-0.16171956
132	0xbde65411	-0.11246503
133	0xbac8ea63	-0.0015328642
134	0xbdabf6ce	-0.08396684
135	0x3c389e9a	0.011268282
136	0xbda4a3ea	-0.080390766
137	0xbde93b0e	-0.11388217
138	0xbd813f91	-0.063109525
139	0xbe1189e8	-0.14212763
140	0x3dbfe208	0.09369284
141	0x3c975f2f	0.018478004
142	0xbe3853b1	-0.18000676
143	0xbd660cc7	-0.05616453
144	0xbcd7496b	-0.026280126
145	0x3baa14e8	0.0051904805
146	0x3e24e41e	0.16102645
147	0x3e051afe	0.12998578
148	0x3db585a4	0.088633806
149	0x3c29ae8a	0.010356555
150	0x3e058191	0.13037707
151	0x3c60fb0f	0.013731732
152	0x3e461e5c	0.19347519
153	0xbcb9c5d1	-0.022677334
154	0x3e0d56f9	0.13802709
155	0x3d82d918	0.063890636
156	0xbe1c5d0d	-0.15269871
157	0x3d79ebdc	0.06101595
158	0x3cd95d44	0.02653373
159	0xbd9fec88	-0.07808787
160	0xbe065448	-0.13118088
161	0xbe507482	-0.20356944
162	0x3d2dddbb	0.042447787
163	0xbd726675	-0.059179742
164	0xbe1c4f95	-0.15264733
165	0x3d22d73b	0.03975604
166	0x3dfbd3cb	0.12296256
167	0x3e47130c	0.1944086
168	0x3db770a0	0.089570284
169	0xbe3e193d	-0.18564315
170	0x3e38011d	0.17969175
171	0x3e507f8a	0.20361152
172	0xbd0d4931	-0.03449363
173	0xbe3e0b29	-0.18558945
174	0xbd29c1c0	-0.04144454
175	0xbd848d21	-0.06472231
176	0x3db72f2a	0.08944543
177	0xbc8829ed	-0.016621554
178	0xbd1f02bf	-0.03882098
179	0xbdcad905	-0.099046744
180	0xbd4d7ba9	-0.05016676
181	0xbc9e3bee	-0.019315686
182	0xbd418e87	-0.047255065
183	0xbd611846	-0.05495479
184	0x3dc71c85	0.097222365
185	0xbe4e19ec	-0.20127076
186	0xbe104459	-0.14088573
187	0x3daf47e9	0.08558638
188	0xbbedc7a9	-0.0072564674
189	0xbc7891f8	-0.01517152
190	0xbdc62d8a	-0.09676655
191	0x3d9ca799	0.07649154
192	0xbdbe211c	-0.09283659
193	0x39ea93b1	0.00044741997
194	0xbd977fd5	-0.07397429
195	0xbd3caeeb	-0.046065252
196	0xbe2ad198	-0.16681516
197	0x3dbfb8f3	0.09361448
198	0xbcdbd7d6	-0.026836317
199	0xbe2241eb	-0.15845458
200	0xbdf36657	-0.11884754
201	0x3dcddd7a	0.10052009
202	0x3d5a3238	0.05327055
203	0x3e2e2d95	0.17009576
204	0xbe2b8c53	-0.16752748
205	0x3dceef86	0.10104279
206	0xbd0aadd5	-0.033857185
207	0xbe15a71d	-0.1461453
208	0x3db0cc76	0.08632748
209	0x3e2dbb6e	0.1696603
210	0x3b56e722	0.0032791574
211	0x3db517a5	0.088424005
212	0xbe2c8850	-0.16848874
213	0xbda84213	-0.08215728
214	0xbd6e9e45	-0.058256406
215	0x3dba42da	0.09094782
216	0x3e0ba518	0.13637197
217	0x3df966d5	0.12177817
218	0x3be9f8f7	0.0071402746
219	0xbdcc21af	-0.09967362
220	0x3d88e702	0.06684686
221	0xbd196285	-0.03744747
222	0xbd8cfd9e	-0.06884311
223	0x3ddf2c9a	0.10897179
224	0x3dd4f81b	0.10398885
225	0x3e438098	0.19092023
226	0xbe3d7296	-0.18500742
227	0xbcc90950	-0.024540573
228	0x3e140d5d	0.14458223
229	0xbd4654ab	-0.04842059
230	0x3e3d6284	0.18494612
231	0xbd593e43	-0.053037893
232	0xbda3c82f	-0.07997166
233	0x3deebc47	0.11657005
234	0xbd9ca87d	-0.07649324
235	0x3de20053	0.11035218
236	0xbd4f2880	-0.050575733
237	0xbda206df	-0.07911467
238	0xbbc9cfd3	-0.006158808
239	0x3ca85e59	0.020552801
240	0x3e4261c2	0.18982604
241	0xbe34f902	-0.17673114
242	0xbd2de1f7	-0.042451825
243	0xbdf3e085	-0.11908058
244	0xbc85a836	-0.01631556
245	0x3e2d138f	0.16901992
246	0xbbba3861	-0.0056829904
247	0xbdb42229	-0.08795578
248	0x3d2482b1	0.0401637
249	0xbc7ee6b7	-0.015557936
250	0x3e43d749	0.19125094
251	0x3e1b9a5e	0.15195605
252	0x3d6c8b5e	0.0577501
253	0x3e21f787	0.1581708
254	0xbc1ff00a	-0.00976182
255	0xbe285fc6	-0.16442785

shared_layer.0.bias f4 [128]
0	0x3d3699e9	0.044580374
1	0x3c2c754c	0.010526013
2	0x3d12034b	0.03564767
3	0xbe459530	-0.19295192
4	0xbc4a20a8	-0.012336887
5	0xbdeba3e8	-0.11505872
6	0xbe26a9d7	-0.16275726
7	0x3e2cc417	0.16871677
8	0x3dab6156	0.08368175
9	0xbdc80164	-0.0976589
10	0x3e0ae6ad	0.13564558
11	0xbd908993	-0.0705749
12	0x3de16065	0.11004714
13	0xbcffb11b	-0.03121238
14	0x3e18b2c2	0.1491194
15	0xbd3e76d5	-0.046500046
16	0x3bc61a09	0.006045584
17	0x3d45c093	0.048279356
18	0x3db0c946	0.0863214
19	0xbdc0d031	-0.09414709
20	0x3e0ca8df	0.13736294
21	0xbe08f889	-0.13376059
22	0x3d8bde32	0.0682949
23	0x3e176632	0.14785078
24	0xbdda9a86	-0.10674004
25	0xbca20a6b	-0.019780358
26	0xbe45207b	-0.19250672
27	0xbdbb80a9	-0.09155399
28	0xbddc88a5	-0.107682504
29	0x3cbaf72f	0.022822944
30	0x3d46c83a	0.048530795
31	0x3d074851	0.03302795
32	0x3e4cd3ba	0.20002642
33	0x3d3796f9	0.044821713
34	0xbc48c9ef	-0.012255176
35	0x3dad9a4b	0.08476695
36	0xbd914d1c	-0.070947856
37	0x3dd9173d	0.106001355
38	0xbe388ac8	-0.18021691
39	0xbe2378e4	-0.15964085
40	0xbdc7aae5	-0.097493924
41	0xbdb7a9ad	-0.0896791
42	0x3e1f579c	0.15560764
43	0xbe2f8d29	-0.17143692
44	0xbdfc26df	-0.123121016
45	0xbdd6a639	-0.10480923
46	0x3d279436	0.04091283
47	0x3d9fb4c1	0.07798148
48	0xbd8cc2a0	-0.06873059
49	0x3b8d49c7	0.0043117735
50	0xbddc8364	-0.10767248
51	0x3e0fc99f	0.14041756
52	0x3be79ab8	0.0070680045
53	0xbe31ede5	-0.17375906
54	0x3e28f351	0.16499068
55	0x3e4c2230	0.19934916
56	0x3e11f6eb	0.14254348
57	0xbe3da42d	-0.1851966
58	0x3d011237	0.03151151
59	0x3d8f2f6b	0.06991466
60	0x3d7ba0af	0.061432537
61	0xbe32f58c	-0.17476481
62	0xbe113379	-0.14179792
63	0xbcb487c0	-0.022037387
64	0xbe10ce39	-0.14141168
65	0x3e132119	0.14368095
66	0xbd8de678	-0.06928724
67	0xbe34e455	-0.17665227
68	0xbe0f2e8c	-0.139826
69	0x3dbc33be	0.091895565
70	0xbdbff39c	-0.09372637
71	0x3d1d55b4	0.03841181
72	0xbbdfa4f2	-0.006825083
73	0xbe4a5b04	-0.19761282
74	0x3e4bd4af	0.19905351
75	0x3e3de154	0.18542987
76	0xbc7ebcaa	-0.015547911
77	0x3e0dfa6e	0.13865063
78	0x3e1c1f2f	0.1524627
79	0x3e129e2a	0.14318147
80	0x3e24f61b	0.16109507
81	0xbe298b40	-0.16557026
82	0xbdef65bd	-0.11689327
83	0xbe1e9d1e	-0.15489623
84	0x3e232ea5	0.15935762
85	0xbdaef79a	-0.0854332
86	0xbdaff0f3	-0.08590879
87	0xbd5c37cd	-0.053764153
88	0xbdb8114c	-0.08987674
89	0x3d49083e	0.049080126
90	0x3e153202	0.14569858
91	0xbdc66cd5	-0.09688727
92	0xbdab2620	-0.08356881
93	0x3d9cf37e	0.0766363
94	0xbdd6388e	-0.10460006
95	0xbe472b31	-0.1945007
96	0xbe45b433	-0.19307022
97	0x3cb28a90	0.021794587
98	0x3cb5d1aa	0.022194702
99	0x3e105580	0.14095116
100	0xbe1147d1	-0.14187552
101	0xbe39cc51	-0.18144347
102	0xbe0e4084	-0.13891798
103	0xbe1f2bcb	-0.1554405
104	0xbe495d5b	-0.19664519
105	0x3e2f573d	0.17123123
106	0x3d12957f	0.0357871
107	0xbe1f7c1f	-0.15574692
108	0x3d6cf66f	0.057852205
109	0x3e187f2e	0.14892265
110	0x3e1ce1fd	0.15320583
111	0xbe058618	-0.13039434
112	0x3e202f2c	0.15642995
113	0xbdb7313b	-0.08944937
114	0x3b0c12e6	0.002137357
115	0xbe056e21	-0.13030292
116	0xbda5c154	-0.08093515
117	0xbe394ee0	-0.18096495
118	0x3e4e7a4b	0.20163839
119	0xbe350a58	-0.17679727
120	0xbd46a926	-0.048501156
121	0x3d093be2	0.033504374
122	0x3caeb49f	0.021326361
123	0x3dd7daf9	0.105398126
124	0x3e2dc482	0.16969493
125	0x3e22eb68	0.15910113
126	0x3e32bd98	0.17455137
127	0xbe110ddf	-0.14165448

shared_layer.2.weight f4 [64, 128]
0	0xbd950f09	-0.07278258
1	0x3cbc8ae3	0.023015445
2	0x3d853954	0.06505075
3	0xbdad0b2b	-0.08449396
4	0xbd73fcb8	-0.059567183
5	0x3c9131bb	0.017723909
6	0xbc7a22c0	-0.015267074
7	0xbcf2e3c4	-0.029649623
8	0xbd1ba202	-0.0379963
9	0x3c1a8d52	0.009433107
10	0xbc0f4df0	-0.008746609
11	0xbd0087c4	-0.031379476
12	0xbcda0a36	-0.026616197
13	0xbd4aaadb	-0.049479347
14	0x3b43d7fe	0.002988338
15	0x3d762021	0.060089234
16	0xbd7136f6	-0.058890305
17	0x3cbb91b3	0.022896623
18	0xbd5991c9	-0.053117547
19	0xbcab496a	-0.02090903
20	0x3d4609f7	0.048349347
21	0xbcafd435	-0.021463493
22	0xbd3029b9	-0.04300854
23	0xbd2c41fc	-0.042055115
24	0xbbb2092f	-0.0054332237
25	0x3c199b67	0.00937543
26	0x3d1a6f09	0.037703548
27	0x3daf921d	0.08572791
28	0x3d59ef1f	0.05320656
29	0xbda31bad	-0.07964263
30	0x3d09f8ef	0.033684667
31	0xbd63cb21	-0.05561364
32	0xbd7565cf	-0.059911545
33	0x3d9dc0c9	0.077027865
34	0xbd84c8b2	-0.06483592
35	0xbb980e95	-0.00464041
36	0x3c8a4a1e	0.016881045
37	0xbbace570	-0.0052763745
38	0x3d47dc3c	0.048794016
39	0x3d765327	0.060137894
40	0xbceabf4e	-0.028655674
41	0xbcfa7548	-0.030573502
42	0x3d925198	0.07144469
43	0x3d5b4765	0.053534884
44	0xbd97827c	-0.07397935
45	0x3d3f3da2	0.046689637
46	0x3d0f30a6	0.034958504
47	0x3d55272a	0.052039303
48	0x3dadfcd6	0.0849549
49	0xbdae9902	-0.08525278
50	0x3d4cd6e2	0.050009616
51	0xbd9d8b01	-0.076925285
52	0x3db3b411	0.08774579
53	0xbd670e36	-0.056410037
54	0xbc20f6bc	-0.009824451
55	0xbd1e12f2	-0.038592286
56	0x3d03fa8b	0.03222136
57	0x3d4daa46	0.050211214
58	0xbbd6877b	-0.0065469122
59	0xbccfe941	-0.025379779
60	0xbc572705	-0.013131862
61	0xbce1b2e9	-0.027551131
62	0xbd9c795a	-0.076403335
63	0x3ce857e6	0.028362226
64	0xbda0f24d	-0.07858715
65	0xbd1c3a5e	-0.0381416
66	0x3cfacecc	0.030616187
67	0x3c0859d7	0.008322201
68	0xbd92e5a8	-0.0717271
69	0x3d8043a8	0.062629044
70	0xbda3a42d	-0.079902984
71	0x3cf8a626	0.030352663
72	0xbd9c4662	-0.07630612
73	0x3d472dcd	0.048627663
74	0x3cdb0432	0.026735399
75	0xbd0a5aec	-0.033778116
76	0x3cf291fc	0.029610626
77	0x3ce2639f	0.027635394
78	0x3c8fee79	0.017569767
79	0xbace9265	-0.0015760182
80	0x3d5e7404	0.05430986
81	0xbce46a0a	-0.027882595
82	0x3c983c03	0.018583303
83	0x3d09120a	0.03346447
84	0x3d02c587	0.031926658
85	0x3d95a73e	0.073072895
86	0xbd01acee	-0.03165906
87	0x3da1d9db	0.07902881
88	0x3d60ec4a	0.054912843
89	0x3db4e7aa	0.08833249
90	0x3ceca351	0.02888647
91	0xbbbb2304	-0.0057109613
92	0xbc1816ab	-0.009282748
93	0x3bddc1e4	0.0067674983
94	0xbd3eb2b8	-0.04655716
95	0xbc870936	-0.016483884
96	0x3d1aacf1	0.037762586
97	0x3da5b29f	0.0809071
98	0xbafeba72	-0.0019434227
99	0x3d133804	0.035942093
100	0xbc9f2f23	-0.019431656
101	0xbcd0edbc	-0.025503986
102	0xbc5efa36	-0.01360946
103	0xbcc1175c	-0.023570709
104	0xbac68cf5	-0.001514821
105	0xbdb0546e	-0.08609854
106	0x3d9a8623	0.07545116
107	0xbd1c44da	-0.0381516
108	0xbc06030d	-0.008179438
109	0x3b7e0e44	0.0038765827
110	0xba835e5a	-0.0010022626
111	0xbd4695ac	-0.048482582
112	0xbd9718fa	-0.07377811
113	0xbca412b7	-0.020028455
114	0x3d90a988	0.070635855
115	0xbd036f99	-0.03208885
116	0x3d00aba1	0.031413678
117	0x3d1ebf3a	0.038756587
118	0x3d9c0210	0.07617581
119	0xbca7c0ce	-0.020477679
120	0xbcae4afd	-0.021275992
121	0xbc6e2da4	-0.014537249
122	0xbd36ded5	-0.044646103
123	0xbd5fe487	-0.0546613
124	0xbd79f86f	-0.06102794
125	0xbd920abb	-0.07130953
126	0xbd91da1e	-0.07121681
127	0x3b314349	0.0027048162
128	0x3ce6d4a0	0.02817756
129	0x3d57dfb3	0.05270357
130	0x3d42d1c7	0.04756334
131	0xbc8fb4d8	-0.017542288
132	0x3da5ea80	0.08101368
133	0x3b70b74b	0.0036730345
134	0xbc46fe89	-0.012145647
135	0xbd91fdf9	-0.071285196
136	0xbd231664	-0.039816275
137	0xbd97a0bb	-0.07403704
138	0x3d5a9d09	0.053372417
139	0x3d3f97bb	0.04677556
140	0xbd202bdd	-0.03910433
141	0xbda706b0	-0.081555724
142	0x3d1c3b65	0.03814258
143	0x3d09a226	0.033601902
144	0x3d6053eb	0.05476753
145	0x3d8fa0d8	0.070131004
146	0xbb685348	-0.003545003
147	0xbd3b7090	-0.045761645
148	0x3d88a428	0.06671935
149	0x3d48a1ac	0.048982307
150	0xbd579ecc	-0.052641675
151	0x3d31d4d9	0.043415878
152	0xbd5799f8	-0.05263707
153	0xbcfcea08	-0.030873314
154	0xbd9c5873	-0.07634058
155	0x3d8325d7	0.06403702
156	0xbc65f2af	-0.014034911
157	0x3cf9bed4	0.030486502
158	0xbd1bf389	-0.03807405
159	0x3d914d95	0.07094876
160	0xbd88e051	-0.0668341
161	0x3cbac186	0.022797357
162	0xbd4ea0f2	-0.05044646
163	0x3d263d1f	0.040585633
164	0x3d9e71ff	0.07736587
165	0xbd8c1c40	-0.06841326
166	0xbc2ab738	-0.010419659
167	0xbb44bfec	-0.003002162
168	0x3a53cfc7	0.00080799725
169	0xbd563958	-0.05230078
170	0x3c9723ef	0.018449752
171	0x3cf6959c	0.030100636
172	0x3da40e00	0.08010483
173	0x3d8e6369	0.06952555
174	0xbcd67e93	-0.026183402
175	0x3bdc17dc	0.0067167114
176	0x3d8a802c	0.06762728
177	0xbd2b8850	-0.041878045
178	0xbc0d5d76	-0.00862824
179	0x3d9e3e58	0.07726735
180	0xbda289f4	-0.07936469
181	0x3da20eaf	0.07912957
182	0xba3d2c54	-0.0007216383
183	0x3d59b7c2	0.05315376
184	0x3d84587b	0.06462189
185	0x3d8a72b0	0.06760156
186	0xbd9fac72	-0.07796563
187	0xbd9b9201	-0.075962074
188	0xbdadd93a	-0.08488698
189	0xbcf5bfc1	-0.029998662
190	0xbc18bb56	-0.009322008
191	0x3cc36dcb	0.023856064
192	0xbd6db84e	-0.058037095
193	0x3d84759f	0.06467747
194	0xbbb35b18	-0.0054735057
195	0x3d88344f	0.06650602
196	0x3d1e61d0	0.0386675
197	0x3d91f310	0.071264386
198	0x3da09675	0.078411974
199	0xbc2cc220	-0.01054433
200	0x3d916967	0.07100182
201	0xbd2b7b22	-0.041865475
202	0xbd9e6ec3	-0.0773597
203	0x3d6f054c	0.05835466
204	0xbd87958c	-0.06620321
205	0x3dab0f71	0.083525546
206	0xbcd65908	-0.0261655
207	0x3c6a105c	0.014286127
208	0xbb99b256	-0.0046904488
209	0x3d0c5799	0.034263227
210	0x3d77b5cf	0.06047612
211	0x3c9f2aa1	0.019429507
212	0xbb95169e	-0.0045498153
213	0xbd5a10f4	-0.053238824
214	0xbd92734f	-0.071508996
215	0xbd005da6	-0.03133931
216	0xbc8588f2	-0.016300652
217	0x3bc2caac	0.0059445705
218	0x3d6ba51a	0.0575305
219	0x3c2783ba	0.010224277
220	0x3cc8d353	0.02451483
221	0xbc9c607f	-0.019088982
222	0x3bd3f41a	0.006468308
223	0xbd096f64	-0.033553496
224	0xbc7339ca	-0.014845321
225	0xbda3995b	-0.079882346
226	0xbdab8279	-0.08374495
227	0xbd4a9fb5	-0.049468715
228	0xbd8a9bac	-0.06767973
229	0x3d8c6ff7	0.06857293
230	0xbd732269	-0.059358988
231	0xbd380f79	-0.04493663
232	0xbd667b11	-0.05626971
233	0x3d46d504	0.04854299
234	0xbccb0f6b	-0.024787625
235	0x3d94d47e	0.07267092
236	0x3d8f3906	0.06993298
237	0x3d434a5f	0.047678348
238	0xbd21d14f	-0.039506253
239	0x3d66f6e6	0.056387804
240	0xbc281c33	-0.0102606295
241	0x3da2ec49	0.07955224
242	0x3da93149	0.082613535
243	0xbccc545b	-0.024942568
244	0xbd32373f	-0.043509718
245	0x3d95aa2c	0.07307848
246	0xbd796470	-0.0608868
247	0xbd4cfb8b	-0.050044578
248	0x3dae6f99	0.08517379
249	0x3c506411	0.01271917
250	0xbca9852d	-0.020693386
251	0xbcfeadb2	-0.031088684
252	0xbd8efba0	-0.069815874
253	0xbbbfaf71	-0.0058497717
254	0xbbb1bb0d	-0.0054239095
255	0x3c31bb73	0.010847914

shared_layer.2.bias f4 [64]
0	0xbcef6831	-0.029224487
1	0x3d2b53e1	0.04182804
2	0x3d967870	0.073471904
3	0xbcb4fe30	-0.022093862
4	0x3d810061	0.062989004
5	0xbd9df425	-0.077125825
6	0xbda49a66	-0.08037262
7	0xbda76df1	-0.081752665
8	0x3d4db7e0	0.050224185
9	0xbd9c3d97	-0.07628935
10	0xbb2dd487	-0.0026524381
11	0xbd8ebf81	-0.0697012
12	0x3d7bb3ca	0.061450757
13	0xb9d4bbf3	-0.00040575824
14	0x3d94f27a	0.07272811
15	0xb87cf7ab	-6.031214e-05
16	0xbc877851	-0.016536864
17	0x3c88863c	0.01666557
18	0xbda035bc	-0.07822749
19	0x3d63b179	0.055589173
20	0xbd1e8303	-0.03869916
21	0x3da8217c	0.08209512
22	0xbce91896	-0.028454106
23	0xbd318f82	-0.04334975
24	0xbd8762c1	-0.06610633
25	0xbd16217f	-0.036653038
26	0xbb8fb067	-0.0043850425
27	0x3c4cf27c	0.012508985
28	0x3d8ce634	0.06879845
29	0xbcffb715	-0.03121523
30	0xbc999b56	-0.018750828
31	0x3ca843f9	0.020540224
32	0x3d9f1565	0.077677526
33	0xbcdaa468	-0.026689723
34	0x3bed6697	0.0072448957
35	0xb9a8fccb	-0.00032231802
36	0x3abfcf43	0.0014633912
37	0x3d163792	0.03667409
38	0xbce38ffc	-0.027778618
39	0x3aa801c5	0.001281791
40	0xbd31c8a1	-0.043404225
41	0x3c81daca	0.015851397
42	0x3d2e26dc	0.042517528
43	0xbcba0114	-0.022705592
44	0xbd0b7b72	-0.034053273
45	0x3d076397	0.03305396
46	0xbdabffd1	-0.083984025
47	0x3daab6b2	0.083356276
48	0x3dadbf49	0.084837504
49	0x3d9c5ed1	0.07635272
50	0x3d3d68c4	0.04624249
51	0xbd5a9022	-0.053360112
52	0xbdac4c39	-0.08412976
53	0x3c7cba53	0.0154252825
54	0x3da1e9f2	0.0790595
55	0x3cc7530e	0.024331596
56	0x3d9bacd5	0.076013245
57	0x3ca15aa3	0.01969654
58	0x3d8a5d60	0.06756091
59	0xbd2331ca	-0.039842404
60	0xbbbce44b	-0.0057645193
61	0xbd4917ed	-0.049095083
62	0xbc26eac5	-0.010187809
63	0x3c2dac9f	0.010600238

actor.0.weight f4 [32, 64]
0	0x3d163d1c	0.036679372
1	0x3d42ccc8	0.047558576
2	0xbd97c092	-0.07409777
3	0x3d11c340	0.035586596
4	0x3ce556f8	0.027995571
5	0x3dce36b8	0.100690305
6	0x3d95c5a6	0.07313089
7	0x3db3508c	0.087555975
8	0x3da3cde8	0.07998258
9	0x3dd5d056	0.104401276
10	0x3d7f02dc	0.062258586
11	0x3dc2f0c2	0.09518577
12	0xbdf8e62e	-0.12153278
13	0xbc0bf170	-0.00854145
14	0x3db1b99a	0.08677979
15	0xbdec3fde	-0.11535619
16	0xbdb15b6a	-0.08660014
17	0xbc1515c0	-0.009099424
18	0xbde262b4	-0.110539824
19	0xbdf37e3c	-0.11889312
20	0xbd455238	-0.048174113
21	0x3d487b38	0.048945636
22	0xbdaf03c4	-0.0854564
23	0xbdfa53fc	-0.1222305
24	0x3bef6ae0	0.0073064417
25	0xbaa4c580	-0.0012571067
26	0x3dcc2476	0.09967892
27	0xba765d00	-0.00093980134
28	0x3da5f6f0	0.0810374
29	0x3dda931a	0.10672589
30	0xbd96db18	-0.073660076
31	0x3d8603d8	0.06543702
32	0x3d1c9698	0.038229555
33	0x3cf1ae68	0.029502109
34	0xbcd4d1a8	-0.025978878
35	0xbc7e7e10	-0.015532985
36	0x3d8cde7a	0.068783715
37	0x3c3f9ab0	0.011694595
38	0xbc528390	-0.01284875
39	0xbd037f94	-0.03210409
40	0xbd6edf74	-0.05831857
41	0xbd2afc18	-0.04174432
42	0xbdc3d54a	-0.09562166
43	0x3cae88e0	0.021305501
44	0x3d376b70	0.044780195
45	0x3c639e40	0.01389271
46	0xbd9e57a4	-0.0773156
47	0x3df927a6	0.121657655
48	0x3de255be	0.1105151
49	0x3de94cec	0.11391625
50	0x3c4a6ef0	0.012355551
51	0xbc06b170	-0.008221015
52	0x3df9e266	0.12201385
53	0x3d7878f0	0.06066221
54	0x3d0e78a4	0.03478302
55	0xbdfeacce	-0.12435304
56	0xbd9937d0	-0.074813485
57	0xbd7f57f0	-0.062339723
58	0xbd9c97f2	-0.07646169
59	0xbc6c4ee0	-0.014423102
60	0xbc5f2ec0	-0.013621986
61	0x3df43c3e	0.11925553
62	0x3c121e80	0.008918405
63	0x3d655774	0.055991605
64	0x3d2668bc	0.040627226
65	0xbcb1da78	-0.02171062
66	0xbdfecae8	-0.12441045
67	0x3d9bf432	0.07614936
68	0xbd1c21f0	-0.038118303
69	0xbdbea67c	-0.09309098
70	0xbda04b62	-0.07826878
71	0x3d8622fa	0.0654964
72	0x3d058c34	0.03260441
73	0xbdf7be8e	-0.12096892
74	0xbc84a1e0	-0.01619047
75	0x3dab8f50	0.08376944
76	0xbd90247a	-0.07038207
77	0xbd8d7adc	-0.06908199
78	0x3d4d49a0	0.050119042
79	0xbd8cb6c2	-0.06870796
80	0xbdaa4656	-0.08314197
81	0xbd7519d8	-0.0598391
82	0xbbb57780	-0.005537927
83	0x3d94fd0c	0.07274827
84	0x3dc9eb80	0.09859371
85	0x3cbbd328	0.022927836
86	0x3daf55f8	0.08561319
87	0xbdb3ee8a	-0.08785732
88	0x3d787a14	0.060663298
89	0x3d7bae94	0.061445788
90	0x3dc772c8	0.0973869
91	0x3deebe86	0.11657433
92	0xbd876206	-0.06610493
93	0xbd3eb458	-0.046558708
94	0xbd7aee30	-0.06126231
95	0x3a4f9c00	0.0007919669
96	0x3daf2674	0.08552256
97	0x3d7ab788	0.061210185
98	0x3d4cf848	0.050041467
99	0xbd64478c	-0.055732295
100	0xbdc12416	-0.09430711
101	0xbd8420b4	-0.0645155
102	0x3d07f0ec	0.033188745
103	0x3dd74728	0.10511619
104	0xbdf4cc06	-0.11952977
105	0xbde3ff96	-0.111327335
106	0xbd481178	-0.048844784
107	0xbd088d78	-0.03333804
108	0xbd9986d6	-0.07496421
109	0xbde961de	-0.1139562
110	0xbdbab646	-0.09116797
111	0x3dbb794c	0.09153995
112	0x3d34f34c	0.04417734
113	0x3cbde490	0.023180276
114	0xbd7ae548	-0.061253816
115	0xbc8dd1f0	-0.01731202
116	0x3ddd5834	0.10807839
117	0xbd4dd0a8	-0.05024782
118	0x3dcdbad0	0.10045397
119	0x3d819494	0.06327167
120	0x3d2e7fd4	0.042602375
121	0xbdf6976e	-0.12040602
122	0x3db2b88c	0.08726606
123	0x3c378ef0	0.011203513
124	0x3d9df95c	0.07713577
125	0x3d6939d0	0.0569399
126	0x3df206c8	0.118177
127	0x3d15e4fc	0.03659533
128	0x3df467ac	0.11933836
129	0x3d90c748	0.0706926
130	0xbab94e00	-0.0014137626
131	0x3d987738	0.07444614
132	0x3d84f400	0.06491852
133	0x3d2d22c4	0.042269483
134	0x3d8ac65e	0.06776117
135	0xbda05868	-0.07829362
136	0x3dc68e94	0.09695163
137	0x3c972368	0.0184495
138	0xbdac9418	-0.08426684
139	0x3ccb0fa0	0.024787724
140	0x3db5a5a4	0.08869484
141	0xbd86712c	-0.065645546
142	0xbd9fd778	-0.07804769
143	0xbdf85858	-0.12126225
144	0xbd8ee77e	-0.069777474
145	0x3d562338	0.05227968
146	0xbc848668	-0.016177371
147	0xbc3ed1a0	-0.011646658
148	0xbc16abd0	-0.009196237
149	0xbcca8960	-0.024723709
150	0xbbc3af40	-0.005971819
151	0xbc1f1ac0	-0.009710968
152	0xbdad2bae	-0.08455597
153	0xbd07a7b4	-0.03311892
154	0xbd38ccf8	-0.04511735
155	0x3c230300	0.009949446
156	0xbdba82bc	-0.09106967
157	0x3d92e620	0.07172799
158	0xbc8a89c8	-0.016911402
159	0x3c4ef850	0.0126324445
160	0xbdc503b8	-0.0961985
161	0x3c9f26d8	0.019427702
162	0x3d76512c	0.060136005
163	0xbd537be8	-0.051631838
164	0xbce083a0	-0.027406514
165	0xbbff4ca0	-0.007791117
166	0x3d3a061c	0.045415983
167	0xbd65e7cc	-0.05612926
168	0x3dc7ea02	0.0976143
169	0x3d8149a2	0.063128725
170	0x3cc87fd8	0.024475023
171	0xbcfa0c70	-0.030523509
172	0xbdbb3d68	-0.09142572
173	0xbd10820c	-0.035280272
174	0xbdcc08a2	-0.09962584
175	0xbcd54110	-0.026032
176	0xbdaee4b0	-0.085397124
177	0xbc715bc0	-0.014731348
178	0xbadbb580	-0.0016762465
179	0x3d86057e	0.06544016
180	0xbd678950	-0.056527436
181	0x3cdbbcd0	0.026823431
182	0xbb505980	-0.0031791627
183	0xbd98a354	-0.07453027
184	0xbddc6094	-0.10760608
185	0xbc03bae0	-0.00804016
186	0xbdd4d6fa	-0.10392566
187	0x3d8bf284	0.068333656
188	0x3c788950	0.015169457
189	0x3d8ac508	0.06775862
190	0xbc823d58	-0.015898392
191	0xbd399818	-0.045311064
192	0x3dcb40c0	0.099244595
193	0x3daa38e2	0.08311631
194	0xbd4ed314	-0.05049427
195	0x3cc24cd8	0.023718283
196	0xbd7c285c	-0.061561927
197	0xbdfec7ce	-0.124404535
198	0x3df52b84	0.119711906
199	0x3c5c5d10	0.013449922
200	0xbdaed8a4	-0.08537415
201	0xbdd61986	-0.10454087
202	0xbdcd32c0	-0.100194454
203	0x3d6248ac	0.055245087
204	0x3cb3b648	0.021937504
205	0xbde972e4	-0.11398867
206	0xbde55e38	-0.111996114
207	0xbd9516b2	-0.072797194
208	0x3dec3dac	0.115352005
209	0xbd345204	-0.04402353
210	0xbd302ed8	-0.043013424
211	0x3d52c0e8	0.0514535
212	0x3df02fd2	0.11727871
213	0x3d7b6dfc	0.061384186
214	0x3df9bd0a	0.121942595
215	0xbdc1eba0	-0.0946877
216	0x3d788f54	0.060683563
217	0xbb97af60	-0.0046290606
218	0x3cca2f68	0.024680808
219	0x3dc02f96	0.09384076
220	0x3dfef37a	0.12448783
221	0x3dd3de42	0.10345127
222	0xbdc5bfde	-0.096557364
223	0xbdb0a06c	-0.08624348
224	0xbdf0f92e	-0.11766277
225	0x3d0d22b4	0.034456924
226	0x3bf5ace0	0.007497415
227	0x3d50ced8	0.05097851
228	0x3dc4e55e	0.09614061
229	0xbc7ff830	-0.015623137
230	0x3da2c2cc	0.07947311
231	0x3daa083c	0.08302352
232	0x3db2fc64	0.08739546
233	0x3d26b18c	0.040696666
234	0x3d7a64dc	0.061131343
235	0xbde0fa10	-0.10985196
236	0x3d8d7a4a	0.069080904
237	0x3dae870a	0.085218504
238	0xbd661aa0	-0.056177735
239	0x3b9f8500	0.0048681498
240	0x3db5eca6	0.08883028
241	0x3dad52ec	0.08463082
242	0x3d856a56	0.065144226
243	0x3d141144	0.03614928
244	0xbd7b90c4	-0.061417356
245	0xbd9745c0	-0.07386351
246	0x3dba7b0e	0.09105502
247	0xbdd6ba08	-0.104847014
248	0x3d5ea494	0.054356173
249	0x3d54723c	0.051866755
250	0x3c8477f0	0.016170472
251	0x3da6c90e	0.08143817
252	0xbdcabf12	-0.09899725
253	0xbc48f3c0	-0.012265146
254	0x3dce0a92	0.1006061
255	0xbd5344f0	-0.051579416

actor.0.bias f4 [32]
0	0xbc1a8710	-0.0094316155
1	0x3dcb4616	0.09925477
2	0xbd8ad840	-0.06779528
3	0xbdaa2420	-0.083076715
4	0x3d98f2b8	0.0746817
5	0xbde50664	-0.111828595
6	0xbd5cd62c	-0.053915188
7	0x3db6e3d4	0.089301735
8	0x3d970e32	0.073757544
9	0xbd184f9c	-0.037185296
10	0xbd11c8c0	-0.03559184
11	0xbd39ede0	-0.04539287
12	0xbc1b2dc0	-0.009471357
13	0x3dcb2d60	0.09920764
14	0x3dd86f40	0.10568094
15	0xbd13100c	-0.035903975
16	0xbce04318	-0.027375743
17	0xbca3c9a8	-0.019993618
18	0xbd686eb8	-0.056746215
19	0xbde1db68	-0.110281765
20	0xbda37192	-0.07980646
21	0x3d93b94e	0.072130784
22	0x3cc11df8	0.02357386
23	0x3c00d310	0.007862821
24	0xbdfa27e4	-0.1221464
25	0xbd9e5d0e	-0.077325925
26	0x3d162f64	0.03666629
27	0x3d98395a	0.07432814
28	0x3db7b3bc	0.089698285
29	0xbda4775e	-0.0803058
30	0xbdd53866	-0.10411148
31	0x3cd0f968	0.025509551

actor.2.weight f4 [7, 32]
0	0x3e242e57	0.16033302
1	0xbc41167a	-0.011785144
2	0xbe18ce4c	-0.14922446
3	0xbd0844df	-0.033268806
4	0x3cb23d12	0.021757636
5	0xbddfa93e	-0.10920952
6	0xbca967f7	-0.020679457
7	0x3df3702c	0.118866295
8	0x3dca2232	0.098698035
9	0x3e0039b2	0.12522009
10	0xbdb9dd80	-0.09075451
11	0xbd94090e	-0.072282895
12	0xbd8fbeb3	-0.07018795
13	0xbd20c373	-0.039248895
14	0x3d7a37b3	0.061088275
15	0x3d493cb5	0.04913016
16	0xbe0dce8f	-0.13848327
17	0xbd9ae974	-0.07564059
18	0x3d300c61	0.042980555
19	0xbc416dce	-0.011805965
20	0x3e0a17b6	0.13485608
21	0xbdf9146d	-0.12162099
22	0xbd0743fe	-0.033023827
23	0x3d600c9d	0.05469953
24	0xbe274666	-0.16335449
25	0x3c8a3b4a	0.016873974
26	0x3b3e3852	0.0029025269
27	0xbe2895f7	-0.16463457
28	0x3d9e64d7	0.077340774
29	0xbaf71094	-0.0018849545
30	0x3c803ae7	0.015653087
31	0x3e286644	0.16445261
32	0x3c0633ab	0.00819103
33	0x3e192931	0.1495712
34	0x3c9aaa93	0.018880164
35	0xbe061660	-0.13094473
36	0xbe08fe82	-0.13378337
37	0x3c160588	0.009156592
38	0xbdd9e74f	-0.10639822
39	0xbe2fbb69	-0.17161335
40	0xbe186f11	-0.14886118
41	0x3d2f6c38	0.042827815
42	0x3d28c067	0.041199114
43	0x3da8af33	0.082365416
44	0xbda22b55	-0.07918421
45	0xbe14d759	-0.14535274
46	0xbe13a37f	-0.14417838
47	0x3e02dfeb	0.1278073
48	0x3ce091f2	0.027413342
49	0x3d608384	0.054812923
50	0x3deaa1f8	0.11456674
51	0x3ddcda9f	0.10783886
52	0xbd8a2d6d	-0.067469455
53	0xbe1eda6e	-0.15513012
54	0xbd4d2ac9	-0.05008963
55	0x3c980619	0.018557595
56	0x3e21fb54	0.1581853
57	0x3dc05c98	0.09392661
58	0x3da6392d	0.08116374
59	0x3e0c77f1	0.13717629
60	0x3c8ef992	0.017452989
61	0xbd5e8414	-0.05432518
62	0xbdd1d96c	-0.10246548
63	0xbe230a42	-0.15921882
64	0x3dc97f68	0.09838754
65	0xbe0cd12d	-0.13751669
66	0xbde00d19	-0.10939998
67	0xbc429b4c	-0.011877846
68	0xbd3edcbf	-0.04659724
69	0xbdd0798c	-0.10179433
70	0xbdf367a7	-0.118850045
71	0xbdd348b5	-0.10316602
72	0xbddcb0ed	-0.107759334
73	0x3e2383fb	0.15968315
74	0xbdb96bab	-0.09053739
75	0xbc82358b	-0.015894672
76	0xbe1ff632	-0.1562126
77	0x3e159a76	0.14609703
78	0x3dba69e2	0.09102227
79	0xbd64f4b9	-0.05589745
80	0xbdff66e2	-0.12470795
81	0xbdca9c0f	-0.09893047
82	0x3d12da15	0.03585251
83	0xbd2c89ef	-0.04212373
84	0x3c8819a0	0.016613781
85	0x3e045c64	0.12925869
86	0xbdcc25ad	-0.099681236
87	0xbdca8dc1	-0.09890319
88	0x3d8ef56a	0.06980403
89	0xbd98df90	-0.07464516
90	0xbdfd2538	-0.123606145
91	0xbcca3e67	-0.024687959
92	0x3dc559eb	0.09636291
93	0xbd50dfb3	-0.050994586
94	0x3a980c1b	0.0011600287
95	0xbe0601e0	-0.13086653
96	0x3d1b94bd	0.037983645
97	0x3dcdb227	0.100437455
98	0x3d75116e	0.059831075
99	0xbd86f5b1	-0.06589831
100	0x3de1a9cb	0.110187136
101	0xbdf79b26	-0.12090139
102	0xbdc78c66	-0.09743576
103	0xbe07d5f4	-0.1326521
104	0xbdc29e8e	-0.09502898
105	0x3da5eed8	0.081021965
106	0x3ded00e9	0.11572439
107	0x3cd53f79	0.026031243
108	0x3dc1fb8b	0.09471806
109	0xbda660be	-0.08123921
110	0x3e2fb373	0.17158298
111	0xbd88e691	-0.06684602
112	0x3d86387c	0.06553742
113	0x3d62f286	0.05540707
114	0x3e0d7a9f	0.13816307
115	0x3da26aac	0.07930502
116	0x3dd1703d	0.10226486
117	0xbd9c2ad3	-0.076253556
118	0x3e2aa32e	0.1666381
119	0x3dd281e1	0.10278679
120	0x3dcb0f2a	0.09915002
121	0xbe077261	-0.13227226
122	0x3d666432	0.056247897
123	0x3cb6bdf6	0.022307377
124	0xbe0b3638	-0.13594902
125	0xbdf21d2b	-0.118219696
126	0xbd999756	-0.07499568
127	0x3d56539e	0.052325837
128	0xbdf393a6	-0.11893396
129	0x3db60d8d	0.08889303
130	0x3d0ee7bd	0.03488897
131	0xbe1fe3cf	-0.15614246
132	0x3d25a51b	0.04044066
133	0x3deac9b0	0.1146425
134	0x3d6451c7	0.05574205
135	0x3d9d42d6	0.076787636
136	0x3ca575af	0.020197717
137	0x3e28909f	0.16461419
138	0x3dd478be	0.10374592
139	0xbd265a1a	-0.04061327
140	0xbe3115ea	-0.17293516
141	0xbcc93ab8	-0.024564132
142	0xbcc04bc2	-0.023473624
143	0x3e23d94f	0.16000865
144	0xbdc5647b	-0.09638306
145	0x3d7d9d6b	0.061917704
146	0xbc6a5104	-0.014301542
147	0xbe125a64	-0.14292294
148	0x3dd8eb02	0.10591699
149	0x3dd54357	0.10413235
150	0x3dd0a933	0.10188522
151	0x3de42bdf	0.1114118
152	0x3e2576f6	0.16158661
153	0xbd93172c	-0.07182154
154	0xbd8cca31	-0.068745025
155	0xbdc32e8d	-0.09530363
156	0xbe2798b0	-0.1636684
157	0x3e037f08	0.12841427
158	0x3decfb96	0.11571424
159	0xbe1d43ed	-0.15357943
160	0xbe1bf756	-0.1523107
161	0xbb33b1e4	-0.0027419263
162	0xbe181525	-0.14851816
163	0xbe05d8d9	-0.13071002
164	0x3dec60ac	0.11541876
165	0x3c9fa759	0.019488977
166	0xbd2c776a	-0.04210607
167	0xbdacf6f8	-0.08445543
168	0xbddd318a	-0.108004645
169	0x377cca69	1.5067498e-05
170	0x3dda4e79	0.10659499
171	0xbdba839e	-0.09107135
172	0xbd81d996	-0.06340329
173	0xbdd5e840	-0.10444689
174	0x3dad9a83	0.084767364
175	0xbc3a8c23	-0.01138595
176	0x3d2f5b29	0.042811546
177	0x3e2408bf	0.16018961
178	0x3ce126bf	0.027484296
179	0xbe1dc7d0	-0.15408254
180	0xbd31f4b9	-0.043446276
181	0x3dd15948	0.10222107
182	0xbdc69b52	-0.09697594
183	0xbda7599f	-0.08171391
184	0x3db4c8b9	0.08827347
185	0x3e12907a	0.14312926
186	0x3e053eba	0.1301221
187	0xbd3c2845	-0.04593684
188	0x3e2ce770	0.16885161
189	0x3dc2b197	0.09506529
190	0x3e2dc43f	0.16969393
191	0x3d82914d	0.0637537
192	0x3e2c51f2	0.16828135
193	0xbe2d2c09	-0.1691133
194	0x3e2d7c0e	0.16941854
195	0xbcc2ec64	-0.02379436
196	0x3de5ec74	0.112267405
197	0xbcbd4a12	-0.023106609
198	0x3ca91190	0.020638257
199	0xbdf84cd2	-0.12124027
200	0x3b5e272f	0.0033897867
201	0x3dc63b73	0.09679308
202	0x3dc013a4	0.09378746
203	0x3e00fabe	0.1259565
204	0x3cb60941	0.02222121
205	0xbdf67dd8	-0.120357215
206	0x3e0d8b0e	0.13822576
207	0xbe05d9ee	-0.13071415
208	0xbdca26e4	-0.09870699
209	0x3e1489a4	0.1450563
210	0xbe33b5b3	-0.17549782
211	0xbe08e7fd	-0.13369747
212	0x3e1c51e0	0.15265608
213	0x3d8eff3d	0.069822766
214	0xbe28c17c	-0.16480058
215	0x3d318c1e	0.043346517
216	0x3db99e7b	0.09063431
217	0x3dc12abd	0.0943198
218	0xbdfd1d93	-0.123591565
219	0x3e078dfe	0.1323776
220	0xbe2b9215	-0.16754945
221	0x3cda03b7	0.0266131
222	0xbd2ef6c0	-0.042715788
223	0x3d8392a2	0.06424452

actor.2.bias f4 [7]
0	0x3becddf1	0.007228606
1	0x3d91e635	0.07123987
2	0xbdcef5b3	-0.10105457
3	0xbe28e099	-0.16491927
4	0x3dd89723	0.10575702
5	0xbddc7365	-0.10764197
6	0x3de1c119	0.110231586

critic.0.weight f4 [32, 64]
0	0x3dce8602	0.10084154
1	0xbd10e940	-0.035378695
2	0x3deb01a2	0.11474921
3	0x3c41a6e0	0.011819571
4	0xbd046e0c	-0.03233151
5	0xbdaff826	-0.085922524
6	0xbd6b97dc	-0.05751787
7	0xbdac38da	-0.08409281
8	0x3d98917e	0.074496254
9	0xbdaf43f4	-0.08557883
10	0x3bbaf9e0	0.005706057
11	0x3d6ad8e8	0.057335764
12	0x3defcfc0	0.11709547
13	0xbd8b0e8a	-0.067898825
14	0xbdec789c	-0.11546442
15	0xbdd0b754	-0.10191217
16	0x3de01b54	0.109427124
17	0x3ded8b86	0.115988776
18	0xbd10eea4	-0.035383835
19	0xbdfa0c70	-0.122094035
20	0xbc9dd8a0	-0.019268334
21	0xbdf7a858	-0.12092656
22	0xbdb3703e	-0.08761643
23	0x3d11e544	0.035619035
24	0x3c9a2fc0	0.018821597
25	0xbd74e658	-0.059789985
26	0x3d4167a0	0.047217965
27	0x3c8ba868	0.017048076
28	0x3df7c110	0.120973706
29	0xbdc5ef48	-0.0966478
30	0x3d2d0a3c	0.04224609
31	0xbc27d6b0	-0.010244057
32	0x3d3e11e0	0.046403766
33	0x3b4fb640	0.0031694323
34	0x3d938a62	0.07204129
35	0x3d8ca7f2	0.068679705
36	0x3dae6d76	0.08516972
37	0xbca5d568	-0.020243362
38	0xbdb3eb68	-0.087851346
39	0xbd47a0a4	-0.048737183
40	0x3d4eb924	0.050469533
41	0x3db9a43c	0.09064528
42	0xbcb9a9c8	-0.022663966
43	0xbd3a6538	-0.045506686
44	0x3d6920a4	0.056915894
45	0x3d09c61c	0.033636197
46	0xbdd4f566	-0.103983685
47	0x3d77aecc	0.060469434
48	0xbd3cf00c	-0.046127364
49	0xbd3b6e80	-0.045759678
50	0x3c020200	0.007935047
51	0xbdd27fb0	-0.10278261
52	0x3d4f87fc	0.050666794
53	0xbdceb03a	-0.10092206
54	0x3dc9397c	0.098254174
55	0xbde4030a	-0.11133392
56	0xbdae1d14	-0.0850164
57	0x3dedd9c0	0.11613798
58	0x3d1b0acc	0.037852094
59	0xbd4bffcc	-0.049804494
60	0x3def8b5a	0.11696501
61	0xbdfb5bb2	-0.12273349
62	0x3bd016c0	0.0063503683
63	0xbd670488	-0.056400806
64	0x3d91e4a4	0.07123688
65	0xbd7cc568	-0.0617117
66	0x3dc0e370	0.0941838
67	0x3d13e2f8	0.036105126
68	0xbde8167a	-0.11332412
69	0xbd160a58	-0.03663096
70	0x3d7868b4	0.060646728
71	0x3d6b4cb8	0.05744621
72	0xbd325f50	-0.04354793
73	0xbde13d08	-0.10997969
74	0xbdc68bf8	-0.09694666
75	0x3d3dad58	0.04630789
76	0xbcf1bb38	-0.029508218
77	0xbd04b348	-0.03239754
78	0xbdaeacc0	-0.08529043
79	0x3dd93b02	0.10606958
80	0xbbd14a20	-0.00638701
81	0x3d8ef31e	0.06979965
82	0xbdcd1800	-0.10014343
83	0xbdb4340a	-0.08798988
84	0xbd79fb14	-0.061030462
85	0xbd81172e	-0.06303249
86	0xbd86055c	-0.06543991
87	0xbd7183bc	-0.058963522
88	0xbdf1a5be	-0.11799191
89	0x3debc61c	0.11512396
90	0x3df09d58	0.11748761
91	0x3df8562c	0.12125811
92	0xbc44c5a0	-0.012010008
93	0xbba63280	-0.005071938
94	0x3db5fa20	0.08885598
95	0x3d07c114	0.033143118
96	0xbdb1eb42	-0.0868745
97	0x3c80e5a8	0.015734509
98	0x3d496670	0.049169958
99	0x3d4cc364	0.049991027
100	0x3d4d1534	0.05006905
101	0x3dff9b58	0.12480801
102	0xbdcbbe56	-0.09948413
103	0xbd4fa850	-0.050697625
104	0xbd926e0e	-0.071498975
105	0x3d90086a	0.07032855
106	0xbd2805ec	-0.041021273
107	0x3d7986f4	0.060919717
108	0x3c578490	0.013154164
109	0x3d01754c	0.031606004
110	0xbd223f40	-0.0396111
111	0x3dcc2210	0.099674344
112	0x3de85b94	0.11345592
113	0x3c9b3b08	0.018949047
114	0xbc8847d0	-0.016635805
115	0x3cfcd770	0.030864447
116	0xbd4be624	-0.049780026
117	0x3c8d8c30	0.01727876
118	0xbdfe25c4	-0.12409547
119	0xbd4132ac	-0.047167465
120	0xbd87ccb8	-0.06630844
121	0xbd8fdea6	-0.07024889
122	0x3dc5bf10	0.09655583
123	0xbd35bef8	-0.044371575
124	0xbc498810	-0.012300506
125	0x3de5ae6a	0.112149075
126	0x3dac9654	0.0842711
127	0xbd9ffef0	-0.07812297
128	0xbd9486ce	-0.072522745
129	0x3d8b4064	0.06799391
130	0xbcc3add0	-0.023886591
131	0xbde46914	-0.111528546
132	0xbd58972c	-0.052878544
133	0xbd86ec54	-0.06588045
134	0xbcea3ad0	-0.028592497
135	0xbdd0bec0	-0.10192633
136	0x3da8a876	0.082352564
137	0xbdb21d48	-0.08696991
138	0x3dfd8b76	0.12380116
139	0xbdb6c78c	-0.08924779
140	0xbc2cf090	-0.010555401
141	0xbd97791e	-0.07396148
142	0xbd09287c	-0.033485875
143	0xbd508a94	-0.05091341
144	0x3da4d288	0.08047968
145	0x3defaa80	0.11702442
146	0xbdbd86a8	-0.09254199
147	0xbdcdb800	-0.10044861
148	0xbd6af6ac	-0.05736415
149	0x3d3603c4	0.044437185
150	0xbcb238d8	-0.02175562
151	0x3cdbfba0	0.026853383
152	0x3b93d540	0.0045115054
153	0x3dd93da4	0.1060746
154	0xbdc3c1de	-0.095584616
155	0xbdbbce3e	-0.09170197
156	0xbd009ab8	-0.03139755
157	0x3d9a555a	0.07535811
158	0x3d883ee0	0.066526175
159	0x3b4ac100	0.003093779
160	0xbd549a74	-0.05190511
161	0xbdc3e9ac	-0.09566054
162	0xbd395bdc	-0.04525362
163	0xbd7203c0	-0.059085608
164	0xbcc83f08	-0.024444118
165	0xbdf35d82	-0.118830696
166	0xbdccde3a	-0.10003324
167	0xbddb3cb2	-0.10704936
168	0x3da9cdf8	0.082912385
169	0xbd0a5ed0	-0.033781826
170	0xbd520b14	-0.051280096
171	0xbd3be7c4	-0.045875326
172	0xbdfd322c	-0.12363085
173	0x3c03e810	0.0080509335
174	0x3da6a4d4	0.08136907
175	0x3dec75b4	0.115458876
176	0xbd31b154	-0.043382004
177	0xbd97f96e	-0.07420622
178	0x3d033aa8	0.03203836
179	0xbd48ab34	-0.048991397
180	0xbda4ed10	-0.080530286
181	0xbd6e36e4	-0.058157817
182	0xbded3fb2	-0.115844145
183	0x3d9090e2	0.07058884
184	0x3dad6002	0.08465578
185	0x3d466200	0.048433304
186	0x3d87b856	0.06626956
187	0x3dadcbf6	0.08486168
188	0x3c94e3d0	0.018175036
189	0xbdccda10	-0.100025296
190	0xbd8ceae8	-0.06880742
191	0xbc9c7fb8	-0.01910387
192	0xbde10e6a	-0.109890774
193	0xbdb3612a	-0.08758767
194	0x3ab4e480	0.0013801008
195	0x3df53c62	0.11974408
196	0x3dfe15a4	0.12406471
197	0xbd8b4aba	-0.06801362
198	0x3dd86618	0.10566348
199	0xbd3411ec	-0.043962404
200	0xbd92cd16	-0.07168023
201	0xbdc91b3e	-0.09819649
202	0xbb19ec40	-0.0023486763
203	0x3d085060	0.033279777
204	0xbdace1cc	-0.08441505
205	0xbde95c2c	-0.113945335
206	0xbd1d6430	-0.038425624
207	0x3c35e430	0.011101767
208	0x3df62a62	0.12019803
209	0xbc955248	-0.018227711
210	0xb9d97000	-0.00041472912
211	0x3d3a4e90	0.04548508
212	0x3cd547f8	0.026035294
213	0x3d147a4c	0.036249444
214	0xbd90f9ea	-0.07078917
215	0x3d5fd9ec	0.054651186
216	0x3d8d04c4	0.068856746
217	0x3dc839f0	0.09776676
218	0xbdb37c66	-0.087639615
219	0x3c47b670	0.012189493
220	0xbb596080	-0.003316909
221	0x3df8d6f4	0.12150374
222	0xbcffa0c8	-0.031204596
223	0xbdfcae36	-0.123379156
224	0xbc304e50	-0.010760859
225	0xbccaefa8	-0.02477248
226	0x3dd7119c	0.105014056
227	0x3d7c43f4	0.061588243
228	0xbd789b14	-0.06069477
229	0x3d411888	0.047142535
230	0xbde32930	-0.1109184
231	0x3b1ab900	0.0023608804
232	0x3ca85720	0.020549357
233	0x3d96617e	0.07342814
234	0xbd337310	-0.043810904
235	0xbd0823e4	-0.033237353
236	0x3dfac05c	0.12243721
237	0xbde5317c	-0.11191079
238	0xbd578598	-0.05261764
239	0xbcbada88	-0.022809282
240	0x3dc490e2	0.09597947
241	0xbd8b71ba	-0.06808801
242	0x3da0abdc	0.078452796
243	0x3d2082a8	0.039187104
244	0x3cc33390	0.023828298
245	0x3c172880	0.009225965
246	0x3daac16a	0.08337672
247	0xbca6f748	-0.020381585
248	0xbca86fa0	-0.02056104
249	0x3c4ec170	0.012619361
250	0xbdaeafb6	-0.08529608
251	0x3dae006a	0.08496173
252	0xbd88aa18	-0.06673068
253	0x3de2d464	0.110756665
254	0xbd362d3c	-0.044476733
255	0xbc79b5b0	-0.015241072

critic.0.bias f4 [32]
0	0x3da77868	0.081772625
1	0xbd69382c	-0.056938335
2	0x3d315ad4	0.04329951
3	0xbca44c00	-0.02005577
4	0xbd403d08	-0.046933204
5	0xba0d3a00	-0.0005387366
6	0xbdf7361a	-0.12070866
7	0x3dfd638c	0.12372503
8	0xbd0180c0	-0.031616926
9	0x3dd74aa8	0.105122864
10	0x3de4814a	0.111574724
11	0x3de35806	0.111007735
12	0x3d9e239a	0.07721634
13	0xbdcb8b58	-0.09938687
14	0xbc388c40	-0.011263907
15	0xbdeb777c	-0.11497399
16	0xbba7a980	-0.0051166415
17	0xbbc5c8c0	-0.006035894
18	0xbd9cccfa	-0.07656284
19	0xbd0ac818	-0.03388223
20	0x3d7fb124	0.062424794
21	0x3c3f6530	0.01168184
22	0xbdf5c14a	-0.119997576
23	0x3d458f78	0.048232526
24	0x3cf43f00	0.029815197
25	0xbc93a188	-0.01802136
26	0xbda11934	-0.07866135
27	0x3df163ea	0.11786635
28	0xbc408cd0	-0.011752322
29	0x3d875f50	0.06609976
30	0x3d24e400	0.0402565
31	0x3d32c5a8	0.04364553

critic.2.weight f4 [1, 32]
0	0xbd9225dc	-0.07136127
1	0x3d79d00a	0.060989417
2	0xbd8637a5	-0.06553582
3	0x3dc33e9e	0.09533428
4	0xbe2308e1	-0.15921356
5	0xbdacf4e5	-0.084451474
6	0x3d83cadf	0.06435179
7	0x3d4c5121	0.049882058
8	0xbdec2a4d	-0.11531506
9	0xbe2b6a20	-0.16739702
10	0xbc8a7c64	-0.016905017
11	0x3c9ac8a1	0.018894495
12	0xbd99f099	-0.075165935
13	0x3e000a89	0.12504019
14	0xbd546e96	-0.051863275
15	0x3e3499df	0.17636822
16	0x3e123548	0.14278138
17	0x3e01b56b	0.12666862
18	0x3d9f05ed	0.07764802
19	0x3e1f8036	0.15576252
20	0x3dabbd07	0.083856635
21	0x3de01048	0.109406054
22	0x3d06b6fd	0.032889355
23	0x3e2d5e29	0.1693045
24	0xbdceb510	-0.10093129
25	0xbe0e18b6	-0.13876614
26	0xbd6cd8c0	-0.057823896
27	0x3c9cad0a	0.01912548
28	0xbd352788	-0.044227153
29	0xbe2feb7a	-0.17179671
30	0x3bf968bc	0.0076113623
31	0x3c4d8f10	0.012546316
