src/franka_h2/scripts/RL/pth/arm_ppo.pth (torch, 69554 bytes, 11 tensors)

shared_layer.0.weight f4 [128, 28]
000000 ec d4 87 bb a7 2c 41 be 36 e2 af bd ef dd 40 be
       -0.0041452553 -0.1886469 -0.08588068 -0.18834661
000010 89 05 07 3d 27 19 2b be f2 81 2f be da 47 2a be
       0.032964263 -0.16708814 -0.17139414 -0.16628972
000020 c3 85 38 bd 99 1c de 3b 8a 92 8e bd 29 5c a4 3d
       -0.04504944 0.0067783115 -0.06961544 0.08025391
000030 fd fd 18 3e 00 77 4e bd 5b 2d e3 bd 5b 07 13 3e
       0.14940639 -0.050406456 -0.11092635 0.14358275
000040 0b a9 20 3e d6 ee 15 bd 91 97 23 be ae c7 20 be
       0.15689485 -0.036604725 -0.15975787 -0.15701172
000050 12 56 c5 3c 08 fc c2 bd 5b e5 e8 bd 5d c1 36 be
       0.024088893 -0.095207274 -0.11371871 -0.178472
000060 04 e8 38 3e a1 30 6f bd bd a3 94 3d 56 8e 1c 3e
       0.18057257 -0.058395986 0.07257793 0.15288672
000070 50 7b d8 3d ea 33 01 be c2 2e 01 bb 6c 4c 1a be
       0.10570395 -0.1261746 -0.0019711708 -0.15068215
000080 e4 78 cd bc 63 b5 39 3e 6c bf 11 3d 94 51 06 bd
       -0.02508206 0.181356 0.035582945 -0.032792643
000090 00 4e 8f bd fb c5 91 3d 94 90 08 3b b3 c8 e9 3d
       -0.06997299 0.0711784 0.0020838128 0.114152335
0000a0 97 1a 57 bd d7 a6 f1 bd f5 66 90 bd 8e e2 53 3d
       -0.052515592 -0.117994 -0.070508875 0.05172973
0000b0 98 37 25 3d f3 cb 23 3e 26 46 ed 3d 8b f8 a4 bd
       0.04033622 0.15995769 0.115856454 -0.08055218
0000c0 de 5d cf 3c 3a 99 a2 ba 95 f8 ac bd 0c 62 cd bd
       0.025313314 -0.0012405284 -0.08445851 -0.100284666
0000d0 6f 6e 08 be 5e 84 b1 bc 58 ea 3f be 66 0e 6b bc
       -0.13323377 -0.021669563 -0.18741739 -0.014346695
0000e0 de 18 f6 bd 47 bb 14 be 94 05 3b 3e de b7 c1 bd
       -0.12016462 -0.14524566 0.18263847 -0.09458898
0000f0 a2 a2 4d 3d aa bf 52 bd b5 92 2b 3d 6e 20 0c 3e
       0.050203927 -0.051452316 0.041887958 0.13684246
000100 14 4c bf bd 49 25 2f bd af dc c8 3d ed e4 9c bd
       -0.093406826 -0.042760167 0.09807717 -0.07660852
000110 53 75 d8 3c 8e 12 d0 3d a9 ac cf 3d f1 76 c6 bd
       0.026423132 0.10159789 0.10140354 -0.09690655
000120 45 ad 8b bd 0a ec e1 bd a9 bb 40 3e 3b 3b 99 bb
       -0.06820158 -0.11031349 0.18821587 -0.0046762503
000130 43 23 18 be 62 e7 16 be ab 15 05 3e 64 06 55 3d
       -0.14857201 -0.14736703 0.12996547 0.052008048
000140 98 bd 95 bd 2c 76 bf 3d 84 02 2e 3c 5d f7 23 be
       -0.07311553 0.09348711 0.010620717 -0.1601233
000150 40 45 b3 bd 31 fe 42 bd 9e b0 5e bd cd 80 06 3e
       -0.08753443 -0.047605697 -0.054367654 0.13135071
000160 23 b2 29 be 29 7a 16 be 84 87 1b 3e d0 50 db 3d
       -0.1657186 -0.14695038 0.15188414 0.10708773
000170 bf 18 f1 3d 5b 26 08 be dd 3c 25 3d 89 39 e7 bc
       0.11772298 -0.13295881 0.040341247 -0.028225677
000180 cb 38 35 3e fe bc 0d be 98 ef d3 3d 93 48 2d 3e
       0.17697446 -0.13841626 0.10348433 0.16922216
000190 c9 5f 41 be 0d 3f fc 3d a9 77 9c 3d bd 2b 76 3d
       -0.18884195 0.123167135 0.07640011 0.060100306
0001a0 84 b7 58 bb 03 c9 30 3e 18 26 20 be 90 de 3c 3e
       -0.0033068368 0.1726418 -0.15639532 0.18444276
0001b0 78 d2 7f bd 6a 60 30 3e 9b fa 70 bc 42 fc e2 bd
       -0.062456578 0.17224279 -0.0147081865 -0.110832706
0001c0 18 26 e4 3d f2 44 e8 3c 44 df 94 3d 59 7d 24 be
       0.11140078 0.028353188 0.07269147 -0.16063441
0001d0 68 8b 21 be 63 ab 37 be 08 5b e7 ba d7 30 a7 bd
       -0.15775836 -0.17936473 -0.0017651031 -0.08163612
0001e0 2c d3 26 be d6 b9 0f be e7 fe 0a 3e bd 29 84 bd
       -0.16291493 -0.14035735 0.135738 -0.064532734
0001f0 3d 54 3c be fe e3 0c 3e 73 5c 5b 3b 34 bc ce 3d
       -0.1839151 0.13758847 0.0033471852 0.10094491
000200 01 4c b3 38 5f 22 c2 3d fc cf 97 3d 65 89 2b be
       8.549542e-05 0.09479212 0.07412717 -0.1675163
000210 96 71 10 be 60 d8 7b 3d 6e 81 e1 3d f5 1c 92 3d
       -0.1410583 0.06148565 0.11011015 0.07134429
000220 57 d3 1f 3e 0a ba 97 3c d5 64 20 3c f8 b3 ab 3d
       0.15607964 0.018521328 0.009789665 0.08383936
000230 02 76 33 be 78 17 2a 3e 86 c8 48 bc c8 25 21 3d
       -0.17525485 0.16610515 -0.01225484 0.03934267
000240 65 c6 28 be cf ef 23 be 53 49 3d be ee 7c 6d bd
       -0.16481932 -0.16009448 -0.18485002 -0.05798047
000250 e1 b2 94 bd 11 34 f6 bd 8a 96 60 bc 22 39 d3 bd
       -0.07260681 -0.1202165 -0.013707766 -0.103136316
000260 9d a9 1c 3e d7 2f 1c be 5c c2 69 3a 25 aa d6 bb
       0.15299077 -0.15252624 0.00089172064 -0.0065510445
000270 2f a0 0d 3e 34 9f 3c be 86 07 4e 3d f7 df 1b be
       0.13830636 -0.18420106 0.050300144 -0.15222155
000280 74 2b c2 3d 5b 3e 7f bd 77 5b 2d 3e 75 a9 4b 3c
       0.09480944 -0.062315326 0.16929422 0.012430538
000290 9b 39 d8 3c 9d 5c 70 3c 4a a1 35 3e 0d 35 41 3e
       0.026394656 0.014670518 0.17737308 0.18867894
0002a0 75 c4 22 3e 64 5d 37 bd 66 cc 7f 3d db a7 11 be
       0.15895255 -0.0447668 0.06245079 -0.14224188
0002b0 0b 74 1f 3e 64 64 36 be d0 ba 1a be ce 8c f6 bd
       0.1557161 -0.17811733 -0.15110326 -0.12038575
0002c0 74 c2 1b be 87 04 27 3e c5 ec 3d be 1a 65 a3 bd
       -0.15210897 0.16310321 -0.18547352 -0.07978268
0002d0 b5 1a e6 bd af 41 ca bc 96 e7 cb 3c 24 dd 89 3c
       -0.11235563 -0.024689524 0.024890702 0.01682908
0002e0 16 5d 47 bd ff d1 4b 3d 94 5d a9 bc e7 32 90 bd
       -0.048672758 0.049760815 -0.020674504 -0.07040959
0002f0 6b 9f e6 bd 14 81 fe 3d 3e a9 13 bd 46 43 92 bd
       -0.11260875 0.124269634 -0.036050074 -0.07141738
000300 14 1d 9a 3d 79 2f 6b bd 14 91 a3 3d 65 d7 df 3d
       0.075250775 -0.05741832 0.07986656 0.10929755
000310 6a 2d a2 bc c4 86 2e be 44 2b 69 bd f3 16 62 3d
       -0.019797046 -0.17043597 -0.056926027 0.055197667
000320 e2 90 17 3e 71 dd d7 3d 47 01 10 3e 48 e7 7f bd
       0.14801362 0.105402835 0.14062987 -0.062476426
000330 7f c5 88 3d 95 8d 4f 3c b0 a8 09 be 9b 0f 7d 3d
       0.066782944 0.012668033 -0.13443255 0.06178246
000340 02 df 07 be dc 63 00 bd 65 55 95 3d 4a 9d 29 3e
       -0.13268664 -0.031345233 0.07291678 0.16563907
000350 ee df 02 3e b8 ae fc 3d ac a0 72 bd d7 e9 21 3e
       0.12780735 0.123380125 -0.05923526 0.15811859
000360 75 3b a6 bd f3 02 8d 3d be aa b1 3d 2d e8 c0 bd
       -0.08116809 0.06885328 0.086751446 -0.09419284
000370 40 71 23 be 86 fb a9 3d 0c ce 13 bd 4b 8e 3f be
       -0.1596117 0.082999274 -0.036085173 -0.18706624
000380 40 32 3d be 96 be b9 3d 72 a5 1b 3e 9d b3 3a be
       -0.184762 0.090695545 0.15199831 -0.1823258
000390 ea d9 33 3e a5 10 09 be 56 cf bf 3d 09 8d 81 bd
       0.17563596 -0.13385256 0.09365718 -0.063257284
0003a0 ed 64 a4 3c 8d 5e d6 3d 56 4f 2a be 6a a4 bb 3d
       0.020067656 0.10467253 -0.16631827 0.09162219
0003b0 15 ee 53 bd 42 a7 9c 3c 45 fd 89 bc 75 9e 87 3d
       -0.051740725 0.019122723 -0.016844401 0.0662202
0003c0 99 e0 0b 3e 5a e6 02 bd f1 4d 36 bd 15 ca 66 bd
       0.13659896 -0.03195796 -0.044507924 -0.056345064
0003d0 ea 5a 23 be 72 e4 10 3e fd 98 14 3e 25 4c ad 3d
       -0.1595265 0.14149645 0.14511485 0.08461789
0003e0 02 71 19 be 30 6b db 3c 7b bb b4 3d a9 9b ab 3c
       -0.14984515 0.02678451 0.088248216 0.020948248
0003f0 e2 e2 c4 3d 59 68 3b be a5 23 2e 3e bb 48 a0 3d
       0.09613587 -0.18301524 0.17005785 0.07826372

shared_layer.0.bias f4 [128]
000000 a9 77 1d be 98 64 8e 3d 5d 1e 1c 3e bc 2f 27 be
       -0.15377678 0.069527805 0.15245958 -0.16326803
000010 34 ee 34 be 0f 36 b6 3d 0c d3 f0 3d 83 17 8a bd
       -0.17668992 0.088970296 0.11759004 -0.06742766
000020 5a 98 b0 bd 58 7d 14 be fb fd 62 3d 15 f7 41 bd
       -0.08622809 -0.1450094 0.055417996 -0.047354776
000030 69 1c 30 3e ca 9b a3 3d 34 77 e7 3d d3 b5 d9 3d
       0.17198338 0.07988699 0.11302033 0.10630383
000040 de 7b 74 bd c2 e3 23 3e 1c 27 1e be 83 79 05 3e
       -0.05968844 0.16004851 -0.15444607 0.13034634
000050 ae 8c 08 bd 6a 75 11 3e c0 1a 12 3d f5 e9 b6 3d
       -0.033337288 0.14204946 0.035670042 0.089313425
000060 de 23 27 3e e4 bf f6 bd f4 62 a5 bd 48 51 0a 3e
       0.16322276 -0.12048319 -0.080755144 0.13507569
000070 89 a8 17 3e 7b f1 98 bd 5a e1 f1 bc eb 6e 98 bd
       0.14810385 -0.07467934 -0.029526401 -0.07443031
000080 68 94 82 bc 57 ad 20 3e a8 0f 2f 3e 50 3d 24 3e
       -0.015939906 0.15691124 0.17095816 0.16039014
000090 c5 2a ba 3d 9e 68 7f 3d 9e e5 3c 3e 66 7d 28 bc
       0.09090189 0.06235563 0.18446967 -0.010283804
0000a0 6a 93 88 bc 17 8a 39 3e 6f 34 62 3d 93 ac 11 bd
       -0.016671855 0.18119083 0.055225786 -0.03556497
0000b0 b3 d9 3b 3e 1c 8f 32 3e fe 20 de 3d 80 4e f1 bd
       0.18344764 0.17437404 0.108461365 -0.11782551
0000c0 bb 97 16 3e fd 05 d3 3c 5c 04 e8 3d 92 e3 6f 3c
       0.14706318 0.025759691 0.113289565 0.014641659
0000d0 14 a6 2c bd ef 22 03 3e 15 09 a8 3c 98 e8 ed 3d
       -0.042150572 0.12806295 0.020512143 0.11616629
0000e0 c5 04 bc 3d 37 0d 19 be 8f ae 1c 3e 02 28 62 3d
       0.09180597 -0.14946447 0.15300964 0.055213936
0000f0 35 60 22 3e e1 e1 bf 3d b7 0b 23 be 88 b8 6c 3d
       0.15857013 0.09369255 -0.15922438 0.05779317
000100 fd 19 19 3e 31 e4 8e bd 5e 38 e5 bd e9 24 36 bd
       0.1495132 -0.06977118 -0.11192392 -0.044468794
000110 d3 65 c9 bd 66 71 80 ba f8 45 c7 3d c0 db 29 3e
       -0.098338746 -0.000979942 0.09730142 0.16587734
000120 82 48 3c 3d cc fc b7 bc 04 48 d2 3d dd 80 dd bd
       0.045967586 -0.02245941 0.10267642 -0.10815594
000130 39 ec 90 3d 8d 6b 15 be 3b da 1c be 23 b4 7b 3c
       0.07076306 -0.14591809 -0.15317623 0.015362772
000140 57 91 e2 3c d2 de 97 3d 62 6a 36 3d 5b ef 37 be
       0.027657194 0.074155465 0.04453505 -0.179624
000150 21 ce 13 be dd da cd bd 11 b2 0f be dd b8 f2 bd
       -0.144341 -0.100515105 -0.1403277 -0.11851666
000160 e7 91 9a 3c d3 7d 19 bd 56 43 5e bc c3 9a a7 bd
       0.0188684 -0.03747351 -0.013565859 -0.08183815
000170 d5 21 22 3e c3 d1 fb 3c e5 59 c7 3d 94 af 7c 3d
       0.15833218 0.03073967 0.09733943 0.06169088
000180 4e 64 e8 3d f1 c0 e1 bd f9 ce 1b be 83 c2 09 3e
       0.113472566 -0.11023129 -0.15215673 0.13453107
000190 e3 6c 99 bc ed 80 36 3e 0d 85 88 bb 04 ff 83 3d
       -0.018728679 0.17822619 -0.0041662515 0.06445125
0001a0 68 49 ae 3d 1b 5a 24 bd df 02 3b be 8d 86 1e be
       0.08510095 -0.040124994 -0.18262814 -0.15481015
0001b0 c2 c2 56 bd 40 ae 30 3e 4e a3 d2 3d eb 39 91 bd
       -0.05243183 0.17253971 0.10285054 -0.07091125
0001c0 d9 a1 18 bd c7 59 31 bd 24 de 1b be f7 3e c3 bd
       -0.037263725 -0.04329851 -0.15221459 -0.09533494
0001d0 d1 30 3b be 84 b8 2f 3e 01 01 33 be 02 52 66 bd
       -0.1828034 0.17160231 -0.17480852 -0.056230552
0001e0 33 89 c4 3d 19 87 cf 3d 2c 00 86 3d 67 9b e8 3d
       0.09596481 0.1013319 0.065430015 0.11357766
0001f0 8e 5f 39 be be de 00 be 21 c4 5a 3c ff 9d 8f bd
       -0.18102857 -0.1258497 0.013352425 -0.07012557

shared_layer.2.weight f4 [64, 128]
000000 d0 40 4e 3c 63 c0 18 3d 95 54 9c 3d 54 9e f8 ba
       0.012588695 0.03729285 0.0763332 -0.0018968084
000010 66 20 a4 bd a7 1b 96 bc 4c 43 37 bb 6d 3d 79 bb
       -0.08013992 -0.018323733 -0.0027963696 -0.0038030997
000020 b3 06 88 bd fe 77 a2 3d bf 53 f4 bc 34 14 55 3d
       -0.06641903 0.07933043 -0.02982509 0.05202122
000030 5f a3 3a bd 12 e1 00 bd 18 28 b2 3d f0 c7 6f ba
       -0.04556596 -0.031464644 0.086990535 -0.00091469195
000040 57 43 6e bc 5a b3 7a 3d a4 ab 95 bb e9 82 a6 bd
       -0.014542422 0.0612062 -0.0045675803 -0.08130438
000050 c1 ce 5a 3d 86 ab f7 bb ff 35 8e bd 69 1f ea bc
       0.053419832 -0.007558289 -0.06943893 -0.02857943
000060 e0 f3 91 3b 9e 3a cb 3c 4e 0d 5a 3b 4f c9 86 bb
       0.004454121 0.024808224 0.003327209 -0.0041133533
000070 2d 89 cf b6 b4 81 84 bd a8 10 82 bd 2d 92 de bc
       -6.18505e-06 -0.064700514 -0.06350833 -0.027169311
000080 a9 89 90 bd 3d e4 5b bd 5a 74 9f bd 4a 23 46 bd
       -0.070575066 -0.05368446 -0.07785864 -0.048373498
000090 ac ea 92 3d 22 3a 3e 3c 97 f4 d3 3c 66 aa 3c 3b
       0.07173666 0.01161054 0.025873465 0.0028788089
0000a0 e1 b2 ac 3d 39 9f 4e 3d 89 42 48 bd b0 51 9d 3c
       0.08432556 0.050444815 -0.048891578 0.01920399
0000b0 1a 74 15 3d c4 58 ac bd 85 2f 48 bd 71 5c 2f 3c
       0.036487676 -0.08415368 -0.048873443 0.010703192
0000c0 be 56 59 bd ee 88 c7 3c e1 6e 03 bd b3 5c a5 bd
       -0.05306124 0.024357285 -0.032088164 -0.080743216
0000d0 52 5c 6a bd eb c1 5c bc 8f 22 99 3d 4d ed 8f bc
       -0.05721695 -0.013473968 0.07477295 -0.017569209
0000e0 ea 3b 14 bd f2 14 18 bc 44 7b b1 3d 6e 99 1c bd
       -0.03618995 -0.0092823375 0.08666089 -0.03823226
0000f0 a5 1b 63 3d 92 77 9b 3c 3e 05 4b bd fe 2d 66 3d
       0.055446286 0.018977914 -0.049565546 0.056196205
000100 4b fa 42 bd 2c b5 ec bc 29 a4 a4 bb 2b c1 3c bd
       -0.04760198 -0.028894983 -0.005024452 -0.046082657
000110 57 41 b9 3c a7 8b 57 3c 0b 3f 0d bd 35 f3 01 bc
       0.022614164 0.013155854 -0.03448395 -0.00793152
000120 ca 31 8a 3c 9c 68 91 3d f8 78 b3 3d 1f 04 80 bd
       0.016869444 0.07100031 0.08763307 -0.06250786
000130 a5 7d db 3c 71 c4 b3 3d e7 0a 79 3d 06 05 66 b9
       0.02679331 0.087777026 0.060801413 -0.0002193638
000140 dd b3 ae bc b3 5c a9 3d d5 24 99 bd df 6d 6b bd
       -0.021326 0.08269634 -0.07477728 -0.057477828
000150 be 20 a5 bc 83 67 7f 3d 6e e0 d0 bc fb 9a 30 3d
       -0.020157214 0.062354576 -0.025497641 0.04311655
000160 f2 c8 08 bd d4 5d 1d 3d 18 35 71 bd 1b 45 27 3d
       -0.03339476 0.03841956 -0.058888525 0.04083739
000170 fa 1a 40 bd f8 97 6a bd 69 d1 53 3c e7 77 54 3d
       -0.046900727 -0.057273835 0.012928345 0.05187216
000180 fd a8 15 bd d0 0e a9 3d da de aa bd 32 ca ea ba
       -0.036538113 0.082547784 -0.08343287 -0.0017913042
000190 be 01 83 3d bf 07 3b bd 1b c9 93 3c 2b 59 60 3d
       0.06396817 -0.045661684 0.01804023 0.054772537
0001a0 ec 67 1c bb 84 ce 27 bd 20 7a b6 3b d8 a2 4a 3d
       -0.0023865653 -0.040968433 0.0055687577 0.049471706
0001b0 18 4d b3 bd 07 af cb 3c 8a 98 56 bd 0d 07 61 3d
       -0.08754939 0.024863733 -0.052391566 0.054938365
0001c0 dd ad 0c bd 0d 57 9c bd e6 11 33 bd 6e 5f af 3d
       -0.034345496 -0.07633791 -0.04371824 0.08563124
0001d0 8c 32 bb 3c 6a bc 6d 3d bd 02 9e bd 4b f7 38 bd
       0.022851251 0.058041014 -0.07715366 -0.045157712
0001e0 f4 99 82 3d 38 f7 93 bd 8d 16 96 bd f9 de 7a bc
       0.063770205 -0.072248876 -0.0732852 -0.01531195
0001f0 94 ef 67 3d 15 e2 e6 bc 0f 12 8a bd 01 51 3a 3c
       0.056624964 -0.028183976 -0.06741726 0.011371852
000200 04 65 24 bd 5b c7 03 3d 2b 20 73 bd 1a 73 53 3c
       -0.0401354 0.032172542 -0.05935685 0.01290586
000210 dd 21 f6 bc 1e 35 18 ba bc 95 c9 bc d5 50 91 bd
       -0.030045444 -0.0005806255 -0.024607532 -0.070954956
000220 dd e1 ac 3d dc 95 a6 bd 97 db 9d 3d 24 23 16 3d
       0.084415175 -0.08134052 0.07707899 0.036654606
000230 f4 3d bf bc 61 a3 a4 3d 21 71 6d bd 1b a8 bb bc
       -0.023344971 0.080389746 -0.057969216 -0.022907307
000240 9b 60 03 bc 9c 34 57 bd f6 a2 a6 bd 30 3f 26 bd
       -0.008018638 -0.052540407 -0.08136551 -0.040587604
000250 8b e3 6a 3d fc a2 29 bd 9e b3 52 bd 0e 7f c2 3c
       0.057345908 -0.0414152 -0.051440828 0.023742225
000260 fe 3e 56 bd 6e 5e af bc 72 0c 8e bc be 83 ca 3b
       -0.052306168 -0.021407332 -0.017339919 0.0061802557
000270 27 27 be 3c 00 85 79 bd 5a b7 3d 3d 95 ce 99 bd
       0.023212029 -0.060917854 0.046317436 -0.075101055
000280 ca 40 a7 3d 48 79 06 bd ce 1b bc 3c cf cf 27 3d
       0.081666544 -0.032830507 0.022962477 0.040969666
000290 98 81 a5 bc 5c 41 e4 3b 12 44 78 bd d0 8d 30 3d
       -0.020203397 0.0069657993 -0.060611792 0.043103993
0002a0 a6 c6 8c bd e9 71 39 3b 87 1e b4 3d da 9a 3a bd
       -0.06873827 0.0028296656 0.08794885 -0.045557834
0002b0 12 a4 b1 3c b5 ed 66 bc c3 fc ae bc 1d 5c 65 3c
       0.02168468 -0.01409476 -0.02136076 0.013999012
0002c0 0e 0a 54 3d 93 3d 22 3d 33 6c f2 bc 5e 48 ca 3c
       0.0517674 0.039609503 -0.029592609 0.02469271
0002d0 86 0f 74 3d 6e c0 81 bb 61 4b f3 bb 0f e9 5b 3c
       0.059585117 -0.003959707 -0.0074247574 0.013422265
0002e0 7b 33 e4 3c a3 f6 0f 3d 49 d2 c8 3c 1e 89 92 bc
       0.027856579 0.03514732 0.024514334 -0.017887648
0002f0 41 8f 16 bd 92 25 30 3d 15 81 76 3c c8 ac ac bd
       -0.03675771 0.04300458 0.015045424 -0.08431393
000300 f4 7e a8 bd f3 5d 3f bb b9 63 ae bd 0b 03 91 bd
       -0.082273394 -0.0029200285 -0.08515114 -0.070806585
000310 7f a9 80 3c 62 78 b1 bd 67 e4 18 3d d3 fc f6 bc
       0.015705822 -0.08665539 0.037327196 -0.030149853
000320 74 fa f3 3c dd 66 35 3d 70 2d 23 3c fb 9d 6c 3d
       0.029782511 0.04428755 0.009959564 0.05776785
000330 14 f9 7a bd 2b 4d 62 3c 98 8d 64 bd cc c1 b0 bb
       -0.061272696 0.013812344 -0.055799097 -0.005394196
000340 4d 0a 2e 3d 44 85 c2 3c da 5a 24 bd 89 25 17 bd
       0.042490292 0.023745187 -0.040125705 -0.03690103
000350 46 0f 6b 3d 2d bd b0 3c dd ec 7e 3d 5e 9e 9f bd
       0.057387613 0.021574581 0.06223761 -0.07793878
000360 a4 95 f4 3c 1c ed 7f 3c 33 fb 92 bd c6 01 81 3a
       0.02985651 0.015620496 -0.07176819 0.0009842447
000370 0e c5 6d bd ba 2f 96 3d 9f 0b a0 bc 9c 4a f2 bb
       -0.058049254 0.07333322 -0.019536791 -0.007394148
000380 f3 82 ac 3c 63 ad d0 bc 69 62 90 bd 3d da 62 bc
       0.021058535 -0.025473302 -0.0705002 -0.013845977
000390 cd c0 b3 3d a5 ea a4 bd 72 3e ad 3c 6d 1b 86 bd
       0.08777008 -0.080525674 0.02114794 -0.065482
0003a0 31 d3 b7 3b 7d 20 77 bd 2d 31 76 3d 5c 39 a6 bd
       0.005609893 -0.060333718 0.06010549 -0.08116409
0003b0 b5 58 8f bd ae 52 7e 3c e4 a2 bf 3b f3 6e 78 bd
       -0.069993414 0.015522642 0.0058482755 -0.060652684
0003c0 b5 60 9f bd 10 d1 19 bd 6f 20 a9 3c 9c 29 24 3d
       -0.07782117 -0.037552893 0.020645348 0.040078744
0003d0 a3 9e 81 bd 5b 86 1b 3c ff 7d 2f 3d 5e aa 90 bd
       -0.06329086 0.009492482 0.04284477 -0.07063745
0003e0 a4 4f 0a 3d 53 7f a9 3d f4 f3 b5 ba be 94 12 3a
       0.033767357 0.08276238 -0.0013881908 0.00055916223
0003f0 22 f6 a5 bc 2e 48 3b 3d 49 2b be bc 9c dd 85 bd
       -0.020258967 0.045723133 -0.023214 -0.06536409

shared_layer.2.bias f4 [64]
000000 d5 c3 b0 bd e9 df 00 bd aa 90 a2 3d 4b 2e 0f ba
       -0.08631102 -0.031463537 0.07937749 -0.0005461915
000010 29 db a7 bd 8d 3a 99 3d fe cb 5a 3d 53 c0 08 bd
       -0.08196098 0.07481871 0.0534172 -0.03338654
000020 a6 aa 19 bd be db 51 bd 14 b5 c3 3b 0f f3 8f 3d
       -0.03751626 -0.051234953 0.005972514 0.070287816
000030 7e 52 17 3d bb c7 36 bd c8 72 5f 3d 03 b7 d2 bc
       0.036943905 -0.04462407 0.054552823 -0.025722032
000040 30 54 ec bc f9 8b 9c bd 63 d2 4e 3b 4d 91 c3 3c
       -0.028848737 -0.07643885 0.0031558506 0.023872996
000050 2b b2 63 bd ae c4 04 3c 29 f9 75 3d ac 58 14 3c
       -0.055589836 0.008103533 0.06005207 0.009054344
000060 6a c4 4b 3d 9c 9e 99 bd 70 bb a0 3d 58 c2 8c 3d
       0.049747862 -0.075009555 0.07848251 0.06873006
000070 40 1a 0b bc c5 ac d8 bc 7f 93 88 bd 52 ee b1 3d
       -0.008490145 -0.02644957 -0.06668758 0.08688034
000080 09 d1 09 bd 76 67 93 3c 3b 8a cc 3b 34 4e 06 3d
       -0.033646617 0.01799367 0.0062420643 0.032789424
000090 9f cb 62 bd 39 0b 33 3d 90 a7 bd bc d3 42 93 bd
       -0.05536997 0.043711875 -0.02315119 -0.0719048
0000a0 9e 8c 2a bc f5 90 bd bc e6 2e ab 3c ba 58 a3 3c
       -0.010409502 -0.02314041 0.020896386 0.019939769
0000b0 52 c5 ad bd 83 99 86 3c 3e a0 49 3d c1 29 2c bd
       -0.084849015 0.016430622 0.049225084 -0.042032007
0000c0 f7 33 aa 3c 3b b8 9a bb 98 67 13 3c 09 fb cc bc
       0.020776732 -0.004721669 0.008996867 -0.025022047
0000d0 f2 f3 1d bd 7e ed 5c bd c3 44 ab bd a8 49 94 3d
       -0.038562723 -0.053937428 -0.08362725 0.07240611
0000e0 ee 52 8a bd 58 09 94 bd f4 cf 44 bd ed 51 8b 3d
       -0.06754099 -0.07228345 -0.048049882 0.068027355
0000f0 d0 25 ac 3d e1 a8 88 3c 2d 2a 04 bb 51 7a 96 bd
       0.0840565 0.01668209 -0.002016674 -0.07347549

actor.0.weight f4 [32, 64]
000000 c4 0e 8f 3d 10 e9 0b bc 12 11 9d bd a4 0b 3c 3d
       0.06985238 -0.008539453 -0.076692715 0.04590954
000010 bc 99 ef bd 5e c2 83 bd 3e 72 b9 bd f0 19 2e bc
       -0.116992444 -0.06433557 -0.09054993 -0.010626301
000020 c0 a3 15 bb 3e af 81 bd 7e f1 f6 3d 70 08 fc 3c
       -0.0022833198 -0.06332253 0.1205778 0.030765742
000030 bc 09 6b bd 40 9e d3 bd d0 a5 6a 3c 92 1d f9 bd
       -0.05738233 -0.10332918 0.014321759 -0.12163843
000040 3a 9a 9b bd 38 5c 8f bc d0 d6 78 bd f0 30 e0 3d
       -0.07597776 -0.017500028 -0.060751736 0.10946834
000050 c0 a6 89 bd de 6e 98 3d 38 30 c6 bd 04 04 4a bd
       -0.06721258 0.07443021 -0.09677166 -0.049320236
000060 64 1d ce 3d 5c 46 05 bd 48 15 de 3c 20 b8 31 3d
       0.100641996 -0.032537803 0.027109757 0.043388486
000070 a0 55 1e bc ba 3e b6 3d 7c 9a 93 3d d0 17 13 3c
       -0.009663969 0.08898683 0.072072 0.008977845
000080 f0 b1 0f bd 30 9c 41 3d 50 3a 4a bd 88 5d 98 bd
       -0.035081804 0.047268093 -0.049372017 -0.07439715
000090 d8 b6 f1 bd f0 76 7f 3d 80 1f c4 bc 98 03 ae bc
       -0.11802453 0.062369287 -0.023940802 -0.021241948
0000a0 6a b2 b6 3d 4e 40 db bd 24 fb e0 3d 9c 1a f5 3d
       0.089207485 -0.107056245 0.10985401 0.11967966
0000b0 ac 81 14 bd 74 6f 11 3d 80 e1 37 bb 66 35 c6 bd
       -0.036256477 0.03550668 -0.0028057992 -0.09678154
0000c0 e0 cd 21 3c 9a da b8 bd 28 23 f6 3c 7c e6 52 3d
       0.009875745 -0.0902607 0.03004606 0.05148934
0000d0 00 54 ab bc 24 06 79 3d c8 9b 7f 3d ec df 79 3d
       -0.020914078 0.06079687 0.062404424 0.061004564
0000e0 06 22 d2 3d 60 b9 f9 3b 0c 75 a6 bd a2 b0 fc 3d
       0.10260396 0.0076209754 -0.08127794 0.123383775
0000f0 4a 35 ed 3d 1c 34 e7 bd e4 f5 aa bd 30 94 6c bd
       0.1158243 -0.11289236 -0.08347681 -0.05775851
000100 0c 87 5b bd b4 53 a1 3d 30 84 f7 3c 00 37 56 bb
       -0.053595588 0.07877293 0.0302144 -0.003268659
000110 10 5f ba bd 3c 03 22 3d c8 f4 da bd d8 1f cb bc
       -0.09100163 0.039553866 -0.106912196 -0.024795458
000120 52 95 b0 3d a8 98 09 3d ba 2f bc bd e4 b1 2e bd
       0.086222306 0.03359285 -0.091887906 -0.04265012
000130 78 0a 9d 3d b0 a7 86 3d 60 43 c1 3c bc 11 34 3d
       0.076680124 0.065749526 0.023591697 0.043962225
000140 0c a2 af bd 8e 75 89 3d 2c d0 92 3d 9e 38 c5 bd
       -0.0857583 0.06711875 0.07168612 -0.096299395
000150 c8 d1 09 bd 90 ca c3 bd fa 4f f1 3d 24 21 32 bd
       -0.03364733 -0.0956012 0.117828324 -0.043488637
000160 e0 32 de 3b 8e 20 d2 3d 20 9f 7a 3d 4e 89 86 3d
       0.006780967 0.102601156 0.06118691 0.065691575
000170 ee 64 89 3d a4 8c 96 bd 80 2d f3 3a 3c 9f 2b 3d
       0.06708704 -0.07351044 0.0018552989 0.041899905
000180 ae 62 f3 bd 20 ff eb 3d 4c 64 09 3d 32 df f3 3d
       -0.11884056 0.115232706 0.033542916 0.119078055
000190 00 8a d4 bb 24 a3 66 bd 20 1e 4e 3c 00 58 c7 38
       -0.0064861774 -0.056307927 0.012580425 9.505451e-05
0001a0 76 e3 bb 3d cc 5d fc bd c0 da 08 bb b6 4b a7 3d
       0.09174244 -0.12322578 -0.0020882338 0.081687376
0001b0 a8 6f e0 bd 94 de cb 3d a6 28 dc bd d0 93 10 bc
       -0.10958797 0.09954563 -0.107499406 -0.008824304
0001c0 88 15 a0 bd 00 fb 92 3b 44 b2 16 3d 88 da b0 bd
       -0.07816607 0.004485488 0.0367911 -0.086354315
0001d0 68 35 92 bc 68 de f5 bc 80 66 ac bd 64 0b b0 3d
       -0.017847732 -0.030013278 -0.08417988 0.085959226
0001e0 d4 17 df bd 60 40 fb 3c dc 41 4d bd ac 71 c5 3d
       -0.10893217 0.030670345 -0.050111637 0.09640822
0001f0 dc 31 8e 3d f0 16 87 3c 98 25 c1 3d ac de 87 bd
       0.06943104 0.01649043 0.094309986 -0.06634268
000200 50 e2 d2 3d 20 54 96 bc 0a 45 b3 bd 2c b7 5f 3d
       0.10297072 -0.01835066 -0.087534025 0.054618046
000210 98 52 b5 bc 44 1d 89 3d 80 27 ed 3a 00 46 40 bd
       -0.02213411 0.06695035 0.0018093437 -0.046941757
000220 0a 17 d2 bd 84 ea 8f bd d6 d5 c2 bd fc ea 3a 3d
       -0.102583006 -0.07027152 -0.09513442 0.045634255
000230 92 bd a2 3d 70 8f 99 3d 28 c4 82 3d f4 45 66 3d
       0.07946314 0.07498062 0.0638507 0.056219056
000240 a4 49 a2 bd d4 65 aa 3d 8c 9e 6e bd 1a 68 d3 3d
       -0.07924202 0.083202034 -0.05825667 0.1032259
000250 70 75 30 bd d2 20 88 3d d0 4e 4e 3d 9c 91 5a 3d
       -0.043080747 0.06646885 0.05036813 0.05336152
000260 8c 99 74 3d aa 27 87 bd 98 d0 9a bd 00 c1 c2 bc
       0.059716746 -0.06599362 -0.07559317 -0.02377367
000270 a0 57 9f bd 9e e3 c3 bd 96 45 a0 bd 3e 74 8b bd
       -0.07780385 -0.09564899 -0.078257725 -0.06809281
000280 08 f6 6f bd 08 ce 86 3c 08 56 c1 3c 42 87 f9 bd
       -0.058584243 0.016455665 0.023600593 -0.121840015
000290 38 1f e2 bc 18 f6 16 3d 48 f1 ae 3c 20 ad 4e bd
       -0.027602777 0.036855787 0.021355286 -0.050458074
0002a0 f0 47 8c 3c a6 f6 f9 3d dc 46 81 3d e8 b2 6c 3d
       0.017124146 0.122052476 0.063123435 0.057787806
0002b0 58 72 e7 3d 60 ad e5 bd d0 52 ff bd 4e 11 cd 3d
       0.11301106 -0.11214709 -0.12466967 0.10013066
0002c0 d4 d5 d6 bd 70 06 4b 3c 80 41 c0 bc d0 ef 45 bd
       -0.10490003 0.012391672 -0.023468733 -0.048324406
0002d0 b8 1f 93 3d 30 3f ec 3d 20 3e 36 bd 00 4d 00 bc
       0.07183784 0.115354896 -0.04449284 -0.007830858
0002e0 00 92 89 bd 80 91 6e 3c e8 bc cd bc f4 8f 69 bd
       -0.067173004 0.014561057 -0.025114492 -0.05702205
0002f0 f8 9e 44 3d 60 55 d6 3c ca 50 d5 3d 80 e2 bb bc
       0.048003167 0.026163757 0.104158 -0.022935152
000300 40 5c ee 3c 60 2d 37 bd a0 ed 1c 3c 00 db c0 bb
       0.029096723 -0.044721007 0.009578139 -0.005885482
000310 88 55 c8 bd 44 29 f2 3d e2 51 fa 3d 50 86 46 bc
       -0.09781939 0.11824277 0.12222649 -0.0121169835
000320 34 18 ab 3d 1e 54 ba bd 12 03 f0 bd 14 5f f2 bd
       0.08354226 -0.09098075 -0.117193356 -0.11834541
000330 58 57 31 3d 90 82 46 3d c2 5b 81 3d 30 96 a3 bc
       0.043296188 0.048464358 0.063163295 -0.019969076
000340 30 56 3d 3d f4 33 69 bd 52 d7 fe 3d e0 60 af bb
       0.046224773 -0.056934312 0.12443413 -0.0053521246
000350 00 e3 a4 bc c0 ca 77 3c 82 2a b2 bd 3c a6 a0 bd
       -0.020127773 0.015124023 -0.08699514 -0.07844207
000360 ba c4 cd bd 18 29 c8 bc dc 31 50 bd 4c 4b 6c bd
       -0.10047288 -0.024433658 -0.0508288 -0.057688996
000370 f8 64 28 3d 6e 45 90 bd 26 fb a0 3d b8 ac ec bd
       0.041111916 -0.07044493 0.07860403 -0.11556381
000380 08 9e 8b bc 60 17 b8 3b 84 d4 e3 3d f4 fd 1d 3d
       -0.017043129 0.005618021 0.111245185 0.038572267
000390 44 64 f0 bd 0c 3a fb bd 80 fc 87 bd c0 74 b7 3c
       -0.11737874 -0.12266931 -0.066399574 0.022394538
0003a0 b4 58 18 bd 8c ea fc bd 00 3e 47 ba 8c 49 0f bd
       -0.03719397 -0.12349424 -0.0007600486 -0.03498225
0003b0 c8 49 f8 3d 80 35 0a 3d 6a b4 a0 bd a2 2e b2 3d
       0.12123448 0.033742428 -0.07846911 0.08700301
0003c0 dc e6 f6 3d 0e 03 ee bd d6 23 ea 3d 20 a8 58 3c
       0.12055752 -0.116216764 0.114326164 0.013223678
0003d0 94 1d 11 3d 90 6c af bd c4 ee 95 bd 68 7f ea 3d
       0.0354286 -0.085656285 -0.073209316 0.11450082
0003e0 ce 5d c5 3d b0 50 10 bd 94 9d 13 3d b4 6c c0 3d
       0.096370324 -0.0352332 0.03603895 0.093957335
0003f0 c0 e9 44 3c 1e 91 ec 3d 78 0f d9 3d 5a ee d7 bd
       0.012018621 0.115511164 0.105986536 -0.10543509

actor.0.bias f4 [32]
000000 8a ee f9 bd e0 05 7d bc 22 4f f4 bd 6e bf 8b bd
       -0.12203701 -0.015443295 -0.11929156 -0.06823622
000010 f8 68 58 3d 52 8a c1 3d a0 d4 ba bb c0 1a 1f 3d
       0.05283448 0.09450211 -0.0057016164 0.03884387
000020 b4 3e b4 bd b4 f0 4c 3d 00 e9 dd ba c0 db 46 3c
       -0.08801022 0.05003424 -0.0016930401 0.012137353
000030 b0 d2 e1 bc 40 73 80 bd 60 10 92 3b 30 89 66 3c
       -0.027566284 -0.06271982 0.0044575185 0.014070794
000040 50 24 6d 3d a0 e7 8c bd 18 66 d9 bc e4 92 01 bd
       0.05789596 -0.068801165 -0.02653794 -0.031634226
000050 fa b4 83 3d 44 b0 dd bd 0c eb e3 3d 68 b5 9e 3c
       0.06431003 -0.108246356 0.11128816 0.01937361
000060 9c 2b d4 3d f8 00 c7 bd 14 c1 90 3d 20 60 0f bd
       0.1035988 -0.09716982 0.07068077 -0.03500378
000070 06 4f be bd 24 40 fd bd 4c 59 ab bd 30 16 38 bd
       -0.09292416 -0.123657495 -0.083666414 -0.044943035

actor.2.weight f4 [7, 32]
000000 2d 85 be bd 3d bc 06 be d2 d1 85 3d 50 aa 4c 3d
       -0.09302745 -0.13157745 0.06534161 0.04996711
000010 98 d5 e5 3d 21 78 0e be dc 0e 10 3e a0 37 a5 3d
       0.112223804 -0.13913013 0.14068168 0.0806725
000020 f6 73 f1 3d 41 dc 76 3c 47 e0 9d bb c5 ba 27 be
       0.11789696 0.015067161 -0.0048179957 -0.1637984
000030 0f 8c e8 bd 91 60 10 be 8b 69 2b be 74 4d a6 bd
       -0.11354839 -0.14099337 -0.1673948 -0.08120242
000040 25 d0 ca bd e0 76 21 3e 4a 35 2a 3d 58 85 05 bd
       -0.09902982 0.15768003 0.041554727 -0.03259787
000050 08 9d 7f 3d e3 27 15 be a5 b5 96 3d ca c6 29 be
       0.062405616 -0.14565997 0.07358865 -0.16579738
000060 eb 90 e2 3c b8 25 cc 3d f1 af 9b bd 5f ee 1c 3e
       0.027656993 0.09968132 -0.076019175 0.15325306
000070 f6 82 14 be d4 c3 03 be b5 49 29 3e a1 0d 10 be
       -0.14503083 -0.12867671 0.16532023 -0.14067699
000080 43 ea 6e 3b ed 5c 15 3e fd ba 9f 3d 72 08 4d 3c
       0.0036455549 0.1458623 0.07799337 0.012514221
000090 b3 fa 59 3d 07 bf a9 3c 03 d7 e2 3d a7 e5 18 3d
       0.0532176 0.020720972 0.110761665 0.03732839
0000a0 72 01 b5 3d c2 c7 1f 3e 3a f1 30 be ef f9 d8 3d
       0.08838166 0.15603545 -0.1727952 0.10594546
0000b0 4f ff 74 bb 90 2c f3 bd 30 60 c6 3d 9f 0f a0 3d
       -0.003738362 -0.11873734 0.09686315 0.078154795
0000c0 0d 87 69 3d f7 50 fc bb 1a aa 20 3d cd 98 8b bd
       0.05701356 -0.0077000814 0.03922472 -0.06816254
0000d0 d5 87 21 3e 8e c2 bd bd e8 e7 fd 3c eb 3c cb bd
       0.15774472 -0.09265624 0.03099437 -0.099237286
0000e0 ab 57 c8 3d 1f 5a 01 bd 17 03 02 3e 6b 7f 8a bd
       0.09782346 -0.031580087 0.12696491 -0.06762584
0000f0 e0 2e 9a 3c d8 92 98 3d b1 90 8b 38 6c 72 13 3c
       0.01882118 0.07449883 6.6549874e-05 0.008999448
000100 2d 10 bd 3c 24 f4 2c be 77 74 6d 3c 72 7e 9d 3d
       0.023079002 -0.16890007 0.014493099 0.07690133
000110 23 d2 ed 3d 36 31 39 3d 45 fc a9 bd ca 07 09 bd
       0.11612346 0.045212947 -0.0830007 -0.033454694
000120 2d 26 ed 3d 22 79 ee bd fe 50 92 3c 03 f7 b1 bd
       0.11579547 -0.11644198 0.017860886 -0.08689692
000130 72 7f 09 bd 5a 9a b4 bb 39 8d a0 3d f6 9b 5f 3d
       -0.033568807 -0.005511564 0.07839436 0.054592095
000140 e0 22 b8 3c 0f 2f a8 bd 64 ab b8 3c 59 30 0d be
       0.022477567 -0.08212101 0.022542663 -0.13787974
000150 aa 0f c0 3d 63 05 36 bd 84 fe 74 bc cc 31 a0 bd
       0.09377988 -0.04443873 -0.014953259 -0.07821998
000160 ff 42 04 3e 73 98 5f 3d 9b b9 a2 bc 07 30 72 bd
       0.12916182 0.054588746 -0.019863894 -0.059127834
000170 b2 c7 19 be 6d a1 0e 3d c8 1a bb bd c4 bd 3a bd
       -0.15017584 0.034821916 -0.091359675 -0.04559113
000180 e9 b0 ce bd 4d 23 a2 3c 7d 80 21 bd 40 81 09 3e
       -0.10092337 0.019792223 -0.039429177 0.13428211
000190 17 0f 1c 3e 08 e2 52 bd c9 12 88 3d 86 b7 92 3c
       0.15240131 -0.05148509 0.06644208 0.017909776
0001a0 c4 b2 9e 3d f8 23 f5 3d 53 58 4e 3d f1 29 16 be
       0.077489406 0.11969751 0.0503772 -0.14664437
0001b0 a0 21 0b be ed 10 c4 bd 12 6d 8d 3d 8c bb fb bd
       -0.13587046 -0.09573541 0.06905569 -0.12291631
0001c0 ee 09 01 bd 92 ce 7f 3b 5f 0d 41 3d 2e c0 f2 bd
       -0.03150361 0.0039033038 0.047131892 -0.118530616
0001d0 0d ea 24 be 9d 66 29 be 52 2b 33 be f0 69 33 be
       -0.16104908 -0.1654305 -0.17496994 -0.1752088
0001e0 b6 ac a6 bd e0 ff 76 bd e2 90 86 bd a1 6b 0f 3e
       -0.08138411 -0.060302615 -0.06570603 0.14005901
0001f0 a7 d1 a5 bc d7 4c 1f be 01 ea 79 bd 1b f9 92 3d
       -0.020241572 -0.15556656 -0.06101418 0.07176419
000200 3a 77 84 bd 6b 85 29 be 19 2d 0c 3e 03 25 20 bd
       -0.06468053 -0.16554801 0.13689078 -0.039097797
000210 b3 5d 18 3e 34 1d 95 3d 11 b5 67 bd ac 3b ab bb
       0.14879493 0.07280961 -0.056569163 -0.0052256193
000220 3d 30 0f 3d ae 2c 4a 3d 72 55 ab bd 3a 6c ba bc
       0.034958113 0.049359016 -0.08365907 -0.022756685
000230 c3 5a 05 bc e3 2a a5 3d fe 24 28 3e 18 1f c9 bb
       -0.008139315 0.080648206 0.16420361 -0.00613774
000240 15 6c f5 3d 98 04 af 3d 69 80 41 3d 00 d9 d5 3c
       0.11983506 0.08545798 0.047241602 0.02610445
000250 e9 d4 f1 3d fb 2c 15 3d df e9 01 be a6 ff a7 bd
       0.118081875 0.03641985 -0.12686871 -0.08203058
000260 9a 89 06 3d 02 8a 00 3e 17 ea 04 3e 18 71 e3 3d
       0.03284607 0.12552646 0.12979923 0.11105555
000270 3d 76 03 3d ee 6f 1b be a0 34 0e 3e e9 6f c8 3a
       0.032095183 -0.15179417 0.13887262 0.0015292141
000280 ce 02 d3 bc c3 da 3d 3d 6f 9b ce bd d8 44 3f bd
       -0.025758173 0.046351206 -0.1008824 -0.046696514
000290 df 5b ac bd 79 cf b2 bd 1c 3c 45 bc 27 ff 08 3e
       -0.084159605 -0.087309785 -0.012038257 0.13378583
0002a0 85 7a 82 3d 41 ef ee 3c 85 1f 5d 3c 3f bf 14 be
       0.06371025 0.02916682 0.013496284 -0.1452608
0002b0 94 c8 78 3c f9 dd 14 be 83 94 a7 3d 9b b5 dd 3d
       0.01518454 -0.14537801 0.08182623 0.10825654
0002c0 2c 44 c5 bd 81 54 1e be 36 8a 8c 3d 38 cd b2 3d
       -0.096321434 -0.15461923 0.06862299 0.087305486
0002d0 59 2b 47 3b 59 3d 03 3e 63 15 2e 3e de 5c 99 bd
       0.0030390827 0.12816371 0.17000346 -0.07488416
0002e0 f2 39 6a 3c c6 e3 18 3e d3 01 19 bc bb 56 d9 3d
       0.014296042 0.14930639 -0.009338814 0.10612246
0002f0 15 85 65 3d bd 93 2d be df fe 17 3d 0d b0 86 bd
       0.05603512 -0.16950889 0.0371083 -0.06576548
000300 d1 94 c3 ba b8 05 f7 3d c2 55 34 be 41 f3 9a 3d
       -0.001492167 0.12061638 -0.17610839 0.07565928
000310 c4 0e 27 3e cf 46 b5 bd 77 bc 18 3d 8b c0 e1 ba
       0.16314226 -0.08851396 0.03728911 -0.001722352
000320 30 66 0a 3e 1c 34 d8 bd 9b be af 3d 44 aa 6e bb
       0.13515544 -0.10556814 0.08581277 -0.0036417404
000330 d8 ad b4 3c fb 49 8b bc c0 99 57 bd 4a 03 2d 3d
       0.022055551 -0.01700305 -0.05263686 0.042239465
000340 ca 25 c5 3c ab 8e 08 3e 12 98 f4 bb 13 46 08 3e
       0.02406587 0.13335674 -0.0074644173 0.13307981
000350 52 c1 09 3e fc c1 1b be bd fb 89 bc 27 9f 2e 3e
       0.13452652 -0.15210718 -0.016843671 0.170529
000360 d2 2f 52 3d 76 6b d8 bd 56 3a 46 bd 62 33 c2 bd
       0.051315136 -0.105673715 -0.048395477 -0.09482457
000370 58 d6 0f 3d 48 b4 da bd 02 56 a9 bd 01 ad cf bd
       0.035116524 -0.10678917 -0.08268358 -0.1014042

actor.2.bias f4 [7]
000000 06 85 8d 3d 1a ad 06 3e 3e 0a 29 be 4c b0 13 3e
       0.06910138 0.1315197 -0.16507813 0.1442272
000010 5d bf 15 be 2b dc 88 3d 73 46 e0 3d
       -0.1462378 0.06682619 0.10950937

critic.0.weight f4 [32, 64]
000000 e0 ae e0 3b e0 86 4b bd 10 01 5e bc 0c 1d 87 bd
       0.006856784 -0.049689174 -0.013550058 -0.06597337
000010 fa a7 8f 3d d8 b1 9b bd 90 f0 99 bc d6 0c c6 bd
       0.07014461 -0.076022804 -0.018791467 -0.09670417
000020 8c 3f b7 3d f0 8b 96 3c 00 4a dc bb 76 7f 86 3d
       0.089476675 0.018377274 -0.0067226887 0.0656728
000030 c8 fc c7 bd c0 fe a7 3c 7a 09 d5 bd 90 16 8a 3d
       -0.09765011 0.020507216 -0.10402198 0.06742585
000040 44 50 d7 bd 50 37 5b 3d e8 fc ba 3d 80 b8 99 3b
       -0.10513356 0.053519547 0.09130269 0.0046911836
000050 8c 80 b8 3d 68 e5 d2 bc 76 4e fa 3d a6 85 f6 bd
       0.09008893 -0.025744155 0.122219965 -0.1203721
000060 00 ae d1 bb a0 f6 d4 3b 36 4f df bd 1c 7a c7 3d
       -0.0063989162 0.0064991266 -0.1090378 0.097400874
000070 42 9c c7 3d 7e 4f db bd 02 a4 f1 3d 9c 3d 34 3d
       0.09746601 -0.10708521 0.1179886 0.044004068
000080 c0 eb 41 3d 18 87 ba bd 80 de 42 bc 86 06 c1 bd
       0.04734397 -0.09107798 -0.011893868 -0.09425072
000090 38 7c 95 3d 9c 9b 7e 3d e8 98 75 bd 94 62 32 3d
       0.072990835 0.06216012 -0.059960276 0.043551043
0000a0 b4 0e 02 3d de a7 92 3d 6c e0 a8 bd e2 bb 83 3d
       0.031752303 0.071609244 -0.0824593 0.0643232
0000b0 c0 8d 6c 3d 34 5b e9 bd b2 70 ee bd bc a4 0d 3d
       0.05775237 -0.11394349 -0.11642589 0.03458093
0000c0 e8 1f 03 3d 92 38 91 bd 40 66 f2 bc 00 7d e0 3a
       0.03201285 -0.07090868 -0.029589772 0.0017127097
0000d0 54 bb c4 bd 6c 22 82 3d 5e 68 a4 bd 50 9b 66 bd
       -0.096060425 0.06354222 -0.08027719 -0.05630046
0000e0 8c 10 b6 3d b4 09 ae 3d 6e 91 ba 3d 4c 9c 75 bd
       0.08889875 0.084979445 0.0910977 -0.05996351
0000f0 78 52 e5 3d 06 bf c1 bd 4c f7 76 3d 68 2c ce 3c
       0.1119737 -0.09460263 0.060294434 0.025167659
000100 00 d2 e1 39 36 c6 db 3d c0 b3 2b 3d f4 3d 39 3d
       0.00043071806 0.10731165 0.04191947 0.0452251
000110 08 75 90 3d c0 86 4c 3c 08 11 5f 3d 7c d2 ec 3d
       0.07053572 0.012483299 0.0544596 0.11563584
000120 5a 81 dc 3d dc 96 1a bd be c6 93 3d 30 74 dc 3d
       0.10766859 -0.037741527 0.072156414 0.107643485
000130 14 11 90 3d 4c cb 7c bd 10 99 f9 3c 32 12 be bd
       0.070345074 -0.061717317 0.030468494 -0.09280814
000140 1c ff 0e bd f8 0c 56 bd 56 2f 8d 3d 26 2d a3 3d
       -0.03491126 -0.05225846 0.06893794 0.07967596
000150 38 c3 e2 bc ea ff da 3d 32 9f 9f 3d a4 31 7e bd
       -0.027680978 0.10693343 0.07794036 -0.06205906
000160 0e 2e d0 3d ae b5 f1 bd 82 73 9a bd 8c 7a bf bd
       0.10165034 -0.11802231 -0.075415626 -0.09349546
000170 30 dd 08 bc fe 8d ea 3d 90 63 94 bc 0e 89 e9 bd
       -0.008353516 0.11452864 -0.018113881 -0.11403094
000180 f2 e4 98 3d d8 86 c2 bd 80 35 19 3c be fa cb bd
       0.07465543 -0.09498376 0.009351134 -0.09959935
000190 b0 fa 16 3d 08 d0 1a bd 76 d9 9c bd 88 38 b8 3d
       0.036860168 -0.03779605 -0.07658665 0.089951575
0001a0 d8 53 24 bd b8 ca d3 3c 5a 74 c5 3d 2a 92 f7 bd
       -0.040119022 0.0258535 0.09641333 -0.120884255
0001b0 1e ef c1 3d a0 97 86 3d c0 ca 01 3c 84 fe 60 bd
       0.09469436 0.06571889 0.0079218745 -0.054930225
0001c0 8a 1c bf 3d 00 09 e3 bd c0 16 64 bd ba 2b 9b bd
       0.09331615 -0.11085701 -0.05568576 -0.075766996
0001d0 04 90 0a 3d 60 8b b0 3d 86 aa bf 3d 32 09 f7 bd
       0.03382875 0.08620334 0.09358697 -0.12062301
0001e0 b8 e6 5d 3d b4 bc be 3d ea 08 e2 3d 2c 04 11 bd
       0.05417511 0.09313336 0.110368565 -0.03540437
0001f0 62 dd b3 bd b6 8b ca 3d a6 79 b5 3d 70 58 5c bd
       -0.0878246 0.09889929 0.08861093 -0.053795278
000200 d2 e8 fc bd c8 e2 c9 3c 80 9a 97 3c aa bd e7 bd
       -0.123490945 0.02464427 0.018506289 -0.113154724
000210 bc e2 0f bd 18 2b 6e bd b4 53 c3 3d e0 8b f6 bc
       -0.03512834 -0.058146566 0.095374495 -0.030095994
000220 ec 34 34 bd de a4 a2 bd f6 5c 87 3d 0c 44 03 3d
       -0.043995783 -0.07941602 0.06609528 0.032047316
000230 58 1d 47 bd 44 d0 72 3d 34 07 ab 3d 88 26 c6 3d
       -0.04861197 0.05928065 0.08350983 0.09675318
000240 dc ad dd 3d 0c de e5 bd d6 99 f0 bd e8 85 e5 bd
       0.10824177 -0.11223993 -0.11748092 -0.11207181
000250 e0 92 23 bc 00 53 76 3b 44 57 40 bd fe 7b a5 bd
       -0.009983748 0.0037586093 -0.046958223 -0.0808029
000260 b8 9e 9f bd 8e fb ae 3d 54 1d 28 3d 74 12 69 bd
       -0.07793945 0.08544074 0.041043594 -0.056902364
000270 36 46 b9 bd 84 1a 4c bd 4c 3f cf bd b0 27 dd bd
       -0.09046595 -0.049829975 -0.10119495 -0.107985854
000280 aa e9 c0 bd d2 97 af 3d d0 4c 13 3c 5e d1 e1 bd
       -0.09419568 0.08573879 0.0089904815 -0.11026262
000290 00 b0 b0 3c 0a 33 ac 3d 92 f5 b0 bd 72 d4 d1 3d
       0.021568298 0.084081724 -0.08640589 0.10245599
0002a0 94 89 f6 3d 08 79 99 bc 20 7d 30 bd d8 e7 cc bd
       0.1203796 -0.01873447 -0.04308808 -0.10005158
0002b0 28 43 90 3d 1e 95 f6 bd 1e e6 e7 3d 70 d1 2a 3c
       0.07044059 -0.120401606 0.11323188 0.01042591
0002c0 ba d5 ae bd b0 bc 33 bc f8 32 e9 bd 20 7e a4 bc
       -0.08536859 -0.01097028 -0.11386675 -0.020079672
0002d0 c4 2a d7 3d 02 d8 f9 bd 00 01 e4 3c 1c 43 95 3d
       0.10506204 -0.12199403 0.027832508 0.07288191
0002e0 18 63 0a 3d b8 ec 96 bc 72 c2 a6 bd f0 4d 6f bc
       0.03378591 -0.018423423 -0.08142556 -0.014605984
0002f0 98 4b f4 3c f0 a2 f9 bd 06 4a f5 3d 8c 94 51 bd
       0.029821202 -0.12189281 0.119770095 -0.051167056
000300 1e b4 a0 bd c2 3b fd bd ec f6 42 3d f0 21 76 3d
       -0.078468546 -0.123649135 0.047598764 0.06009096
000310 4c ed 50 bd d0 9c aa 3c 4c f6 20 bd f8 d9 e8 3d
       -0.051007554 0.020826727 -0.039297387 0.11369699
000320 44 31 e3 bd 3c 28 fe 3d 14 e5 b6 bd be 7c 82 3d
       -0.11093381 0.12410018 -0.08930412 0.06371449
000330 80 7b 03 bd 9c 8a c0 3d 40 20 cf bc 08 b0 f5 bc
       -0.0321002 0.09401438 -0.025283933 -0.029991165
000340 48 d4 1f 3d 84 70 63 3d 16 b9 bf 3d c6 df 88 3d
       0.039020807 0.055527225 0.09361474 0.066833064
000350 78 e4 5b bd b8 98 f8 3c 94 97 e4 3d 20 44 a7 3d
       -0.05368468 0.03034626 0.11161724 0.08167291
000360 84 fd 9b 3d 28 4e ff bc aa 78 a0 bd 2c 07 53 bd
       0.07616714 -0.031165197 -0.07835515 -0.05152051
000370 18 ad a6 bc 40 40 5e 3b d4 2f b4 3d 90 29 94 bc
       -0.02034621 0.0033912808 0.08798185 -0.018086225
000380 82 7a 8b 3d d6 61 89 bd 50 bc f4 3d 66 8e e0 3d
       0.06810476 -0.06708114 0.1194998 0.1096466
000390 ba d6 d1 bd 6c ef c5 bd c2 ad 92 3d 8a e1 d4 3d
       -0.10246034 -0.09664807 0.07162048 0.10394581
0003a0 60 11 c4 bb 28 d3 8b 3d 46 92 b8 3d 26 1d 9a bd
       -0.0059835166 0.06827384 0.090122744 -0.07525091
0003b0 84 d4 0b bd a0 59 1e 3d 7e 02 e3 bd 80 f0 bb ba
       -0.034138218 0.03865969 -0.1108446 -0.0014338642
0003c0 44 98 b3 bd 30 c8 38 bd 00 d6 31 3d b0 29 f0 3c
       -0.08769277 -0.04511279 0.043416977 0.029316753
0003d0 56 c4 d2 3d f8 e5 ba 3d 30 63 ff 3c 90 76 a8 3c
       0.10291354 0.09125894 0.031175226 0.020564348
0003e0 ec 14 02 3d 88 6d 52 bd 40 b7 01 bb aa 99 85 3d
       0.031758234 -0.05137399 -0.0019793063 0.0652345
0003f0 d4 be 06 3d b8 d7 99 bc de c5 a5 3d 76 04 ae bd
       0.03289683 -0.01877962 0.08094381 -0.084969446

critic.0.bias f4 [32]
000000 d0 5f 7e bc 04 a4 a3 bd 18 0d 80 3c e0 57 aa bb
       -0.015525773 -0.07990268 0.015631244 -0.005198464
000010 22 7b a1 bd fc 13 db bd 10 5f 9e 3c 8c 97 ed 3d
       -0.07884814 -0.10697171 0.019332439 0.11601171
000020 dc 36 94 3d f0 4a 3b 3c 28 3b 62 3d d0 b4 fd bc
       0.07237026 0.011431441 0.055232197 -0.030970007
000030 a0 0f 7a 3c 04 75 9d bd c8 19 c7 bd c0 16 6c 3b
       0.015262514 -0.076883346 -0.09721714 0.0036024302
000040 20 69 ef 3c 44 9b 24 3d 20 04 18 3c 80 48 f9 3b
       0.029224932 0.040187135 0.009278327 0.0076075196
000050 a8 da d4 bc d2 88 b3 3d 00 a4 29 ba f8 1c 2c 3d
       -0.02598317 0.08766331 -0.0006471276 0.042019814
000060 5e 47 a5 3d 48 9e 88 bc fa 6f a5 3d 74 78 d5 3d
       0.08070253 -0.016677037 0.080779985 0.10423365
000070 00 ea 74 ba b0 67 1a bc e4 05 4c 3d 58 2a a8 bd
       -0.000934273 -0.009424135 0.049810305 -0.082112014

critic.2.weight f4 [1, 32]
000000 cd 8b 97 bd 4f 52 28 3e 3f e2 6d 3d 91 38 ab bd
       -0.07399712 0.16437648 0.058077093 -0.083603986
000010 12 18 18 3e c3 c2 e6 3d cd 64 c7 3d 0f de 8a bc
       0.14852932 0.112676166 0.09736023 -0.016951589
000020 a4 84 a6 3d e8 80 1b 3e 4a 6d cd 3d f4 2c ec 3d
       0.08130768 0.15185893 0.10030611 0.11532012
000030 65 5a d1 bd bc 75 e1 bd f6 45 fe bd a3 ed 26 be
       -0.102223195 -0.11008784 -0.12415688 -0.16301589
000040 49 b6 0a bc ed bf 2f be d9 47 c4 bc ac 3f 10 be
       -0.008466312 -0.17163058 -0.02396004 -0.14086789
000050 bd 66 7b 3d 46 a0 ac 3d ad 21 b5 3d d4 fc ed bd
       0.061377276 0.08429007 0.08844314 -0.11620489
000060 c0 2a de bd 25 64 02 3e d6 72 e6 bd 39 73 c8 3d
       -0.10847998 0.12733515 -0.11252372 0.09787602
000070 77 5d e4 bc 0a 58 1d 3e 6d 53 9c 3d ff c0 8b 3d
       -0.027876599 0.15365615 0.076331 0.068239205
