src/franka_h2/scripts/RL/pth/arm_ppo.pth (torch, 67506 bytes, 11 tensors)

shared_layer.0.weight f4 [128, 24]
0.16294235 0.18386191 0.030033788 -0.07699648 -0.08573202 -0.18699282 -0.057442527 0.15735918
-0.012899336 -0.2021836 -0.18910004 -0.14258535 -0.07936307 0.046280164 -0.11955261 0.18311228
-0.18188916 -0.049761523 0.1753641 -0.103409216 -0.0777392 0.12364271 -0.015489776 0.19147342
0.16333689 -0.16287233 -0.09335434 0.18028069 -0.10624121 -0.19040626 -0.088966444 -0.0057879654
0.042919952 0.049165048 0.17645752 -0.15016606 0.0297741 0.104799375 0.16461363 -0.16595426
0.048896577 -0.115334414 -0.022627475 0.07785568 0.10849089 -0.08469631 0.043698892 0.026276208
-0.03232031 -0.039788526 0.16272132 0.08607098 0.16879323 0.101098105 0.16691041 0.021861529
-0.09553617 -0.050559115 -0.030147376 0.07447142 0.09202363 -0.060924113 0.113573134 -0.08435223
-0.051188793 0.07491779 0.20234613 -0.17819603 -0.024928132 0.06907567 0.18239531 0.094359964
0.04307369 0.014187547 -0.0747152 0.009172024 -0.087754615 -0.05475202 -0.19240454 0.15969552
-0.02041147 -0.120666884 0.15861583 -0.03638473 -0.17867993 0.12218264 -0.04154353 0.08479345
-0.050156053 -0.08747755 -0.15656269 0.17033274 0.09577253 0.16009136 -0.038918678 0.008664038
0.19159943 0.06411871 -0.079180926 0.013531759 0.16822356 -0.052182376 -0.12772685 -0.15299758
0.07039953 0.03403937 -0.18840703 0.13369423 0.16546346 0.007851348 -0.09311071 -0.00016887445
-0.03212569 -0.041330297 0.04923917 -0.118647516 0.1985892 0.11828332 -0.1704932 0.12932526
0.16144966 0.029102057 0.0018564267 0.19519582 0.101242624 -0.19138625 0.12580356 0.10632552
0.08966453 -0.0033857625 0.19266687 0.05078174 0.18009266 -0.1810358 0.01996315 -0.18400651
0.021050857 -0.038339343 -0.08304277 0.096961774 -0.088028245 0.043668576 -0.040346175 0.17245243
0.15926406 0.19305483 0.09301259 0.15971966 0.16636884 -0.18720151 0.14999169 0.13124956
0.0878839 -0.13408941 0.12033853 0.1714322 0.16635387 -0.011687402 -0.13630052 0.19701639
0.09321335 0.110536024 0.057379477 -0.20234406 0.15152906 -0.08690788 0.12823328 -0.011114543
-0.1055624 0.19468643 -0.02598686 -0.08341617 -0.02438438 -0.07510771 0.16619404 -0.14191864
0.1997029 0.07865737 0.0064867674 -0.024078865 -0.13383673 0.058843426 -0.16064177 -0.09736247
0.10677021 -0.1821159 -0.10646259 -0.15354827 -0.17311963 0.09378659 0.19492488 0.0026242614
-0.1077316 0.1642987 0.11981121 -0.16396153 0.17699422 -0.11334035 0.19586544 -0.016943783
-0.09548293 -0.10146761 0.19628124 -0.0920119 -0.038614236 0.18716021 -0.09582481 0.14057995
-0.031464823 -0.025698094 0.07898935 0.02925947 0.05350538 0.09003568 0.08417075 0.083087556
0.029196579 -0.16145875 0.121640295 -0.05639932 0.16565418 -0.15715982 0.09829283 0.0076935412
0.0529605 -0.100214526 0.06650931 0.108589016 -0.12889947 -0.13626756 0.04126996 -0.096639335
0.038959537 -0.10366471 0.031977944 0.13210331 0.09354656 0.15556228 0.1400799 0.036480874
-0.1949487 0.042919077 0.03833095 0.19404215 -0.15443282 0.12451841 -0.17881629 0.019802867
-0.085862465 0.13960513 -0.052771565 -0.009004269 -0.06250017 0.1574166 0.16006984 -0.1915805
00000000: 5cda 263e 4c46 3c3e 6b09 f63c 55b0 9dbd
00000010: 4594 afbd 0c7b 3fbe db48 6bbd c422 213e
00000020: bd57 53bc 3809 4fbe 71a3 41be e501 12be
00000030: 1b89 a2bd 4590 3d3d 00d8 f4bd c981 3b3e
00000040: 2741 3abe bdd2 4bbd a692 333e 36c8 d3bd
00000050: bb35 9fbd 6438 fd3d d4c8 7dbc 9c11 443e
00000060: c941 273e 01c8 26be 8f30 bfbd 809b 383e
00000070: fe94 d9bd dcf9 42be 0a34 b6bd f9a8 bdbb
00000080: d5cc 2f3d 4a61 493d 48b1 343e 22c5 19be
00000090: d0e8 f33c 0ea1 d63d 7a90 283e eaef 29be
000000a0: c747 483d 7334 ecbd 415d b9bc cc72 9f3d
000000b0: 7930 de3d 4275 adbd 9cfd 323d 3441 d73c
000000c0: 4d62 04bd 4bf9 22bd 6ba0 263e fb45 b03d
000000d0: 22d8 2c3e 860c cf3d 90ea 2a3e f316 b33c
000000e0: 78a8 c3bd 1317 4fbd a1f7 f6bc 7984 983d
000000f0: e376 bc3d 908b 79bd 0899 e83d ddc0 acbd
00000100: 57ab 51bd 806e 993d d333 4f3e 0579 36be
00000110: 1536 ccbc 8b77 8d3d d6c5 3a3e cc3f c13d
00000120: 0a6e 303d e372 683c 4804 99bd 4246 163c
00000130: b1b8 b3bd a743 60bd b205 45be 3987 233e
00000140: f535 a7bc 3320 f7bd 306c 223e 2808 15bd
00000150: dff7 36be e43a fa3d 8c29 2abd 30a8 ad3d
00000160: 6f70 4dbd 6e27 b3bd f851 20be b56b 2e3e
00000170: 6324 c43d fdee 233e 3169 1fbd 9cf3 0d3c
00000180: a432 443e ac50 833d 9c29 a2bd 50b4 5d3c
00000190: cc42 2c3e 30bd 55bd d4ca 02be 66ab 1cbe
000001a0: a12d 903d de6c 0b3d c6ed 40be 24e7 083e
000001b0: 416f 293e f1a2 003c d4b0 bebd e413 31b9
000001c0: 3a96 03bd f549 29bd 03af 493d 78fd f2bd
000001d0: f85a 4b3e 863e f23d c595 2ebe d76d 043e
000001e0: 0f53 253e 7067 ee3c 5853 f33a 6ae1 473e
000001f0: 4b58 cf3d c2fa 43be a6d2 003e 32c1 d93d
00000200: 09a2 b73d abe3 5dbb 774a 453e 8400 503d
00000210: 366a 383e 7361 39be c389 a33c 346c 3cbe
00000220: d972 ac3c b709 1dbd 5412 aabd e593 c63d
00000230: 2748 b4bd d2dd 323d 0842 25bd 5f97 303e
00000240: 1e16 233e 2ab0 453e 637d be3d 8d8d 233e
00000250: 985c 2a3e c1b1 3fbe 6c97 193e 4966 063e
00000260: 79fc b33d bc4e 09be 0c74 f63d ec8b 2f3e
00000270: ab58 2a3e 847c 3fbc 5d92 0bbe aabe 493e
00000280: a4e6 be3d b660 e23d be06 6b3d 4833 4fbe
00000290: 6f2a 1b3e c2fc b1bd 964f 033e c619 36bc
000002a0: 1931 d8bd e15b 473e 65e2 d4bc 19d6 aabd
000002b0: c0c1 c7bc 12d2 99bd c52e 2a3e 1f53 11be
000002c0: eb7e 4c3e 1d17 a13d f38e d43b 0a41 c5bc
000002d0: 7f0c 09be ce05 713d 477f 24be fa65 c7bd
000002e0: 57aa da3d 977c 3abe 0f09 dabd c23b 1dbe
000002f0: 4646 31be 2f13 c03d 639a 473e cdfb 2b3b
00000300: 63a2 dcbd eb3d 283e 945f f53d 88e5 27be
00000310: f93d 353e fc1e e8bd f390 483e b0cd 8abc
00000320: 8e8c c3bd 40ce cfbd f3fd 483e bc70 bcbd
00000330: f629 1ebd eda6 3f3e cc3f c4bd 31f4 0f3e
00000340: 42e1 00bd cf84 d2bc 2bc5 a13d 8eb1 ef3c
00000350: 7528 5b3d a064 b83d b761 ac3d cf29 aa3d
00000360: aa2d ef3c 7155 25be 8c1e f93d f902 67bd
00000370: 40a1 293e 81ee 20be c04d c93d 1a1a fc3b
00000380: 1ced 583d 463d cdbd 0836 883d eb63 de3d
00000390: 39fe 03be b989 0bbe b10a 293d d8ea c5bd
000003a0: 0994 1f3d 2a4e d4bd 4efb 023d 1746 073e
000003b0: 5795 bf3d b84b 1f3e 1b71 0f3e f86c 153d
000003c0: a2a0 47be eacb 2f3d ea00 1d3d fcb2 463e
000003d0: a323 1ebe 8203 ff3d 9e1b 37be 9f39 a23c
000003e0: a9d8 afbd a6f4 0e3e ff26 58bd a486 13bc
000003f0: 1700 80bd d131 213e 59e9 233e ae2d 44be

shared_layer.0.bias f4 [128]
-0.047884256 0.15993193 0.01920757 -0.13870718 -0.15323067 0.10316402 -0.09269962 0.016616974
0.11946823 0.0250167 -0.1808035 0.10458176 0.18689404 0.137236 0.00015716514 -0.11303756
0.1031137 0.122652985 0.16814676 0.120662674 -0.015979365 0.17799488 -0.12776719 0.0382221
-0.023884542 -0.040281832 0.0019863676 -0.15449099 -0.11190929 0.119375244 0.038695388 0.06765245
0.088670194 0.057391085 -0.12224931 -0.18098144 -0.015082636 -0.19805358 -0.0009863854 -0.14277461
0.05310872 -0.1199195 0.05963104 -0.13152128 -0.19617528 -0.013490416 0.20328397 -0.16676491
-0.14516109 -0.08124319 -0.11937227 0.16463901 0.15249915 0.18949476 0.086148284 -0.15377958
-0.084257185 -0.2004447 0.08093854 0.13638817 -0.021900948 -0.09137342 -0.1911468 0.13041297
-0.12188278 -0.17893106 -0.15237737 0.09770737 -0.1351536 -0.1624088 -0.18072484 0.04266026
0.10462376 -0.1382736 -0.14663415 -0.16985942 0.07242372 -0.12161329 -0.15834625 0.19034557
-0.20271853 0.110712826 0.16388965 0.080623895 -0.1528757 0.11083607 0.03364994 0.088446066
0.18406256 0.023515282 0.086505994 -0.18573998 0.10833396 -0.17853238 -0.20403847 0.10009021
0.13101551 -0.1372734 0.15836331 -0.08036336 0.15651871 0.030126618 -0.19442745 -0.1362186
-0.18926573 -0.05722933 -0.08880962 0.0262382 0.042839978 -0.1752621 -0.16858813 -0.021821598
-0.1949357 0.044147335 -0.2027089 -0.16974911 -0.16029845 0.118171655 -0.058750812 0.024849402
-0.14956608 0.15605928 0.19232085 0.11276289 -0.16961335 -0.18604486 0.19099547 0.051323965
00000000: 4822 44bd 32c5 233e 3259 9d3c 4109 0ebe
00000010: 80e8 1cbe a847 d33d 4cd9 bdbd 5220 883c
00000020: c2ab f43d d3ef cc3c 8d24 39be f62e d63d
00000030: 2761 3f3e 9887 0c3e b2cc 2439 3c80 e7bd
00000040: 472d d33d 7d31 fb3d aa2e 2c3e fe1d f73d
00000050: 28e7 82bc 4a44 363e 67d5 02be c78e 1c3d
00000060: 84a9 c3bc 90fe 24bd b82d 023b e332 1ebe
00000070: b330 e5bd 027b f43d 0e7f 1e3d 5e8d 8a3d
00000080: b898 b53d ea12 6b3d d95d fabd 3353 39be
00000090: 291d 77bc 8fce 4abe 9a49 81ba 8233 12be
000000a0: 8788 593d 5b98 f5bd ad3f 743d 84ad 06be
000000b0: 2ce2 48be e806 5dbc ac29 503e 6cc4 2abe
000000c0: 1ca5 14be d462 a6bd 7379 f4bd 2197 283e
000000d0: bd28 1c3e ea0a 423e 836e b03d 6578 1dbe
000000e0: 088f acbd 6041 4dbe 1bc3 a53d 57a9 0b3e
000000f0: 9e69 b3bc fd21 bbbd fdbb 43be fa8a 053e
00000100: ae9d f9bd b439 37be d008 1cbe cd1a c83d
00000110: b565 0abe 7e4e 26be ef0f 39be 86bc 2e3d
00000120: fb44 d63d 9897 0dbe 4327 16be a1ef 2dbe
00000130: e352 943d 6310 f9bd 8525 22be f3e9 423e
00000140: 7295 4fbe 68bd e23d b0d2 273e 241e a53d
00000150: 738b 1cbe 05fe e23d 85d4 093d 3623 b53d
00000160: e57a 3c3e 1fa3 c03c 0e2a b13d 9f32 3ebe
00000170: 32de dd3d 31d1 36be 76ef 50be 19fc cc3d
00000180: ee28 063e 6691 0cbe fe29 223e 8c95 a4bd
00000190: 7146 203e 19cc f63c fd17 47be e47c 0bbe
000001a0: e0ce 41be 4d69 6abd d1e1 b5bd 7ef1 d63c
000001b0: f978 2f3d e877 33be 5ea2 2cbe 35c3 b2bc
000001c0: 399d 47be d6d3 343d ec92 4fbe b6d2 2dbe
000001d0: 4725 24be fb03 f23d b1a4 70bd f990 cb3c
000001e0: da27 19be 01ce 1f3e c2ef 443e 3bf0 e63d
000001f0: 1faf 2dbe 8b82 3ebe 5194 433e 1439 523d

shared_layer.2.weight f4 [64, 128]
-0.02647539 -0.062126193 -0.06808416 0.0047889776 0.039088156 0.030696161 -0.018333184 -0.08825648
0.07573909 -0.08089727 -0.081955895 -0.035646148 0.06502714 -0.029629068 0.03513909 0.046537
-0.07566559 -0.031117229 -0.042689 0.07609433 0.07248668 0.02048594 -0.034880795 -0.055385254
0.067973025 0.034766585 -0.0693589 0.08332681 0.071389444 -0.027070612 -0.047903016 0.016859867
-0.058373958 0.006155957 -0.034635637 0.032304253 -0.068328835 -0.03765857 0.057953544 -0.05679513
-0.06514728 -0.0065931897 -0.017509067 0.04226806 -0.021203542 0.043471027 0.046164725 -0.033391524
0.05338921 -0.07289546 0.055617772 0.04714469 0.05629761 0.051944334 -0.038267925 0.062042993
-0.024342997 -0.029952819 -0.020149393 0.006428849 0.02479419 -0.027489342 0.028810078 0.07540997
0.004978923 -0.006412822 0.08048607 -0.06891374 -0.025236279 0.05991187 -0.04205444 0.05319219
0.0027220764 0.07247734 0.038679954 0.046949387 -0.08578594 -0.08008237 -0.08763739 0.027467823
0.014142322 -0.06851577 -0.047288675 -0.025476122 -0.012904732 0.051299214 -0.021269772 -0.079108834
-0.05372724 0.07377065 -0.021325998 -0.045067426 -0.022963362 -0.005268746 0.052711368 -0.0431368
0.026164342 -0.009319216 0.0068382206 0.009680467 0.0076383734 -0.0080622705 0.06306077 -0.03408777
-0.07267726 0.073042214 -0.0024667708 0.017493786 -0.003627745 0.050436996 0.054627012 0.0043866546
0.07112357 0.06892043 0.05618998 0.04544643 -0.025318982 -0.08129817 0.02175447 -0.01861151
-0.012135551 0.07637099 0.040225912 -0.0023416595 -0.04989035 0.04532496 0.04382178 -0.024040742
-0.08257827 -0.07673291 -0.010512878 0.038541712 0.078727044 -0.022497639 -0.03849949 -0.010132427
0.0143183395 -0.011317593 0.009138522 0.048872337 -0.00043452348 0.033872325 -0.029733207 0.0012439853
0.022293631 0.016552532 0.032660063 -0.017038696 -0.062964834 -0.04777639 -0.030538889 -0.04976077
-0.06944477 -0.043675024 -0.058598626 0.08683071 0.01741542 -0.037567962 -0.033549663 0.052968282
0.030627977 -0.04433335 -0.07164976 0.028035356 -0.027539665 -0.018295115 0.035311095 -0.06512721
0.0330149 -0.015163962 -0.04929126 -0.062760055 0.056038756 -0.0063252924 -0.07280456 0.046049677
-0.017036345 -0.021492891 0.06740323 -0.036943097 -0.0047942144 0.017970836 -0.04898568 -0.06386568
0.058757614 -0.06848439 0.06864076 0.036807794 -0.0015242092 -0.04684386 -0.025342489 0.016258221
0.035515703 0.085256435 0.0483655 -0.03558683 0.054358274 0.049707275 0.015897265 -0.018002696
-0.035618894 -0.048171382 0.03762287 0.01668598 -0.0020495688 0.032453388 -0.08819578 -0.0020131294
0.015855053 -0.010794883 0.029704913 0.081171855 0.07402149 -0.06328979 0.079498656 -0.02961658
-0.03693615 0.084995344 -0.03437111 0.012931133 -0.04913825 -0.04285267 -0.08478359 0.036715683
-0.07486079 0.066586405 -0.02560848 0.051448487 -0.010613546 -0.07274766 -0.025748026 -0.04182077
0.016646467 0.04210501 0.07939181 -0.020596512 -0.060345635 -0.032605086 0.024573676 -0.059116445
-0.0748567 -0.087596826 0.030493313 -0.028876934 0.08353011 0.05983226 0.011125961 0.075138
0.07144429 0.08052847 -0.050497577 -0.049698755 -0.008039585 -0.028281335 0.07350989 0.085963055
00000000: ebe2 d8bc 0978 7ebd b56f 8bbd dbec 9c3b
00000010: e71a 203d 8476 fb3c 792f 96bc d0bf b4bd
00000020: 191d 9b3d 78ad a5bd 7ed8 a7bd b201 12bd
00000030: f32c 853d a9b8 f2bc 02ee 0f3d 959d 3e3d
00000040: 90f6 9abd 8fe9 febc a9da 2ebd 58d7 9b3d
00000050: e573 943d 21d2 a73c 2adf 0ebd a6db 62bd
00000060: 7135 8b3d 6867 0e3d 0a0c 8ebd 3fa7 aa3d
00000070: a134 923d 30c3 ddbc f435 44bd b41d 8a3c
00000080: 8819 6fbd e9b7 c93b 19de 0dbd 7751 043d
00000090: fdef 8bbd df3f 1abd b260 6d3d 03a2 68bd
000000a0: f06b 85bd af0b d8bb 2d6f 8fbc 4621 2d3d
000000b0: 0db3 adbc ad0e 323d 3917 3d3d 8dc5 08bd
000000c0: a5ae 5a3d 374a 95bd 76cf 633d ca1a 413d
000000d0: 5398 663d 95c3 543d d4be 1cbd cb20 7e3d
000000e0: f76a c7bc 9d5f f5bc 5710 a5bc 18a9 d23b
000000f0: 2f1d cb3c 5431 e1bc 1d03 ec3c 8b70 9a3d
00000100: 3c26 a33b a622 d2bb e1d5 a43d a622 8dbd
00000110: 50bc cebc 2666 753d 4741 2cbd 0ee0 593d
00000120: dd64 323b 006f 943d df6e 1e3d 004e 403d
00000130: 8ab0 afbd 3a02 a4bd 3b7b b3bd 3304 e13c
00000140: 33b5 673c ff51 8cbd c5b1 41bd 4db3 d0bc
00000150: 5e6e 53bc 201f 523d f23d aebc d003 a2bd
00000160: 1811 5cbd 1115 973d dcb3 aebc 9f98 38bd
00000170: a91d bcbc 72a5 acbb e0e7 573d 37b0 30bd
00000180: 9a56 d63c a0af 18bc 2713 e03b d29a 1e3c
00000190: 524b fa3b 9d17 04bc 0126 813d 9e9f 0bbd
000001a0: d1d7 94bd 2897 953d 8ca9 21bb 214f 8f3c
000001b0: 76bf 6dbb 0697 4e3d 93c0 5f3d edbd 8f3b
000001c0: 3ca9 913d 2826 8d3d 7727 663d 0926 3a3d
000001d0: c169 cfbc a87f a6bd 6e36 b23c 2a77 98bc
000001e0: 31d4 46bc 6568 9c3d edc3 243d 8776 19bb
000001f0: d359 4cbd aaa6 393d 777e 333d 17f1 c4bc
00000200: cc1e a9bd 2526 9dbd 353e 2cbc eadd 1d3d
00000210: a53b a13d f84c b8bc a4b1 1dbd 7b02 26bc
00000220: 7897 6a3c 6d6d 39bc bdb9 153c 5c2e 483d
00000230: c1d0 e3b9 b5bd 0a3d 0e93 f3bc 380d a33a
00000240: 22a1 b63c 2d99 873c 8fc6 053d bc94 8bbc
00000250: b5f3 80bd 2db1 43bd b12c fabc f3d1 4bbd
00000260: 0f39 8ebd 95e4 32bd 1d05 70bd 4dd4 b13d
00000270: c8aa 8e3c dde0 19bd 5f6b 09bd 45f5 583d
00000280: 86e7 fa3c e396 35bd 1cbd 92bd 67aa e53c
00000290: dd9a e1bc a3df 95bc 5ea2 103d 6a61 85bd
000002a0: a23a 073d 4472 78bc a2e5 49bd 5888 80bd
000002b0: e588 653d 6644 cfbb 8f1a 95bd 969e 3c3d
000002c0: ce8f 8bbc dc11 b0bc b40a 8a3d a551 17bd
000002d0: c918 9dbb 9337 933c 35a5 48bd 02cc 82bd
000002e0: d3ab 703d 8b41 8cbd 8793 8c3d c5c3 163d
000002f0: f9c7 c7ba 59df 3fbd 0d9b cfbc f62f 853c
00000300: ea78 113d ed9a ae3d e71a 463d 7fc3 11bd
00000310: c8a6 5e3d db99 4b3d fb3a 823c 647a 93bc
00000320: 1ee5 11bd 5b4f 45bd 701a 1a3d 09b1 883c
00000330: 0f52 06bb d8ed 043d fd9f b4bd b5ee 03bb
00000340: 75e2 813c 05dd 30bc b857 f33c 6e3d a63d
00000350: 9498 973d 149e 81bd 31d0 a23d 789e f2bc
00000360: 5c4a 17bd 0a12 ae3d b9c8 0cbd 1add 533c
00000370: 3145 49bd 4886 2fbd 05a3 adbd 2f63 163d
00000380: 9d50 99bd 745e 883d e0c8 d1bc a6bb 523d
00000390: 70e4 2dbc bafc 94bd 86ed d2bc 414c 2bbd
000003a0: 2c5e 883c 4e76 2c3d 2c98 a23d 04ba a8bc
000003b0: fc2c 77bd e98c 05bd bc4e c93c 1624 72bd
000003c0: 784e 99bd f765 b3bd 1dcd f93c 528f ecbc
000003d0: d611 ab3d ac12 753d aa49 363c f4e1 993d
000003e0: 6251 923d 1cec a43d 8cd6 4ebd ec90 4bbd
000003f0: 77b8 03bc 42ae e7bc 5a8c 963d 660d b03d

shared_layer.2.bias f4 [64]
0.049385373 -0.05220448 -0.055610396 0.020240791 -0.08317197 0.080212675 -0.0101768775 -0.064133085
-0.009076805 -0.009614388 0.012105286 -0.04955592 -0.028445195 0.00028854786 -0.047290027 -0.001404606
-0.046587575 0.03751216 -0.04364148 -0.033807345 -0.02934974 -0.023576828 -0.021877639 -0.04651271
0.045126036 0.0015762405 0.036514577 -0.02037892 0.037354596 0.04973153 -0.08000385 0.008065675
0.027372224 0.064793564 0.08826215 0.018364973 -0.051530905 0.027765151 -0.084005944 -0.008268544
0.05501697 0.024426585 -0.027822873 -0.07997258 -0.0056895926 0.0788711 -0.05633491 0.07130826
-0.052601933 -0.03882791 -0.011083562 0.0056936177 0.059682295 -0.082397275 0.021729235 0.024831375
-0.013958131 -0.0075196917 0.03919291 -0.07635849 -0.0027430116 -0.028621966 -0.07233137 -0.043107606
00000000: 5148 4a3d 5dd4 55bd bac7 63bd 04d0 a53c
00000010: 1156 aabd 8b46 a43d ebbc 26bc 3558 83bd
00000020: e1b6 14bc ab85 1dbc 4055 463c 26fb 4abd
00000030: e605 e9bc 3d48 9739 30b3 41bd c21a b8ba
00000040: 9dd2 3ebd 5aa6 193d 69c1 32bd 9279 0abd
00000050: de6e f0bc 3124 c1bc bc38 b3bc 1d84 3ebd
00000060: 14d6 383d db99 ce3a 4f90 153d b1f1 a6bc
00000070: 2201 193d 4ab3 4b3d 0fd9 a3bd e525 043c
00000080: b73b e03c 7db2 843d c9c2 b43d 2472 963c
00000090: 1212 53bd be73 e33c 4f0b acbd ca78 07bc
000000a0: 7959 613d 431a c83c cbec e3bc aac8 a3bd
000000b0: c36f babb 2c87 a13d 6fbf 66bd 110a 923d
000000c0: 2075 57bd 040a 1fbd d497 35bc 8791 ba3b
000000d0: 6c75 743d e7bf a8bd 8201 b23c 2b6b cb3c
000000e0: a5b0 64bc bf67 f6bb bf88 203d d761 9cbd
000000f0: 19c4 33bb 9d78 eabc 7822 94bd 9a91 30bd

actor.0.weight f4 [32, 64]
0.009612471 -0.020797893 -0.047293007 0.043212757 -0.04752046 0.08933818 0.004022792 -0.05747865
0.009139776 0.059054658 0.07762575 -0.016959816 -0.09419061 -0.06036465 -0.07470201 -0.10944113
-0.000100418925 0.046540618 -0.030771509 0.078805536 0.05832587 0.105328396 0.047062755 0.056226194
-0.12449682 0.0015528649 -0.11672683 -0.035034627 0.10395904 -0.048160613 -0.096027195 -0.04714863
-0.11330107 0.121087596 -0.016607657 0.1128546 -0.07061702 0.09623307 0.009149045 0.033898607
-0.057250828 0.07557674 -0.051889822 -0.055038333 -0.03540133 -0.09580347 0.002404645 -0.06769554
-0.05439964 -0.0043277293 0.008594453 0.1193755 0.10194838 -0.04523115 -0.03086871 -0.0675825
0.01467143 0.052861214 -0.10522196 -0.07917872 -0.12036149 -0.06057051 -0.056268573 0.050696775
-0.079560466 -0.11564821 -0.034079462 -0.113866396 -0.01547116 0.048477 -0.04385628 -0.08925041
0.045711372 -0.045518134 0.08576256 -0.05493666 -0.05507937 -0.03624192 0.0798123 -0.033001494
0.06441124 0.0988323 -0.033768 -0.12040669 -0.09227877 0.030576052 -0.02351515 0.05421613
-0.028198797 -0.022118585 -0.09868316 -0.008420398 -0.057326734 0.03252256 0.11466071 -0.11187232
0.076109655 0.058520366 0.09425628 0.011488868 -0.053417906 0.038433127 -0.11612822 0.061417475
0.001871371 -0.030063212 0.12077007 0.06428802 -0.1184219 0.08995156 -0.008240148 -0.008078512
-0.05078727 0.1192481 0.0064943903 -0.105630144 -0.05460472 -0.064394295 -0.065340206 0.06577396
-0.06660512 0.121039465 0.02359698 -0.050108075 -0.06668106 0.051823303 -0.0801582 -0.10724723
-0.006793929 -0.10803756 -0.11892907 -0.056737643 0.00583148 0.02103981 -0.084577456 5.723539e-05
-0.05751148 -0.10325282 0.0552733 -0.00022007141 0.100748606 0.042137176 -0.0810446 0.028293174
-0.06939155 0.02329669 0.038573056 0.088434875 -0.027930941 0.04737837 0.1080357 0.05133888
0.11427826 0.011079642 -0.059471846 0.06459237 0.08955085 -0.080383405 0.033401906 -0.097860016
0.015081533 0.006681376 0.04329 -0.03792097 0.03605503 0.10369191 -0.11878546 0.07356603
0.0043552825 0.07521249 0.028963253 0.030100763 -0.06749666 -0.033017997 -0.026201516 0.08901096
-0.046091676 0.06496044 -0.12544225 -0.051356435 -0.0363592 0.059870392 -0.10084487 -0.09280968
0.06023265 -0.051034644 0.10713129 0.062417075 0.056985855 -0.12377593 0.002328559 -0.059292242
0.032255996 -0.001622541 -0.05297512 0.028448338 0.033454433 -0.009161623 0.08931142 0.11278812
-0.028617987 -0.07272129 0.061373223 -0.09500639 -0.071499094 0.08626664 -0.033214077 0.017274883
-0.121044636 -0.056339663 -0.044697106 -0.031823963 0.08153541 -0.019622114 -0.0077566057 0.01272358
-0.016710687 0.08031375 0.024978012 0.03004103 -0.059322704 -0.08737631 -0.10411489 0.06843225
-0.027595712 0.081858754 0.11433569 -0.07918662 0.076813325 -0.031212425 -0.018801166 0.030301113
0.030536655 0.09806359 0.0861229 0.018373787 -0.084362194 -0.072688304 -0.073667645 -0.027253404
0.01098527 0.039944418 -0.057636 0.0104946345 -0.08092644 -0.08162907 -0.029028237 -0.08271385
0.0028122936 -0.122837536 0.028251322 -0.06708719 0.1243515 0.06446506 -0.074006684 0.119724035
00000000: a07d 1d3c 5860 aabc 50b6 41bd dcff 303d
00000010: d0a4 42bd f0f6 b63d a0d1 833b bc6e 6bbd
00000020: 00bf 153c 4ce3 713d 40fa 9e3d 50ef 8abc
00000030: 02e7 c0bd ec40 77bd 5efd 98bd ac22 e0bd
00000040: 0098 d2b8 60a1 3e3d 8814 fcbc cc64 a13d
00000050: 1ce7 6e3d 6ab6 d73d e0c4 403d 704d 663d
00000060: 30f8 febd 8089 cb3a 7a0e efbd 7880 0fbd
00000070: 7ae8 d43d 1044 45bd e8a9 c4bd ec1e 41bd
00000080: 640a e8bd c6fc f73d c80c 88bc 5020 e73d
00000090: a89f 90bd d815 c53d e0e5 153c 44d9 0a3d
000000a0: d87f 6abd fac7 9a3d 6c8a 54bd e06f 61bd
000000b0: fc00 11bd 9c34 c4bd 4097 1d3b f6a3 8abd
000000c0: 28d2 5ebd a0cf 8dbb c0cf 0c3c 247b f43d
000000d0: 50ca d03d 4c44 39bd 60e0 fcbc b268 8abd
000000e0: 7060 703c 0085 583d 9c7e d7bd 7428 a2bd
000000f0: 1680 f6bd c818 78bd e079 66bd 6ca7 4f3d
00000100: 99f0 a2bd f8d8 ecbd e896 0bbd c932 e9bd
00000110: c07a 7dbc d28f 463d a5a2 33bd ebc8 b6bd
00000120: d93b 3b3d 3971 3abd 48a4 af3d 4305 61bd
00000130: e89a 61bd 6872 14bd a274 a33d 932c 07bd
00000140: 0aea 833d 9768 ca3d 5050 0abd c897 f6bd
00000150: a7fc bcbd a17a fa3c d8a2 c0bc bc11 5e3d
00000160: 2a01 e7bc 0932 b5bc 661a cabd b6f5 09bc
00000170: 70cf 6abd 6036 053d 3cd3 ea3d 511d e5bd
00000180: 61df 9b3d 0db3 6f3d 7009 c13d ce3b 3c3c
00000190: bccc 5abd 0e6c 1d3d a2d4 edbd e490 7b3d
000001a0: ca48 f53a 2047 f6bc 4c56 f73d 70a9 833d
000001b0: 2e87 f2bd 8638 b83d b001 07bc bc5b 04bc
000001c0: 5006 50bd 5938 f43d e5ce d43b 9e54 d8bd
000001d0: 33a9 5fbd 28e1 83bd 16d1 85bd 7fb4 863d
000001e0: 4468 88bd 8ae3 f73d 744e c13c 203e 4dbd
000001f0: 1490 88bd ac44 543d fb29 a4bd 70a4 dbbd
00000200: 9b9f debb cc42 ddbd 1691 f3bd bb65 68bd
00000210: 0016 bf3b ae5b ac3c f236 adbd 0810 7038
00000220: 2891 6bbd 3776 d3bd 4166 623d f8c2 66b9
00000230: 4955 ce3d 0898 2c3d b6fa a5bd 16c7 e73c
00000240: 281d 8ebd b3d8 be3c c8fe 1d3d 581d b53d
00000250: 6ecf e4bc d20f 423d d241 dd3d b848 523d
00000260: b80a ea3d 6387 353c c098 73bd 0149 843d
00000270: 7066 b73d 0ea0 a4bd 70d0 083d d56a c8bd
00000280: 8918 773c 72ef da3b db50 313d 0553 1bbd
00000290: 70ae 133d 6d5c d43d cb45 f3bd c9a9 963d
000002a0: c2b6 8e3b 0209 9a3d 5844 ed3c e095 f63c
000002b0: b03b 8abd e13d 07bd 90a4 d6bc 614b b63d
000002c0: a0ca 3cbd fb09 853d ef73 00be 205b 52bd
000002d0: 62ed 14bd a83a 753d c187 cebd 0013 bebd
000002e0: 83b6 763d b409 51bd a667 db3d 0ca9 7f3d
000002f0: 006a 693d 3c7e fdbd bd9a 183b 6cdc 72bd
00000300: dd1e 043d 71ab d4ba 70fc 58bd 7d0c e93c
00000310: 8407 093d a21a 16bc e8e8 b63d 75fd e63d
00000320: 4570 eabc e6ee 94bd 7d62 7b3d b692 c2bd
00000330: 1e6e 92bd 90ac b03d 7c0b 08bd 0e84 8d3c
00000340: 40e6 f7bd 6bc4 66bd 5014 37bd d859 02bd
00000350: 09fc a63d 8ebe a0bc 202b febb 9076 503c
00000360: dae4 88bc 897b a43d b09e cc3c 9b18 f63c
00000370: 5dfc 72bd 5af2 b2bd 303a d5bd 3526 8c3d
00000380: 6710 e2bc 90a5 a73d d528 ea3d 982c a2bd
00000390: 4e50 9d3d 33b1 ffbc e704 9abc 0a3a f83c
000003a0: 0228 fa3c 90d5 c83d 3461 b03d a084 963c
000003b0: 16c6 acbd 9bdd 94bd 10df 96bd 8842 dfbc
000003c0: 90fb 333c c29c 233d ba13 6cbd b0f1 2b3c
000003d0: c3bc a5bd 242d a7bd a0cc edbc e165 a9bd
000003e0: 754e 383b 3f92 fbbd 516f e73c 0265 89bd
000003f0: 00ac fe3d 4206 843d d190 97bd e031 f53d

actor.0.bias f4 [32]
-0.078726366 0.038363542 0.03663451 0.06165421 -0.088048175 0.08573898 -0.05367805 0.04054952
-0.030870695 -6.656349e-05 0.021639816 0.05354838 -0.020592883 0.09693316 -0.027212773 -0.09551032
-0.0022230446 0.014838636 -0.07040553 -0.04681979 0.06354683 0.10442485 0.09535377 -0.05597
-0.09064646 -0.10752538 -0.040085882 0.06993767 0.11310395 0.104257785 0.1052756 -0.03629586
00000000: 4a3b a1bd 1723 1d3d 110e 163d 2089 7c3d
00000010: 9a52 b4bd eb97 af3d 84dd 5bbd 4117 263d
00000020: 8ae4 fcbc 0098 8bb8 fc45 b13c 8c55 5b3d
00000030: 68b2 a8bc e584 c63d 52ed debc ea9a c3bd
00000040: 80b0 11bb c01d 733c c630 90bd 1cc6 3fbd
00000050: d724 823d b2dc d53d d648 c33d cc40 65bd
00000060: daa4 b9bd 4436 dcbd 1831 24bd 7b3b 8f3d
00000070: 0ba3 e73d 1b85 d53d bc9a d73d f8aa 14bd

actor.2.weight f4 [7, 32]
-0.031690236 0.16339454 -0.02919089 0.11358854 0.14040864 -0.05985638 -0.027111001 0.05419229
0.16085027 0.015574293 -0.08907404 0.08716399 -0.11281845 -0.10645413 0.1135102 -0.011863137
-0.05670011 -0.12346148 0.06688386 0.10986977 -0.013551209 -0.033401806 -0.11101074 -0.14570464
-0.12228143 -0.04693751 -0.032030128 -0.122167185 0.14003986 -0.11982052 -0.100413494 0.09189783
0.06456947 -0.15353209 0.11789275 -0.123738214 -0.14483054 0.12125741 -0.011873947 -0.04526699
-0.17187777 0.02763023 -0.040192503 -0.08680514 -0.11140617 0.115920566 -0.11875361 0.034049805
-0.06642636 -0.08174811 0.10150655 0.112219825 0.11746247 -0.1438249 0.14936732 0.13494346
-0.098468944 0.1405614 -0.019432057 -0.0053894203 0.17418206 -0.13254529 0.036319938 -0.0045139487
0.12077061 0.14577204 -0.065353125 0.1229465 -0.14944635 -0.027065469 0.14493392 -0.07606881
-0.17091928 -0.088474095 -0.027791262 -0.04358128 0.08340507 -0.022356126 0.15481228 0.070484765
-0.0073627383 0.16298 0.022254927 0.046120476 -0.15905154 0.14829282 -0.085187055 0.09093496
0.04781562 0.15466666 -0.012099643 0.005299317 -0.021572948 0.11346812 -0.1577734 0.015719805
-0.053711038 -0.019346943 -0.13801807 0.02248014 0.07844426 -0.12188432 0.13316523 -0.11829389
-0.047323436 -0.12380959 0.07032601 -0.12411929 0.1412408 0.0070091127 -0.1262218 -0.11759067
-0.034957774 0.15216103 -0.10485836 -0.015855027 0.09555348 0.05596046 0.14424889 -0.05115441
0.12884477 -0.044573642 0.039324272 -0.08456161 0.016583396 -0.07407373 -0.022837516 0.041015964
-0.11147365 -0.006986293 0.064563155 0.16132815 -0.08513208 -0.14494307 0.07017562 -0.01587753
0.160182 -0.0050116396 0.14808314 -0.033903334 0.1248789 0.12733562 -0.0002512092 0.1707632
-0.07465886 -0.16039197 0.073983 0.15529124 -0.03327312 -0.0073162103 -0.084037095 -0.13376968
-0.009159374 0.16159084 0.057469796 0.16552973 0.00028655728 0.031666826 0.03562569 0.09966389
0.1158302 -0.048987105 -0.122272134 -0.029518401 0.049688794 -0.04286393 -0.12003458 -0.14752267
0.049872156 0.14039072 -0.14663081 0.047145847 -0.078453176 -0.15787542 -0.06617469 -0.123195596
0.14548099 -0.05368992 -0.065453656 0.14260766 0.094887264 0.14448011 -0.121824965 -0.09314826
0.033684857 -0.17428479 -0.05516578 0.15347728 0.095614634 0.06713124 -0.043899614 0.023750445
0.03481515 0.026798047 -0.015460407 -0.0885553 -0.05359273 -0.1614052 -0.12486206 0.15704355
0.14321057 0.10260427 -0.061253756 -0.027348733 -0.121797666 -0.15485804 -0.06554502 -0.08321988
0.14461987 0.03394467 -0.08058079 -0.06936594 -0.059152693 -0.11224799 0.016892932 -0.07791473
0.08648303 0.099595234 0.074157655 -0.043940734 0.07214313 0.05462271 0.0831225 -0.045543168
00000000: 9fcd 01bd e650 273e bc21 efbc 1ca1 e83d
00000010: 48c7 0f3e f72b 75bd e417 debc bcf8 5d3d
00000020: efb5 243e 522b 7f3c 736c b6bd 0983 b23d
00000030: 5c0d e7bd 9f04 dabd 0978 e83d 9a5d 42bc
00000040: 603e 68bd 5fd9 fcbd 68fa 883d 6703 e13d
00000050: e405 5ebc 55d0 08bd 9959 e3bd 9933 15be
00000060: b06e fabd 8c41 40bd 0632 03bd ca32 fabd
00000070: 9c66 0f3e 7664 f5bd 97a5 cdbd ee34 bc3d
00000080: 003d 843d 8437 1dbe c171 f13d 766a fdbd
00000090: 754e 14be ce55 f83d f28a 42bc e169 39bd
000000a0: ba00 30be cb58 e23c e5a0 24bd e5c6 b1bd
000000b0: eb28 e4bd c367 ed3d 1835 f3bd cf77 0b3d
000000c0: 8b0a 88bd 8e6b a7bd abe2 cf3d 82d3 e53d
000000d0: 2a90 f03d d646 13be bff3 183e 9e2e 0a3e
000000e0: 16aa c9bd 54ef 0f3e fa2f 9fbc bc99 b0bb
000000f0: c85c 323e f4b9 07be 37c4 143d bfe9 93bb
00000100: 9556 f73d 4445 153e dcd7 85bd 60cb fb3d
00000110: 7708 19be 67b8 ddbc 8f69 143e f7c9 9bbd
00000120: 7705 2fbe e831 b5bd 80aa e3bc 4982 32bd
00000130: 47d0 aa3d 3224 b7bc 1c87 1e3e 515a 903d
00000140: 2043 f1bb 3be4 263e f74f b63c d3e8 3c3d
00000150: 68de 22be 13da 173e 8d76 aebd 1c3c ba3d
00000160: 50da 433d f060 1e3e 953d 46bc e5a5 ad3b
00000170: c0b9 b0bc f961 e83d 5a8f 21be d2c6 803c
00000180: 1b00 5cbd 7b7d 9ebc 9c54 0dbe 4528 b83c
00000190: 62a7 a03d 7d9e f9bd 775c 083e 1144 f2bd
000001a0: 38d6 41bd e28f fdbd 1507 903d 4132 febd
000001b0: 6ea1 103e b3ac e53b 4a40 01be 61d3 f0bd
000001c0: e22f 0fbd 1ad0 1b3e fbbf d6bd 67e2 81bc
000001d0: 8bb1 c33d cc36 653d fbb5 133e 4987 51bd
000001e0: e2ef 033e da92 36bd 7d12 213d a32e adbd
000001f0: e7d9 873c f8b3 97bd be15 bbbc 5b00 283d
00000200: 4c4c e4bd 46ed e4bb b039 843d 3533 253e
00000210: ba59 aebd f56b 14be 3cb8 8f3d 9811 82bc
00000220: c006 243e ae38 a4bb 1ba3 173e 39de 0abd
00000230: 82c0 ff3d 4564 023e bab4 83b9 8cdc 2e3e
00000240: bfe6 98bd cb3d 24be 6684 973d ab04 1f3e
00000250: 6549 08bd d2bc efbb a41b acbd ebfa 08be
00000260: 3311 16bc 1278 253e 7365 6b3d a080 293e
00000270: 113d 9639 13b5 013d 3eec 113d 951c cc3d
00000280: 6238 ed3d b4a6 48bd d069 fabd 93d0 f1bc
00000290: 7a86 4b3d 1792 2fbd b1d4 f5bd 2f10 17be
000002a0: bf46 4c3d 96c2 0f3e 6326 16be 011c 413d
000002b0: 0fac a0bd 18aa 21be 9986 87bd f94d fcbd
000002c0: f8f8 143e f6e9 5bbd 910c 86bd be07 123e
000002d0: 4154 c23d 98f2 133e 5e7f f9bd 84c4 bebd
000002e0: 22f9 093d b677 32be 83f5 61bd 2629 1d3e
000002f0: 9bd1 c33d 1b7c 893d 15d0 33bd 4b90 c23c
00000300: 559a 0e3d 9487 db3c a64d 7dbc 7b5c b5bd
00000310: 0d84 5bbd 6847 25be aeb7 ffbd 06d0 203e
00000320: cba5 123e 3022 d23d 38e5 7abd 730a e0bc
00000330: 0e71 f9bd 1b93 1ebe 783c 86bd 2f6f aabd
00000340: 3b17 143e 9109 0b3d 8b07 a5bd bb0f 8ebd
00000350: 184a 72bd 46e2 e5bd 0c63 8a3c c291 9fbd
00000360: 041e b13d 96f8 cb3d f8df 973d 33fb 33bd
00000370: c7bf 933d 10bc 5f3d 213c aa3d 798b 3abd

actor.2.bias f4 [7]
0.10628115 0.16379341 0.122186236 0.11661396 0.01755603 -0.057094924 0.14169799
00000000: eea9 d93d 76b9 273e c73c fa3d 4dd3 ee3d
00000010: aad1 8f3c 5edc 69bd 4719 113e

critic.0.weight f4 [32, 64]
0.010597289 0.08423193 -0.084150404 -0.008318722 -0.078955755 0.112700105 0.011448637 -0.021079019
0.077139184 -0.07297929 0.02500081 0.116516545 0.06894952 -0.11297797 0.0015751123 0.08990601
-0.054811656 -0.055220783 -0.05178745 0.017998785 0.049128085 0.09922941 -0.0865636 0.0066728294
0.024562106 -0.07079707 0.06985684 0.036214814 -0.107445836 -0.0307796 0.034287095 0.087515116
0.040869564 -0.039906546 -0.006757021 -0.0028835535 -0.06676756 -0.037150607 0.021282777 -0.06285776
0.037932083 -0.067446485 -0.12215325 0.017313153 0.012167707 0.103241 0.08176871 0.032546952
-0.05472134 -0.064409524 -0.02200614 -0.0040684342 -0.093496755 0.056773245 -0.02747114 -0.109997794
-0.083949775 0.020054683 0.07220964 -0.09506707 -0.040763184 0.10970412 -0.12119295 -0.07482004
0.11944204 0.03715414 -0.05869691 -0.07677771 0.112975806 0.018045438 -0.033116307 0.06825955
0.03166302 0.11444697 -0.08036839 0.09935009 0.07299703 0.10958396 -0.022551939 -0.121957555
-0.042958796 0.015006567 0.09778772 0.055701658 -0.0064689466 -0.08614991 0.022230104 0.017519042
0.0224141 0.0020575766 -0.08103876 0.07158774 -0.1154331 0.043613985 -0.005308658 -0.10158563
0.046087258 -0.0010642372 0.027643286 -0.06380437 0.10039443 0.105069734 -0.0037412306 0.047369726
0.12685774 0.0074763447 0.040455908 0.045411244 -0.016041204 0.107559994 0.08703959 0.0411549
-0.058729887 0.005234819 -0.086437576 -0.12425555 -0.05915986 0.05724351 -0.023732102 0.014910374
0.05554818 0.10121397 -0.07887382 -0.06797671 -0.0053284615 -0.037680447 0.015477827 -0.1065045
-0.04125523 -0.035680115 0.032368064 -0.060887456 0.0320843 -0.104661435 0.07459881 -0.08357234
-0.081492744 -0.11923266 0.099957354 -0.048944097 -0.117400154 -0.10809937 -0.05514808 -0.0375992
-0.03806144 -0.079294756 -0.08531737 -0.0089853555 0.0721974 -0.11010424 -0.04316169 0.008716598
-0.043389276 -0.06183728 0.06558725 -0.013938356 -0.0030570468 -0.02563943 -0.11655252 -0.0240763
0.0152418725 0.096350126 0.062615864 -0.09142501 -0.05215864 0.107654504 -0.04461869 0.05351675
-0.029798463 0.11121605 0.10776043 0.020810232 -0.0319276 -0.018277777 0.101586476 -0.05261826
0.077784404 -0.11079945 0.066105336 0.07081631 -0.10782079 -0.111084774 0.04447562 -0.10307722
-0.055065855 -0.07684938 0.028824585 -0.047599584 -0.06611715 0.09790994 0.07521135 -0.02187471
0.08432073 0.098794684 0.03389801 -0.07115065 -0.09486042 0.06163111 0.01628181 0.0051395576
0.07020936 -0.08515196 0.058989953 -0.057301912 0.025757316 -0.10673694 0.009551749 -0.028083244
0.089427054 -0.12788442 -0.0073454976 -0.044564575 0.024990043 0.090856574 0.12463449 0.096125916
0.08924416 -0.030907936 -0.02579397 -0.09908818 -0.022938017 0.078044206 0.096831605 0.040414304
0.07580426 -0.002534721 -0.056466244 -0.068673566 -0.11597115 -0.10502862 0.055317093 -0.05105232
0.019758724 -0.01178731 -0.072308466 -0.06431769 -0.11936255 0.014672427 0.101306394 0.10899542
0.02042891 -0.065702684 -0.11885065 0.03371036 0.06970813 -0.052761987 0.069903925 -0.07468905
-0.0806368 -0.005094582 0.07265307 0.09774552 0.11475888 -0.050767183 -0.113852955 -0.042438596
00000000: 40a0 2d3c ca81 ac3d 0c57 acbd 404b 08bc
00000010: 8eb3 a1bd 50cf e63d 1093 3b3c e8ad acbc
00000020: 26fb 9d3d 2a76 95bd 80ce cc3c 3aa0 ee3d
00000030: 6835 8d3d fe60 e7bd 0074 ce3a a420 b83d
00000040: 3082 60bd 302f 62bd 141f 54bd 3072 933c
00000050: 883a 493d ca38 cb3d 4248 b1bd c0a7 da3b
00000060: 7836 c93c 0efe 90bd 1a11 8f3d fc55 143d
00000070: 900c dcbd 8025 fcbc a070 0c3d 203b b33d
00000080: d866 273d 0c75 23bd 006a ddbb 00fa 3cbb
00000090: 6ebd 88bd 3c2b 18bd 3859 ae3c 92bb 80bd
000000a0: ac5e 1b3d 6221 8abd 7c2b fabd 50d4 8d3c
000000b0: 105b 473c 0470 d33d 5a76 a73d f44f 053d
000000c0: 7c23 60bd 24e9 83bd 3846 b4bc 8050 85bb
000000d0: 3a7b bfbd 108b 683d 280b e1bc 8646 e1bd
000000e0: dced abbd b849 a43c a6e2 933d 86b2 c2bd
000000f0: 4cf7 26bd 8eac e03d 0234 f8bd 403b 99bd
00000100: 079e f43d f12e 183d 2c6c 70bd a23d 9dbd
00000110: dc5f e73d 07d4 933c f7a4 07bd aacb 8b3d
00000120: 15b1 013d 2c63 ea3d 2f98 a4bd 0f78 cb3d
00000130: 787f 953d 8e6d e03d d8be b8bc e2c4 f9bd
00000140: 90f5 2fbd 1bde 753c ee44 c83d 6c27 643d
00000150: 75f9 d3bb 5d6f b0bd e81b b63c 1884 8f3c
00000160: c69d b73c 68d8 063b a6f7 a5bd 989c 923d
00000170: 3068 ecbd 94a4 323d 40f4 adbb 200c d0bd
00000180: fec5 3c3d e07d 8bba 2c74 e23c deab 82bd
00000190: 989b cd3d cd2e d73d 6f2f 75bb c206 423d
000001a0: ffe6 013e 20fc f43b 18b5 253d 2401 3a3d
000001b0: d868 83bc 6a48 dc3d d041 b23d 0a92 283d
000001c0: c08e 70bd d888 ab3b 2f06 b1bd b279 febd
000001d0: 9c51 72bd 2c78 6a3d d369 c2bc a44a 743c
000001e0: 7d86 633d 4549 cf3d 9988 a1bd 6037 8bbd
000001f0: 609a aebb d056 1abd b696 7d3c 081f dabd
00000200: 3efb 28bd 5025 12bd 6094 043d 2065 79bd
00000210: d46a 033d bc58 d6bd 43c7 983d fa27 abbd
00000220: abe5 a6bd 4130 f4bd 71b6 cc3d 9b79 48bd
00000230: 7e6f f0bd 3463 ddbd f4e2 61bd 9e01 1abd
00000240: 50e6 1bbd 4a65 a2bd e0ba aebd 5037 13bc
00000250: 3bdc 933d 557e e1bd 50ca 30bd 10d0 0e3c
00000260: f4b8 31bd 1649 7dbd 9c52 863d b45d 64bc
00000270: bc58 48bb c809 d2bc 16b3 eebd a93b c5bc
00000280: 0cb9 793c 3753 c53d bf3c 803d 093d bbbd
00000290: 4ca4 55bd f779 dc3d 16c2 36bd 6134 5b3d
000002a0: e81b f4bc 3ec5 e33d 80b1 dc3d 387a aa3c
000002b0: 84c6 02bd 47bb 95bc 920c d03d 3f86 57bd
000002c0: 6e4d 9f3d d2ea e2bd 3c62 873d 2408 913d
000002d0: 25d1 dcbd 6a80 e3bd 112c 363d 261a d3bd
000002e0: bc8c 61bd 3563 9dbd 8921 ec3c c8f7 42bd
000002f0: 6e68 87bd 0285 c83d 6908 9a3d 9832 b3bc
00000300: 59b0 ac3d de54 ca3d a4d8 0a3d 6fb7 91bd
00000310: 2e46 c2bd e770 7c3d 6e61 853c bc69 a83b
00000320: edc9 8f3d 2764 aebd 739f 713d 69b5 6abd
00000330: 0201 d33c e698 dabd f07e 1c3c d50e e6bc
00000340: 8825 b73d 22f4 02be 80b2 f0bb 5889 36bd
00000350: ebb7 cc3c 0313 ba3d 5e40 ff3d aadd c43d
00000360: a4c5 b63d a432 fdbc e04d d3bc beee cabd
00000370: 82e8 bbbc a4d5 9f3d a64f c63d 7889 253d
00000380: 443f 9b3d 901d 26bb 2649 67bd baa4 8cbd
00000390: 4882 edbd 3f19 d7bd 2d94 623d 3d1c 51bd
000003a0: 0cdd a13c 901f 41bc 7616 94bd feb8 83bd
000003b0: 5a74 f4bd 9f64 703c ba79 cf3d fe38 df3d
000003c0: 885a a73c 218f 86bd f867 f3bd e013 0a3d
000003d0: 23c3 8e3d f41c 58bd ca29 8f3d 93f6 98bd
000003e0: e824 a5bd 74f0 a6bb 22cb 943d ce2e c83d
000003f0: b406 eb3d 40f1 4fbd bd2b e9bd 18d4 2dbd

critic.0.bias f4 [32]
-0.007552296 0.04549825 0.073636696 0.08904017 0.030085636 0.027233688 -0.036743753 0.084427826
0.03802113 -0.05061668 -0.107935116 0.020625904 0.08577057 0.03401081 -0.09706542 -0.025904492
-0.07774529 -0.124261856 -0.03126946 -0.036184907 -0.018432252 0.08151219 -0.002412109 -0.12395334
-0.053364486 -0.020918414 -0.017834872 0.04626021 0.08137725 0.02541028 0.028468177 0.0142376125
00000000: 4079 f7bb 5f5c 3a3d d6ce 963d b15a b63d
00000010: 2776 f63c 2f19 df3c 9e80 16bd 7fe8 ac3d
00000020: 0bbc 1b3d 7053 4fbd 160d ddbd a8f7 a83c
00000030: 7ba8 af3d eb4e 0b3d 3cca c6bd a835 d4bc
00000040: ec38 9fbd 007d febd 6814 00bd a036 14bd
00000050: 3cff 96bc ddef a63d 7914 1ebb 40db fdbd
00000060: b894 5abd 185d abbc 701a 92bc 597b 3d3d
00000070: 1ea9 a63d 3829 d03c 1836 e93c e044 693c

critic.2.weight f4 [1, 32]
0.049168132 0.029620485 0.16406964 -0.06786364 0.12912682 -0.020628495 0.02386489 0.060099598
0.122612014 0.057083797 -0.12587021 0.09358798 -0.09457851 -0.104204975 -0.040655755 0.1160559
0.09694361 -0.04881977 -0.1618409 -0.15271156 -0.16428904 0.17960791 -0.16807427 -0.008130717
-0.16679916 -0.09626348 -0.1390375 0.07479362 -0.16813657 -0.026634388 -0.011247877 0.046471726
00000000: 8664 493d a9a6 f23c df01 283e 18fc 8abd
00000010: d239 043e 17fd a8bc 4d80 c33c ff2a 763d
00000020: 021c fb3d b3d0 693d 1fe4 00be 0eab bf3d
00000030: 61b2 c1bd 6b69 d5bd a686 26bd b7ae ed3d
00000040: 5f8a c63d 3df7 47bd 9fb9 25be 6b60 1cbe
00000050: 633b 28be 23eb 373e a91b 2cbe b336 05bc
00000060: 66cd 2abe ca25 c5bd d95f 0ebe 662d 993d
00000070: fe2b 2cbe 5c30 dabc 0449 38bc 2359 3e3d
