src/franka_h2/scripts/RL/pth/arm_ppo.pth (torch, 67506 bytes, 11 tensors)

shared_layer.0.weight f4 [128, 24]
0	0x3e530340	0.20606709
1	0x3e5ac201	0.21363069
2	0xbc59592b	-0.013265888
3	0xbe09fe1c	-0.13475841
4	0xbc1c2b64	-0.0095318295
5	0xba821480	-0.0009924322
6	0x3e8e84dc	0.2783574
7	0x3d81827f	0.06323718
8	0xbe2c05f3	-0.16799144
9	0x3d82aff0	0.06381214
10	0x3e0d6863	0.13809352
11	0xbddd370b	-0.10801514
12	0x3e1bd266	0.1521698
13	0xbb1fa6fa	-0.0024361
14	0xbe00284b	-0.1251537
15	0xbd60929a	-0.05482731
16	0xbe1d7735	-0.15377505
17	0x3c29b362	0.01035771
18	0x3ae77864	0.001765978
19	0x3e34bd04	0.17650229
20	0xbe670c93	-0.2256339
21	0x3dde421a	0.108524516
22	0x3e904145	0.28174797
23	0x3e286c0f	0.16447471
24	0xbc8e5ee1	-0.017379226
25	0xbe4886c1	-0.19582655
26	0x3da6b3ad	0.08139739
27	0x3e405d63	0.18785624
28	0xbd2cbb9f	-0.042171117
29	0x3e4ba39d	0.19886632
30	0x3d0e79d9	0.03478417
31	0x3dccbc55	0.09996859
32	0xbd1bf477	-0.038074937
33	0x3c3ddec2	0.011588754
34	0xbde91c90	-0.11382401
35	0x3e369354	0.17829639
36	0xbe08464e	-0.13308069
37	0xbe455474	-0.19270498
38	0x3e471568	0.1944176
39	0xbe3e332d	-0.1857421
40	0xbdfef0a1	-0.1244824
41	0xbe117bfd	-0.14207454
42	0xbc06df65	-0.008231972
43	0xbcdfbd30	-0.027311891
44	0xbe0d67c3	-0.13809113
45	0xbe0fdbc9	-0.14048685
46	0x3e19d570	0.15022826
47	0xbcc180a5	-0.023620913
48	0x3e5bdfa8	0.21472037
49	0xbd5e185c	-0.05422245
50	0x3e9bf939	0.3046358
51	0xbe8c3327	-0.27382776
52	0x3e340945	0.17581661
53	0x3c224c86	0.00990594
54	0xbd100810	-0.03516394
55	0xbd682ca7	-0.05668321
56	0x3d7f671b	0.06235419
57	0xbe264907	-0.16238795
58	0xbbb3e765	-0.005490231
59	0x3e7497e7	0.23886071
60	0xbe551678	-0.20809352
61	0xbe562209	-0.20911421
62	0xbd2180d3	-0.039429497
63	0xbd82bec7	-0.06384044
64	0x3d8bc666	0.06824951
65	0x3c9bf374	0.019036986
66	0x3c36ea4d	0.01116426
67	0x3cae2f24	0.021262713
68	0xbe369dc9	-0.17833628
69	0x3d983451	0.074318536
70	0x3dfa7492	0.12229265
71	0x3e94beb8	0.29051757
72	0xbc9383d0	-0.018007189
73	0x3e31d385	0.17365845
74	0xbc6528e0	-0.013986796
75	0xbe92c993	-0.28669414
76	0x3dabccba	0.08388658
77	0x3e592f33	0.21209411
78	0x3d2439ec	0.0400943
79	0x3d0c02ef	0.034182485
80	0x3d6ee5d5	0.058324654
81	0x3c7daa79	0.015482538
82	0x3dd6c853	0.104874276
83	0x3e20f06c	0.15716714
84	0xbe32274f	-0.17397808
85	0xbd5b84c0	-0.053593397
86	0xbd8878aa	-0.0666364
87	0x3d2e8d75	0.042615373
88	0x3bc2a9c0	0.005940646
89	0xbdf6b946	-0.12047057
90	0xbdfa5ca2	-0.122246996
91	0x3da1a9c0	0.07893705
92	0x3e178193	0.14795522
93	0x3e10b797	0.14132534
94	0x3cf81d3d	0.03028738
95	0x3e6686e6	0.22512397
96	0xbe033842	-0.1281443
97	0x3e16b943	0.14719109
98	0x3d052205	0.032503147
99	0xbd653425	-0.055957932
100	0x3c973523	0.018457955
101	0x3e46ac74	0.19401723
102	0x3d60adc2	0.05485321
103	0x3cc2eddc	0.02379506
104	0x3e2e2cc7	0.17009269
105	0xbdfeedcf	-0.12447702
106	0xbe193649	-0.14962114
107	0xbdb0188e	-0.085984334
108	0xbe207b8d	-0.15672131
109	0x3db5bcfb	0.08873936
110	0xbcb3166d	-0.02186128
111	0x3e52c08c	0.20581263
112	0x3e21e93a	0.15811625
113	0xbd74b119	-0.059739206
114	0x3dcf4167	0.101198964
115	0x3da98911	0.082780965
116	0xbde6d24e	-0.11270581
117	0xbe1f9ff7	-0.15588365
118	0x3b94a451	0.0045361896
119	0xb9737406	-0.00023217508
120	0x3e575b21	0.21030857
121	0xbe034a60	-0.1282134
122	0xbd8a70ba	-0.06759782
123	0x3e4520e3	0.19250827
124	0xbc33536a	-0.01094518
125	0xbe0fbae1	-0.14036132
126	0x3e17a926	0.14810619
127	0xbddd56c1	-0.108075626
128	0xbbdd8097	-0.006759714
129	0x3e0d1c6e	0.13780376
130	0xbe190b44	-0.14945704
131	0xbe097c92	-0.13426426
132	0xbd4fc3b5	-0.05072375
133	0xbd41eead	-0.04734676
134	0xbe331248	-0.17487442
135	0x3dec520b	0.11539086
136	0xbe10d013	-0.14141874
137	0x3e0f2373	0.13978367
138	0xbd7c04b4	-0.061527923
139	0x3d8fcb63	0.07021215
140	0x3e08d401	0.13362123
141	0xbd82e098	-0.06390494
142	0x3d527d11	0.051388804
143	0xbd5f15c8	-0.05446413
144	0x3e08826f	0.13331006
145	0x3e993aca	0.29927665
146	0x3c96a141	0.018387439
147	0xbe97e4a9	-0.2966664
148	0xbd2d80f5	-0.04235931
149	0x3e2ace4a	0.16680256
150	0xbd93e397	-0.07221144
151	0x3e1b8ca3	0.15190367
152	0xbe36d230	-0.17853618
153	0x3e068a85	0.13138779
154	0xbcb6ee4e	-0.02233043
155	0x3d072bb6	0.03300067
156	0xbe288c4d	-0.1645977
157	0xbd03f8bf	-0.032219645
158	0xbe1c93a0	-0.1529069
159	0x3e102dc5	0.1407996
160	0xbe5acce9	-0.2136723
161	0xba2fc28b	-0.00067047094
162	0x3e34a88f	0.17642425
163	0xbde98ba3	-0.11403587
164	0xbc58c196	-0.013229748
165	0x3e1f1f43	0.15539269
166	0xbb6c2689	-0.003603371
167	0x3ea0c98e	0.31403774
168	0x3e420da9	0.18950523
169	0xbe3dac76	-0.1852282
170	0x3dab81a7	0.083743386
171	0x3e0b30ef	0.13592885
172	0xbe36de66	-0.17858276
173	0x3d9057d0	0.07047999
174	0x3dfcefc6	0.12350421
175	0xbe448a22	-0.19193318
176	0xbe161e3c	-0.14659971
177	0x3d62bb6b	0.055354517
178	0x3d76b11e	0.060227506
179	0x3e375d25	0.17906626
180	0x3dff9906	0.12480359
181	0xbe139354	-0.1441167
182	0xbc90ebb8	-0.017690524
183	0xbe001eed	-0.12511797
184	0x3c12966a	0.008946994
185	0xbdd91c99	-0.10601158
186	0xbe10b78b	-0.14132516
187	0xbe3ed1c0	-0.18634701
188	0x3dfd7d4c	0.12377414
189	0xbe5594fd	-0.20857616
190	0x3e2866e3	0.16445498
191	0x3de8d309	0.11368377
192	0xbe3ce857	-0.18448006
193	0x3e46f29e	0.19428489
194	0xbe349e1f	-0.17638443
195	0xbbbad110	-0.0057011917
196	0x3d553f04	0.05206205
197	0xbdb115cb	-0.08646735
198	0xbd2fbeb3	-0.042906474
199	0x3da7d9cb	0.081958376
200	0x3deaab21	0.114584215
201	0x3e0479ae	0.12937042
202	0x3d2bfa6a	0.04198686
203	0xbe3c7e49	-0.18407549
204	0x3cd74b69	0.026281076
205	0x3e0fd915	0.14047654
206	0x3de04577	0.10950749
207	0x3c278d04	0.010226492
208	0x3d93d42f	0.07218205
209	0x3e050b5c	0.12992615
210	0x3dd232c6	0.102635905
211	0x3e391233	0.18073349
212	0x3d9a82c8	0.07544476
213	0xbe1581b3	-0.14600258
214	0x3cfc5ba9	0.030805426
215	0xbe39721c	-0.18109936
216	0x3e4ec60d	0.20192738
217	0x3d5065b6	0.05087825
218	0x3e0a76d2	0.13521889
219	0xbd1ec937	-0.038766112
220	0xbc948889	-0.018131511
221	0x3e4926a1	0.19643642
222	0x3e5b79eb	0.21433227
223	0xbe309117	-0.17242847
224	0x3aae5179	0.0013299427
225	0x3e3c97fc	0.18417352
226	0x3e245416	0.16047701
227	0xbe28d2e6	-0.16486701
228	0x3e20b909	0.15695585
229	0x3db52026	0.088440225
230	0x3d46e528	0.048558384
231	0xbe0bedd3	-0.13664941
232	0x3e050685	0.12990768
233	0x3ba80791	0.005127855
234	0xbe4bb628	-0.19893706
235	0xbc8df564	-0.017328925
236	0xbd7fba5e	-0.062433593
237	0x3dc29d80	0.09502697
238	0x3e84bee0	0.25926876
239	0x3dcb9231	0.09939993
240	0x3da50589	0.08057696
241	0xbe1f0886	-0.15530595
242	0xbe284d30	-0.16435695
243	0x3d92ee7b	0.07174393
244	0x3e3de6f3	0.18545131
245	0xbda1e1ab	-0.07904371
246	0xbd3a78d5	-0.04552539
247	0xbe3bb5fa	-0.18331137
248	0xbda4e5e8	-0.08051664
249	0x3e0f0a73	0.1396883
250	0xbd237321	-0.039904717
251	0x3be1fb3c	0.0068964045
252	0x3daae3f4	0.0834426
253	0xbd25ac54	-0.040447548
254	0xbcf7925b	-0.030221155
255	0x3e0562ac	0.13025922

shared_layer.0.bias f4 [128]
0	0x3e9384d4	0.28812277
1	0x3d2cc374	0.042178586
2	0x3e8ac693	0.27104625
3	0xbceb6a18	-0.028737113
4	0xbe46f1b0	-0.19428134
5	0x3e3b7f2f	0.18310235
6	0x3e976ff2	0.29577595
7	0xbc713c51	-0.014723853
8	0xbd43f172	-0.047837682
9	0x3e591f24	0.21203285
10	0xbe1275cc	-0.14302748
11	0x3e07ff0c	0.13280886
12	0x3e0daa45	0.13834484
13	0xbc3a9a2c	-0.0113892965
14	0x3e3adbcb	0.18247907
15	0x3db6e389	0.08930118
16	0xbe3c7643	-0.18404488
17	0x3e4ba99a	0.19888917
18	0x3e0c84ad	0.13722487
19	0x3e659cf1	0.2242315
20	0xbe41142f	-0.18855356
21	0xbc288ffa	-0.010288233
22	0x3c3653f3	0.0111284135
23	0x3ca9ed90	0.020743161
24	0x3e67e3ef	0.22645544
25	0x3d86be40	0.06579256
26	0xbc3d6cc1	-0.0115615735
27	0x3be09914	0.006854186
28	0xbc0ebd8f	-0.0087121865
29	0xbe194230	-0.14966655
30	0xbc9efc51	-0.019407423
31	0xbda00494	-0.07813373
32	0x3e9207f7	0.28521702
33	0x3e6e1f1b	0.23254053
34	0xbdb24832	-0.087051764
35	0x3e98faf4	0.29878962
36	0x3e8e7dee	0.27830452
37	0x3ded8466	0.115975186
38	0xbbeddaa5	-0.0072587305
39	0x3e8d3b9f	0.2758455
40	0xbe181040	-0.14849949
41	0x3e993bd7	0.29928467
42	0x3e278e9b	0.16362993
43	0x3e157470	0.14595199
44	0xbd723d65	-0.05914058
45	0xbd81b89d	-0.0633404
46	0xbd4a522f	-0.049394783
47	0x3d4f1d2c	0.05056493
48	0x3dd70039	0.10498089
49	0x3d0efe9d	0.034910787
50	0x3e926d22	0.28598887
51	0x3e6edd60	0.23326635
52	0xbd978125	-0.07397679
53	0xbad4e5d4	-0.001624281
54	0x3e8965dd	0.26835528
55	0xbdd76bec	-0.10518631
56	0xbd574409	-0.052555118
57	0xbe1f4e16	-0.15557131
58	0xbdf50aed	-0.119649746
59	0x3d57acbc	0.052654967
60	0x3c46f555	0.012143453
61	0x3a4486e3	0.00074969063
62	0x3e2b2243	0.16712289
63	0x3e590ea6	0.21196994
64	0x3e6e0253	0.23243074
65	0x3e490743	0.19631676
66	0x3e2f07f9	0.17092885
67	0x3ced5ec3	0.02897585
68	0x3d86dc69	0.06585009
69	0xbd329ba1	-0.04360545
70	0x3cdc96e1	0.026927413
71	0x3e6c99cd	0.23105545
72	0x3c15bc80	0.00913918
73	0x3e946c8b	0.28989062
74	0x3e987df4	0.29783595
75	0x3e4f0bf0	0.20219398
76	0xbe3186ec	-0.17336625
77	0x3e2dbe88	0.16967213
78	0x3de71a84	0.11284354
79	0xbd824fc7	-0.063628726
80	0x3e9086e1	0.28227904
81	0x3eaac1a8	0.33350873
82	0x3cb5bb95	0.022184173
83	0x3dce5386	0.100745246
84	0x3e5f37a8	0.21798575
85	0x3e7c7270	0.2465303
86	0x3c9e62f9	0.019334303
87	0xbda8aaca	-0.082357004
88	0x3de044ad	0.10950599
89	0x3e92eb3d	0.28695098
90	0x3c60ee19	0.013728642
91	0x3e20ae9b	0.15691607
92	0x3e170702	0.14748767
93	0x3e864557	0.26224777
94	0x3dd92343	0.10602429
95	0x3de14b75	0.110007204
96	0x3d510a75	0.051035363
97	0x3e28fdf4	0.16503125
98	0xbdb5131d	-0.08841536
99	0x3d83c11c	0.06433317
100	0x3e0073f6	0.12544236
101	0xbe3c9284	-0.18415266
102	0x3e25b68b	0.16182916
103	0x3e6e8393	0.23292379
104	0x3c49e5ca	0.012322852
105	0x3e33f8a2	0.17575315
106	0xbe1f58c8	-0.15561211
107	0x3e09f6fe	0.13473126
108	0x3e063440	0.1310587
109	0x3e454660	0.19265127
110	0x3e28e2b2	0.16492727
111	0x3eab6914	0.33478606
112	0x3e431bf1	0.19053628
113	0x3ddff1b2	0.109347716
114	0x3e0ba795	0.13638146
115	0x3aa5192f	0.0012596006
116	0x3e8e1782	0.2775231
117	0x3db4ab46	0.0882173
118	0xbe2ebbe5	-0.17063864
119	0x3d8dac9d	0.06917689
120	0x3e461576	0.19344124
121	0x3e4e526f	0.20148633
122	0xbe503f75	-0.20336707
123	0x3ea49ed4	0.32152426
124	0xbd8a2168	-0.06744653
125	0x3e8fc871	0.28082612
126	0xbd4dcc35	-0.050243575
127	0xbd324d22	-0.04353059

shared_layer.2.weight f4 [64, 128]
0	0x3e313625	0.17305811
1	0xbd5a4698	-0.05328998
2	0x3dc6ae9a	0.09701271
3	0x3de5a3a5	0.11212853
4	0xbda14105	-0.078737296
5	0xbd63c442	-0.055607088
6	0x3e5a807e	0.21338078
7	0xbd7eaf19	-0.062178705
8	0xbd098d9c	-0.033582315
9	0x3d632c64	0.055462256
10	0x3cdb5b48	0.026776925
11	0x3d874946	0.06605773
12	0x3e14fde5	0.14549978
13	0x3e2dd7d8	0.16976869
14	0x3e2a8b50	0.16654706
15	0xbd6994f2	-0.05702681
16	0xbd980fae	-0.07424866
17	0x3dc04790	0.093886495
18	0xbd12a10f	-0.03579813
19	0x3d84fe09	0.06493766
20	0xbd90f925	-0.070787705
21	0x3e3bcb24	0.18339211
22	0xbd7df38a	-0.061999835
23	0x3e32ac01	0.17448427
24	0x3dd2b485	0.102883376
25	0xbd6f01ba	-0.058351256
26	0x3db0e858	0.08638066
27	0x3cdab7be	0.026698943
28	0xbcd0b6d9	-0.025477814
29	0x3d8c0f3e	0.06838845
30	0xbd5dcce2	-0.05415047
31	0xbd86a863	-0.06575086
32	0x3d57f65d	0.052725185
33	0x3dd466ab	0.10371145
34	0x3d51fa9c	0.05126439
35	0x3e298e14	0.16558105
36	0x3d4b78e2	0.04967583
37	0x3e59263f	0.21205996
38	0xbb50cf27	-0.0031861754
39	0x3e042ae2	0.12906983
40	0x3dda060d	0.10645685
41	0x3e18eeed	0.14934893
42	0x3ddda77c	0.10822961
43	0xbdb3c603	-0.08778002
44	0x3e202210	0.15637994
45	0xbca986f1	-0.020694228
46	0x3db0e399	0.08637161
47	0x3db4bf78	0.08825582
48	0x3dc86894	0.09785572
49	0x3e0a0055	0.13476689
50	0x3df90fe8	0.12161237
51	0x3e4378ac	0.19089001
52	0xbd95e79d	-0.07319567
53	0xbdaec100	-0.085329056
54	0x3dc3d033	0.09561195
55	0xbd8fa8f8	-0.0701465
56	0x3da76cff	0.08175086
57	0x3d449af1	0.047999326
58	0x3c27ade4	0.01023433
59	0x3e26d90d	0.16293736
60	0x3e46a742	0.19399741
61	0x3d43103d	0.047622908
62	0xbcdcfb25	-0.026975224
63	0x3da12aa5	0.07869462
64	0x3e311e8e	0.17296812
65	0x3e211a6a	0.15732732
66	0x3e4e91de	0.20172831
67	0x3dc4b9ae	0.09605728
68	0x3e524bbf	0.20536707
69	0x3d9bff70	0.0761708
70	0xbb975270	-0.0046179816
71	0x3e5d08cd	0.21585388
72	0xbc87f354	-0.01659552
73	0x3d07866b	0.033087175
74	0x3e1faa2e	0.15592262
75	0x3e3ad7cb	0.18246381
76	0x3ce6e35d	0.028184587
77	0x3e3a3158	0.18182886
78	0x3e0658fb	0.13119881
79	0xbd9d6321	-0.07684923
80	0x3e246e12	0.16057613
81	0x3dde4f65	0.10854987
82	0x3e3d6ab2	0.18497732
83	0xbd00c434	-0.031437114
84	0x3e1a0a96	0.150431
85	0x3e282493	0.16420202
86	0x3d554df5	0.0520763
87	0x3d1be967	0.038064387
88	0x3e214e15	0.15752442
89	0x3e4f3e00	0.20238495
90	0xbdb0c27c	-0.08630845
91	0x3d4a2117	0.049347963
92	0x3deb6af3	0.11495008
93	0x3d4e72ff	0.050402638
94	0xbe1df90b	-0.15427034
95	0x3da02cd3	0.078210495
96	0x3e318429	0.17335571
97	0x3d402233	0.046907615
98	0x3b02139a	0.001984811
99	0x3e4babe6	0.19889793
100	0x3e5b9843	0.21444802
101	0xbce684a8	-0.028139427
102	0x3e26fac5	0.16306598
103	0x3dc30c3d	0.09523819
104	0x3e554f9e	0.20831153
105	0x3e09df7e	0.13464162
106	0xbd8e4020	-0.069458246
107	0x3dbf5ff8	0.093444765
108	0x3dce9424	0.10086849
109	0xbc7bf302	-0.015377762
110	0xbc6bac81	-0.01438439
111	0x3e23c504	0.15993124
112	0x3e478313	0.19483595
113	0xbc72609e	-0.014793543
114	0xbd020558	-0.031743377
115	0x3d81e848	0.06343132
116	0x3e39eefd	0.18157573
117	0xbd6ef743	-0.058341276
118	0x3d800728	0.06251365
119	0x3e5066da	0.20351735
120	0x3e050e1f	0.12993668
121	0x3d5d2da1	0.053998593
122	0xbd8056ff	-0.06266593
123	0x3dd2fbdf	0.10301947
124	0xbe06babf	-0.13157175
125	0x3d505008	0.050857574
126	0x3d9c3319	0.076269336
127	0x3e343d15	0.17601426
128	0xbd95f019	-0.073211856
129	0x3d8e24f4	0.06940642
130	0xbcd0e76f	-0.025500981
131	0xbd1039a0	-0.035211205
132	0xbd42888c	-0.047493502
133	0xbd1685c9	-0.03674868
134	0xbc4b9ba0	-0.012427241
135	0x3c8564c5	0.016283402
136	0xbd38ea99	-0.045145605
137	0x3d5b9377	0.05360743
138	0xbd8a72dc	-0.06760189
139	0x3d7c24bd	0.061558474
140	0xbbee1b58	-0.007266443
141	0x3d283c95	0.0410734
142	0xbdadebd7	-0.084922485
143	0xbc3e88e3	-0.011629316
144	0xbc62c139	-0.013840013
145	0x3a3050bf	0.00067258993
146	0xbca63c89	-0.020292537
147	0x3d6c70df	0.05772483
148	0xbc77f965	-0.015135144
149	0xbc9b214e	-0.01893678
150	0xbd3ac558	-0.045598358
151	0x3ced9860	0.029003322
152	0x3ccd8b9e	0.025090989
153	0x3cc2196e	0.023693766
154	0xbd100264	-0.03515853
155	0xbd8e272e	-0.06941067
156	0xbb12f1ba	-0.0022421912
157	0xbd91e50b	-0.071237646
158	0x3be6c5b6	0.007042612
159	0x3da47b68	0.080313504
160	0xbd99c2bf	-0.07507848
161	0x3d038c86	0.032116435
162	0x3cb7dbbf	0.02244365
163	0xbda9e482	-0.082955375
164	0x3b127ea5	0.0022353318
165	0xbc432ee8	-0.011913039
166	0xbd9352ef	-0.07193553
167	0x3ce68df0	0.028143853
168	0xbc09ab2c	-0.008402627
169	0x3cdf6c68	0.027273372
170	0xbd3a540b	-0.045490306
171	0x3d40a239	0.047029708
172	0xbc3ce9a4	-0.011530314
173	0xbd2689a8	-0.040658623
174	0x3cf8f0d6	0.030388277
175	0x3d9f6420	0.07782769
176	0xbd9db0d6	-0.076997444
177	0x3d5b180d	0.053489733
178	0xbda75a02	-0.081714645
179	0x3d06825d	0.032839168
180	0x3d2cb473	0.042164277
181	0xbcafc1a0	-0.021454632
182	0xbd8a5282	-0.06754018
183	0x3db3ce68	0.08779603
184	0xbc81007e	-0.015747305
185	0x3d7c8104	0.061646476
186	0x3d438310	0.047732413
187	0xbcb5251a	-0.022112418
188	0xbb69d8b8	-0.0035682153
189	0xbd950793	-0.07276835
190	0x3c757374	0.014981139
191	0xbd15567b	-0.036459427
192	0xbb3c57ab	-0.0028738778
193	0xbd9df63d	-0.07712982
194	0xbd6eee9a	-0.058333017
195	0xbbb7c1f5	-0.0056078383
196	0xbd606e7b	-0.054792862
197	0xbc8f291a	-0.017475653
198	0xbcddca06	-0.027073871
199	0xbab1a319	-0.0013552635
200	0xbbfce137	-0.0077172774
201	0x3d148064	0.036255255
202	0x3c949203	0.01813603
203	0x3cb87b5a	0.022519756
204	0x3d9bd854	0.07609621
205	0x3d1bd2c4	0.0380428
206	0x3c5896d9	0.013219559
207	0x3d90bd64	0.070673734
208	0x3c6a74f2	0.0143101085
209	0x3d9d20ec	0.07672295
210	0xbd3e83ed	-0.046512533
211	0xbda3b8f1	-0.07994259
212	0xbdb46aac	-0.088094085
213	0x3d840120	0.06445527
214	0x3d6d95fa	0.058004357
215	0x3be002fa	0.0068362923
216	0x3d4b5d74	0.04964967
217	0x38ab5197	8.169113e-05
218	0xbd8f1287	-0.06985956
219	0xbd34c78d	-0.04413562
220	0xbd3346fa	-0.04376886
221	0x3d64f0ff	0.055893894
222	0xbd1c96cd	-0.038229752
223	0x3ca03dce	0.01956072
224	0xbd909b90	-0.07060921
225	0x3d65696d	0.056008745
226	0xbcdaaf14	-0.026694812
227	0x3cf78201	0.030213358
228	0x3b99ebf7	0.0046973187
229	0x3dacc052	0.0843512
230	0xbd9b8ced	-0.07595239
231	0xbd24276c	-0.040076658
232	0xbda9219d	-0.08258364
233	0x3db04f3c	0.08608863
234	0xbcf5a8cb	-0.029987713
235	0x3db23656	0.0870177
236	0x3c90d766	0.017680835
237	0x3c9c0adf	0.019048152
238	0x3c7b5915	0.015341063
239	0xbc36ac10	-0.011149421
240	0xbdb3b15b	-0.08774062
241	0xbc8f8123	-0.017517632
242	0x3d8953ab	0.067054115
243	0xb9c1d1af	-0.00036968055
244	0xbbb8d971	-0.0056411554
245	0xbcc2c652	-0.023776207
246	0x3d2ae4b8	0.04172203
247	0xbdb34a3c	-0.087543935
248	0x3c698e41	0.014255107
249	0xbd90acc6	-0.07064204
250	0xbd971cd5	-0.07378546
251	0xbc3ca6a4	-0.01151434
252	0x3ce625af	0.02809414
253	0x3d7edc93	0.062222075
254	0xbd5a56e4	-0.05330552
255	0xbc3ddc44	-0.01158816

shared_layer.2.bias f4 [64]
0	0x3e549f19	0.20763816
1	0x3da3fcfc	0.08007237
2	0xbd8e1c86	-0.06939034
3	0xbda98a03	-0.08278277
4	0xbce3cbf5	-0.027807215
5	0xbd59435a	-0.053042747
6	0x3e499663	0.19686274
7	0x3d6c3ba1	0.057674054
8	0x3be6f023	0.0070476695
9	0xbd3f60f7	-0.046723332
10	0x3e4390ed	0.19098254
11	0x3d7676fb	0.060172062
12	0x3e339ff1	0.17541482
13	0xbd85a051	-0.065247186
14	0xbcb748e4	-0.022373624
15	0x3e34384c	0.175996
16	0xbd22ba0a	-0.039728202
17	0x3e3c0ef7	0.18365084
18	0x3e123444	0.1427775
19	0x3cd0a3f3	0.025468802
20	0x3de7e912	0.113237515
21	0x3c6628f4	0.01404785
22	0x3e4fe32a	0.203015
23	0xbd6f28df	-0.058388587
24	0x3e11354f	0.14180492
25	0x3d1b1e00	0.037870407
26	0xbd0bc1cb	-0.034120362
27	0xbc6e28b1	-0.014536069
28	0xbd273bea	-0.040828623
29	0xbd7946e5	-0.060858626
30	0xbd9722f0	-0.07379711
31	0xbc9d7f8a	-0.019225854
32	0xbd74f5aa	-0.059804596
33	0xbc1fc970	-0.009752616
34	0xbd8829a0	-0.06648564
35	0x3e2e6531	0.17030789
36	0xbd21f795	-0.039542753
37	0xbc1ee28d	-0.009697569
38	0xbd0407a0	-0.032233834
39	0xba7ab322	-0.0009563436
40	0xbd15a5d7	-0.03653511
41	0x3e34f861	0.17672874
42	0xbda421d6	-0.08014266
43	0xbc90b248	-0.017663136
44	0x3d2d1e44	0.04226519
45	0xbdbbf6e5	-0.09177951
46	0x3cb3dbb3	0.021955347
47	0xbcf49270	-0.029854983
48	0xbd8996a2	-0.06718184
49	0x3dbce0d3	0.09222569
50	0x3d49ecb5	0.049298007
51	0x3e3ae396	0.1825088
52	0x3e38592e	0.1800277
53	0x3e042d79	0.12907971
54	0x3e1bd40f	0.15217613
55	0xbdb805d0	-0.08985484
56	0x3d564f8b	0.05232195
57	0xbda9b514	-0.08286491
58	0x3d7a2ec9	0.061079774
59	0x3dc2f73f	0.09519815
60	0xbd8f5a4b	-0.06999644
61	0xbd0c461c	-0.03424655
62	0x3d8e1d14	0.0693914
63	0x3d2048b9	0.039131854

actor.0.weight f4 [32, 64]
0	0x3e1420c9	0.14465632
1	0xbdf1308e	-0.11776839
2	0xbc0a6880	-0.008447766
3	0x3decb70e	0.115583524
4	0xbdfa0896	-0.12208669
5	0xbded554c	-0.11588535
6	0x3e1017b9	0.1407155
7	0x3e2dc242	0.16968635
8	0xbd040574	-0.032231763
9	0xbdcab1b6	-0.09897177
10	0x3e2da09f	0.16955803
11	0xbd2f235c	-0.04275833
12	0x3de531a8	0.11191112
13	0x3cf0a850	0.029377133
14	0xbde574d0	-0.11203921
15	0xbce24f41	-0.027625682
16	0xbd2d1124	-0.042252675
17	0x3df2161f	0.118206255
18	0xbd18a529	-0.037266884
19	0x3d462164	0.048371688
20	0x3d12e64e	0.035864167
21	0x3dd3df10	0.1034528
22	0x3e2bd86a	0.16781774
23	0xbcc39dc0	-0.023878932
24	0x3ae7aa6f	0.0017674695
25	0x3dd7e09a	0.10540886
26	0xbd6f7c60	-0.058468223
27	0xbc40a660	-0.011758417
28	0x3ddf1356	0.1089236
29	0x3d580a50	0.05274421
30	0xbdd11cd8	-0.1021058
31	0xbd5c2018	-0.053741544
32	0x3d783fe4	0.060607806
33	0x3e07488b	0.13211267
34	0xbd094b40	-0.03351903
35	0x3db096e6	0.086225316
36	0x3c2e4020	0.010635406
37	0x3c969218	0.01838021
38	0x3dfaf51c	0.12253782
39	0xba2d2800	-0.0006605387
40	0x3d2b7db0	0.04186791
41	0x3e2336b5	0.15938838
42	0x3d9e9464	0.07743147
43	0xbc115670	-0.008870706
44	0xbd3644a8	-0.04449907
45	0x3de0b2d8	0.10971612
46	0x3d9da73e	0.076979145
47	0xbd73bd2c	-0.05950658
48	0x3d8ec1fa	0.06970592
49	0xbe0afad0	-0.1357224
50	0x3dfc50f4	0.12320128
51	0xbd4a46b1	-0.049383823
52	0x3daa89eb	0.08327087
53	0x3df567d9	0.11982698
54	0x3d8b88e6	0.06813221
55	0x3df4a29b	0.11945077
56	0xbd651e0a	-0.05593685
57	0x3b1be233	0.0023785948
58	0x3bc77500	0.0060869455
59	0x3e0ec24f	0.1394131
60	0x3d488c30	0.04896182
61	0xbd3b7e28	-0.04577461
62	0xbd8472f6	-0.064672396
63	0xbdbe9e4a	-0.09307535
64	0xbc941178	-0.018074736
65	0x3d8bc8cc	0.06825408
66	0x3dd9071a	0.10597058
67	0xbcca7190	-0.024712354
68	0x3da395c8	0.07987553
69	0xbce2c7f8	-0.027683243
70	0x3da8f224	0.0824931
71	0xbdad6108	-0.08465773
72	0xbda8f5b2	-0.08249988
73	0xbd501974	-0.050805524
74	0x3de6fc69	0.11278612
75	0xbd8ccd52	-0.06875099
76	0x3db8ee56	0.09029834
77	0xbd5f5efc	-0.054533944
78	0x3d144ab0	0.03620404
79	0xbdac6b73	-0.08418932
80	0xbcb3e2d8	-0.021958753
81	0xbd9dfb38	-0.07713932
82	0xbc638471	-0.013886557
83	0xbdb626f6	-0.0889415
84	0x3d6dde0e	0.058073096
85	0x3c8d76d8	0.017268583
86	0x3deded1d	0.116174914
87	0xbcd15af8	-0.025556073
88	0x3de0bcfa	0.109735444
89	0x3ba6f5a0	0.0050951988
90	0x3d13b7c4	0.036063924
91	0xbd52c474	-0.051456884
92	0xbd1c3ca0	-0.038143754
93	0x3d3c5abd	0.045984972
94	0xbda691b4	-0.081332594
95	0x3d405220	0.04695332
96	0xbcf07948	-0.029354706
97	0x3d92ac09	0.07161719
98	0xbda94807	-0.08265691
99	0x3d9ae1ec	0.075626224
100	0x3dd5337c	0.104102105
101	0x3d6ccb84	0.057811275
102	0xbddd1c34	-0.10796395
103	0xbd789490	-0.060688555
104	0x3c9b1f28	0.018935755
105	0xbd810dd4	-0.06301466
106	0x3c949448	0.018137112
107	0x3dc3936a	0.095496014
108	0x3de33c4c	0.11095485
109	0xbd99daba	-0.07512422
110	0x3d413318	0.047167867
111	0x3df1dd6a	0.118098095
112	0xbdda24a8	-0.10651523
113	0x3e00c9ee	0.1257703
114	0xbdf40642	-0.11915256
115	0xbcf262bc	-0.029588096
116	0x3d710444	0.05884196
117	0x3dffdaa6	0.12492876
118	0xbdd86d1c	-0.10567686
119	0x3e013626	0.12618312
120	0x3be17160	0.0068799704
121	0xbd1bd59d	-0.038045514
122	0xbd2016a0	-0.039084077
123	0x3e22538f	0.15852188
124	0xbdd1434a	-0.102179125
125	0xbd95d0e2	-0.07315232
126	0xbd39097c	-0.04517506
127	0x3d882a4e	0.06648694
128	0x3e177677	0.14791285
129	0xbd873c00	-0.06603241
130	0x3dc38e5a	0.09548636
131	0x3d9faf32	0.07797088
132	0x3db9cdec	0.090724796
133	0xbdf8734c	-0.12131366
134	0x3d19f033	0.037582587
135	0x3df8a59d	0.12140963
136	0x3d00a818	0.031410307
137	0x3cd00268	0.025391772
138	0xbd327201	-0.043565754
139	0x3cd04b58	0.025426552
140	0xbd78925b	-0.06068645
141	0xbdd166d4	-0.10224691
142	0xbd66a3dc	-0.056308612
143	0x3e0f74c7	0.14009391
144	0xbd43725b	-0.04771648
145	0x3d032f50	0.032027543
146	0xbdcb0b73	-0.09914293
147	0xbcf8b408	-0.030359283
148	0x3caa99d9	0.020825313
149	0xbcee74d8	-0.02910845
150	0x3c30f62e	0.010800881
151	0x3a8c5500	0.0010706484
152	0xbd4ae89a	-0.049538232
153	0xbd3b1a20	-0.04567921
154	0xbd8e4ac2	-0.06947853
155	0xbd995070	-0.07486045
156	0xbe036224	-0.12830406
157	0x3cdf5729	0.02726324
158	0x3d53b8a2	0.05168975
159	0xbd132524	-0.035924092
160	0x3c3b33e0	0.011425942
161	0xbdecdfd1	-0.11566127
162	0xbd62ef53	-0.05540402
163	0xbc8d1fc5	-0.017227063
164	0x3df934ee	0.12168299
165	0xbdc83caa	-0.09777196
166	0x3dda7562	0.1066692
167	0x3dc0e68a	0.09418972
168	0xbc0097b0	-0.007848665
169	0x3d1772b3	0.03697462
170	0xbd781c88	-0.060574085
171	0xbdec8754	-0.11549249
172	0xbdcf54c5	-0.101235904
173	0x3c3271a9	0.0108913565
174	0x3df83e3a	0.12121244
175	0xbdf259a8	-0.11833507
176	0xbc755060	-0.014972776
177	0x3dba1063	0.09085157
178	0x3d077cac	0.03307788
179	0x3dd8d722	0.10587908
180	0xbb6e23d9	-0.0036337285
181	0x3e16caac	0.1472575
182	0x3dd4c475	0.10389034
183	0x3d357378	0.044299573
184	0x3d20f125	0.039292473
185	0x3daf9856	0.08573978
186	0x3d5009c4	0.050790563
187	0xbd0011ba	-0.031266905
188	0xbc5867b0	-0.013208315
189	0x3dd87aea	0.10570319
190	0x3da5fd70	0.0810498
191	0x3d80d51a	0.06290646
192	0x3db19a87	0.08672052
193	0x3db1c854	0.08680788
194	0x3db47c30	0.088127494
195	0x3cba3736	0.022731405
196	0xbdec8710	-0.11549199
197	0x3dc7bda2	0.097529665
198	0x3e23daf8	0.16001499
199	0x3e080a13	0.13285093
200	0xbde79ed8	-0.11309594
201	0x3d54a320	0.05191338
202	0x3e08c246	0.1335536
203	0x3dfb2eda	0.122647956
204	0x3df026db	0.11726161
205	0xbcec8c3e	-0.028875466
206	0x3c4bc04c	0.012435984
207	0xbc9a144c	-0.018808506
208	0xbd07ba1d	-0.033136476
209	0xbd3bb56f	-0.045827325
210	0x3dcc2f35	0.099699415
211	0x3c39dbf0	0.011343941
212	0x3d546397	0.05185279
213	0x3d41deb4	0.047331527
214	0x3e3461d8	0.1761545
215	0xbde87550	-0.113505006
216	0xbc808fb8	-0.01569353
217	0xbddfc158	-0.10925549
218	0xbd2e1170	-0.0424971
219	0xbad08a80	-0.0015910417
220	0x3ccac072	0.024749968
221	0x3dab1f16	0.083555385
222	0xbd907353	-0.07053246
223	0x3dd03204	0.1016579
224	0xbc0e3650	-0.008679941
225	0x3c509988	0.012731917
226	0x3d9c7c0f	0.0764085
227	0x3d97f9d4	0.07420698
228	0xbdaaaf5a	-0.08334227
229	0x3d4766dc	0.04868208
230	0xbdafd37a	-0.08585258
231	0xbda80a06	-0.08205037
232	0x3db05500	0.086099625
233	0x3ded86db	0.11597987
234	0x3d569234	0.052385524
235	0xbbab1b63	-0.0052217706
236	0x3de5b48f	0.112160794
237	0x3cf1bbdc	0.029508524
238	0x3def0bca	0.116721705
239	0xbdf81e7e	-0.12115191
240	0x3dec7fcc	0.11547813
241	0xbdf1674e	-0.11787282
242	0x3d0f7750	0.035025895
243	0x3d0c6fc5	0.03428628
244	0x3dc3b158	0.0955531
245	0x3dd76287	0.105168395
246	0x3dc4b396	0.09604566
247	0x3daf8a7c	0.08571336
248	0x3d4c5036	0.049881183
249	0xbdba1d16	-0.09087579
250	0x3c8b071c	0.016971163
251	0xbd40b783	-0.04705001
252	0xbdcf2436	-0.101143286
253	0x3d8085ee	0.06275545
254	0x3db65827	0.089035325
255	0xbd78c278	-0.060732335

actor.0.bias f4 [32]
0	0xbda5d615	-0.080974735
1	0xbde944b9	-0.11390061
2	0x3bfd139d	0.0077232854
3	0x3da2358e	0.07920371
4	0xbc3e70ff	-0.01162362
5	0x3cc8d368	0.024514869
6	0xbdadba4f	-0.08482801
7	0xbd91ff0a	-0.07128723
8	0x3e1f9b78	0.1558665
9	0x3dcd188f	0.1001445
10	0x3de68e36	0.11257593
11	0x3d816137	0.063173704
12	0xbd9e31b4	-0.07724324
13	0xbc180590	-0.00927867
14	0xbc5226e0	-0.012826651
15	0x3dfd4f94	0.12368694
16	0xbce44d38	-0.027868852
17	0xbda4e012	-0.080505505
18	0xbcebd198	-0.028786466
19	0xbd1ef674	-0.038809255
20	0x3b611fec	0.0034351302
21	0xbdae2102	-0.085023895
22	0x3cee7366	0.02910776
23	0xbd38bbc4	-0.045100942
24	0xbd76f45c	-0.060291633
25	0x3da71812	0.08158888
26	0x3d4fcf04	0.050734535
27	0xbc02b7a9	-0.007978358
28	0x3d577f7e	0.05261182
29	0xbd52ea13	-0.05149276
30	0x3dd7e939	0.105425306
31	0x3deea7e7	0.116531186

actor.2.weight f4 [7, 32]
0	0xbc7e48bb	-0.01552027
1	0x3d6f90c7	0.05848768
2	0xbc0dfa84	-0.008665685
3	0xbda4404e	-0.08020078
4	0xbd0dcd51	-0.034619633
5	0xbd4e1c98	-0.050320238
6	0xbdfb7770	-0.1227864
7	0x3cefa254	0.029252209
8	0x3e3b024d	0.18262596
9	0x3daf3773	0.08555498
10	0xbcb8bb79	-0.022550331
11	0x3d4cf42a	0.05003754
12	0x3e2e6aba	0.170329
13	0xbe273525	-0.16328867
14	0x3da662f4	0.081243426
15	0x3e70e739	0.23525704
16	0x3ccdad34	0.025107004
17	0x3d40f73c	0.04711078
18	0xbdc80800	-0.09767151
19	0xbe2638c3	-0.1623259
20	0xbcc52b28	-0.02406843
21	0xbdf132aa	-0.117772415
22	0xbda136dc	-0.07871792
23	0xbe0bd6f0	-0.13656211
24	0x3c572dea	0.013133505
25	0xbcc61f43	-0.024184829
26	0xbc94c77f	-0.018161533
27	0xbde62445	-0.112373866
28	0x3dd9dc08	0.10637671
29	0x3e159c8a	0.14610496
30	0x3cd3d0b7	0.025856359
31	0x3de1ec0a	0.11031349
32	0x3e62a9f6	0.22135147
33	0xbe01040b	-0.12599199
34	0x3dccc904	0.09999278
35	0x3e1a936d	0.15095301
36	0xbd6c7101	-0.057724956
37	0x3d92cad3	0.07167592
38	0xbdc66ea9	-0.096890755
39	0xbda06750	-0.07832205
40	0x3b114cca	0.0022171014
41	0x3e6f6756	0.23379263
42	0x3d3b6c38	0.045757502
43	0x3de30922	0.11085726
44	0x3daef8df	0.08543562
45	0x3a4fe957	0.00079311937
46	0x3e0436b6	0.12911496
47	0x3e052308	0.13001645
48	0x3d148861	0.036262874
49	0x3e341b59	0.17588557
50	0x3dddc15c	0.10827896
51	0xbd5b924e	-0.053606324
52	0x3c0596ac	0.008153599
53	0x3d1dfc14	0.03857048
54	0x3cbe8b3a	0.023259748
55	0x3dd9f6e9	0.106427975
56	0x3e1fa3d1	0.15589835
57	0x3a1408cf	0.00056470645
58	0x3d8379e9	0.06419737
59	0x3df5b095	0.11996571
60	0x3e4cd724	0.20003945
61	0xbdc01fd6	-0.09381072
62	0xbd607bce	-0.05480557
63	0x3e4714b7	0.19441496
64	0x3e517e32	0.20458296
65	0x3dedb8c6	0.11607508
66	0xbd5c45fe	-0.053777687
67	0x3e4cbf02	0.19994739
68	0x3e0e6e5d	0.13909288
69	0xbce441fa	-0.027863491
70	0xbd7c0486	-0.06152775
71	0xbd142415	-0.036167223
72	0x3e58c063	0.2116714
73	0x3d87f1f7	0.06637948
74	0x3d40f697	0.047110166
75	0xbde5e5b2	-0.112254515
76	0xbe1ad5f1	-0.15120675
77	0x3ddd0f5b	0.107939444
78	0x3e312cf0	0.17302299
79	0x3e102252	0.14075592
80	0xbd695949	-0.056969915
81	0xbe0e1b46	-0.13877591
82	0x3d88ed10	0.06685841
83	0x3d9ca1f5	0.07648078
84	0x3e2bb47e	0.16768071
85	0x3cc929d6	0.024556082
86	0xbcf31e1b	-0.029677441
87	0xbd3606d2	-0.044440098
88	0x3d2e69e2	0.042581446
89	0xbc594c54	-0.013262827
90	0x3cbd6dec	0.023123704
91	0xbe0ef514	-0.13960677
92	0x3e29ba76	0.16575035
93	0x3e47351e	0.19453856
94	0xbd48417f	-0.048890587
95	0xbace102c	-0.0015721372
96	0x3dca60fd	0.0988178
97	0xbd718f13	-0.058974337
98	0xbb575da0	-0.0032862201
99	0x3d105c0c	0.035244033
100	0x3e16ed51	0.14738967
101	0x3c35ad98	0.011088751
102	0xbb2054f2	-0.0024464694
103	0xbd324d2e	-0.043530636
104	0xbb9cb70c	-0.004782563
105	0x3dcf047a	0.10108276
106	0x3e02fee2	0.12792543
107	0x3e3fa383	0.18714719
108	0xbdfae937	-0.122515135
109	0x3e299c99	0.16563644
110	0x3b8a61b2	0.004223072
111	0x3d99c4bd	0.07508228
112	0x3d39a47e	0.045322888
113	0xbda00ba4	-0.0781472
114	0xbd81e60f	-0.06342708
115	0x3dd3547c	0.103188485
116	0xbe1faf4c	-0.15594214
117	0x3cef9e4f	0.029250292
118	0x3e3632f8	0.1779288
119	0x3dc1abad	0.09456573
120	0xbd8a13cb	-0.067420565
121	0xbceb3280	-0.028710604
122	0x3d36fa53	0.04467232
123	0x3de68091	0.11254991
124	0x3e13c054	0.14428836
125	0x3e333b9e	0.17503211
126	0xbcd1b2aa	-0.025597889
127	0x3e4ee6ac	0.20205182
128	0x3e325c4c	0.17418021
129	0x3dabc141	0.0838647
130	0x3e5a70fb	0.21332161
131	0x3dc28db2	0.094996825
132	0x3d07c07d	0.033142556
133	0xbdc23e03	-0.09484484
134	0x3e32759e	0.1742768
135	0xbcf07156	-0.029350918
136	0xbc913784	-0.017726667
137	0xbce6799c	-0.02813416
138	0x3d8b6c44	0.068077594
139	0x3e252b02	0.16129687
140	0x3d77b16d	0.06047194
141	0xbd38270d	-0.044959117
142	0xbe1553a4	-0.14582688
143	0x3d9e0b44	0.077169925
144	0x3e21ba5e	0.1579375
145	0xbe0db38f	-0.13838027
146	0xbda1936d	-0.07889447
147	0xbe0b5e15	-0.13610108
148	0x3cb2a868	0.021808818
149	0xbe3272ba	-0.17426577
150	0xbe109b32	-0.14121702
151	0xbdf420e4	-0.11920336
152	0xbd79608f	-0.0608831
153	0xbd253ef3	-0.040343236
154	0x3e28b386	0.16474733
155	0x3dd7fad6	0.1054589
156	0xbd521646	-0.051290773
157	0x3e4906d1	0.19631507
158	0x3d845856	0.06462161
159	0xbd986593	-0.07441249
160	0x3e2c0ec1	0.16802503
161	0xbe02eaca	-0.12784877
162	0x3cda9906	0.026684295
163	0x3d86662f	0.06562459
164	0xbd959914	-0.07304588
165	0xbe0e6124	-0.13904244
166	0x3dc0558a	0.09391315
167	0xbd11668b	-0.035498183
168	0x3d418f63	0.047255885
169	0xbd06ed23	-0.032940995
170	0x3dfa048c	0.122078985
171	0x3e64072f	0.22268365
172	0x3d2f8815	0.042854387
173	0x3db23507	0.087015204
174	0x3e1d6119	0.15369071
175	0x3db20e84	0.08694175
176	0xbda90ff3	-0.08254995
177	0x3cbe5ba9	0.023237066
178	0xbd5b0887	-0.05347493
179	0xbd669880	-0.05629778
180	0xbdf5e433	-0.12006416
181	0x3e2f8dc9	0.1714393
182	0xbca4c3eb	-0.020112952
183	0x3d812483	0.06305792
184	0x3d7d2491	0.06180245
185	0x3ccc2a5e	0.024922546
186	0x3dce9019	0.10086078
187	0xbc458926	-0.0120566245
188	0xbd38ef99	-0.045150373
189	0xbc4c3f06	-0.012466198
190	0xbe2cf14b	-0.16888921
191	0x3e3f2057	0.1866468
192	0xbda94b60	-0.0826633
193	0xbd837f99	-0.06420822
194	0xbd8b051b	-0.06788083
195	0x3e42a34e	0.19007608
196	0x3ca7904c	0.020454548
197	0xbca2f9f3	-0.019894576
198	0xbcb667d1	-0.0222663
199	0xbd92f212	-0.071750775
200	0x3e4618de	0.19345424
201	0x3e60aa7e	0.21940038
202	0x3e1fb114	0.15594894
203	0xbdb2ad08	-0.08724409
204	0x3e04acc6	0.12956533
205	0x3e17d325	0.14826639
206	0x3e0a7ce4	0.13524204
207	0x3e0048c2	0.12527755
208	0xbdd09783	-0.101851486
209	0xbdfcb41d	-0.123390414
210	0x3de3541a	0.111000255
211	0x3e288b92	0.16459492
212	0xbd5a1fb6	-0.0532529
213	0x3e0c3fe9	0.13696255
214	0x3c949eaf	0.018142072
215	0xbe20987e	-0.15683171
216	0xbe074c98	-0.13212812
217	0xbe0ebc04	-0.1393891
218	0x3d9e252e	0.07721935
219	0xbdc8fb1d	-0.09813521
220	0x3da06b36	0.07832949
221	0x3e29a864	0.16568142
222	0x3d5518fa	0.052025773
223	0xbbaf58d3	-0.005351165

actor.2.bias f4 [7]
0	0x3b8c42e4	0.004280435
1	0xbd7dfdfb	-0.062009793
2	0x3e1fad4f	0.15593456
3	0xbd7a87d7	-0.061164703
4	0xbc7bf1ed	-0.015377504
5	0x3d1e87a2	0.03870357
6	0x3e1617e4	0.14657551

critic.0.weight f4 [32, 64]
0	0x3dcc83c2	0.09986068
1	0x3c1b9500	0.009495974
2	0xbde3bfa2	-0.111205354
3	0x3d387114	0.045029715
4	0xbcc89a50	-0.024487644
5	0x3d1f5c10	0.038906157
6	0x3d665f93	0.05624349
7	0x3d634e7e	0.055494778
8	0x3da761da	0.081729606
9	0x3dce3cc4	0.10070184
10	0x3e6d1e15	0.23156007
11	0x3caa8a78	0.02081798
12	0x3d881d6c	0.06646237
13	0x3d845b1a	0.06462689
14	0x3c257c80	0.010100484
15	0x3e76d5ea	0.24105039
16	0xbda29326	-0.079382226
17	0x3e6bba5a	0.23020306
18	0x3dcc9b6f	0.09990584
19	0xbcd9b808	-0.02657701
20	0xbb8e238e	-0.0043377345
21	0xbdfa1aee	-0.12212168
22	0x3d64ebe5	0.05588903
23	0xbd00d8b8	-0.03145668
24	0x3d0a23fd	0.033725727
25	0xbd248968	-0.040170103
26	0x3df8644c	0.12128505
27	0xbdd1cfc8	-0.10244709
28	0x3d427ffe	0.047485344
29	0x3cfefa88	0.031125322
30	0x3c92fec1	0.017943742
31	0xbdaa0a72	-0.083027735
32	0x3dbf7b0a	0.0934964
33	0x3da76508	0.08173567
34	0x3d8a516d	0.06753812
35	0x3e6d6a1b	0.23185007
36	0xbccb4e70	-0.024817675
37	0xbdffaeee	-0.12484537
38	0xbd947cec	-0.072503895
39	0x3ccd8b48	0.025090829
40	0xbccf6558	-0.02531688
41	0x3e60b7eb	0.21945159
42	0x3bbb1c80	0.0057101846
43	0xbd019f9c	-0.031646356
44	0x3cf47e90	0.029845506
45	0x3d89332a	0.06699212
46	0x3db140c0	0.08654928
47	0x3d5c8604	0.053838745
48	0xbdb55770	-0.08854568
49	0xbc902d9b	-0.017599871
50	0xbdcf1828	-0.10112029
51	0x3dbf107f	0.09329318
52	0x3e437886	0.19088945
53	0x3d874d25	0.06606511
54	0x3e2e1cbc	0.17003149
55	0xbde7fce5	-0.11327533
56	0x3da40b04	0.080099136
57	0x3dddbc1c	0.10826895
58	0x3d2debf4	0.04246135
59	0x3ca8525a	0.02054708
60	0xbd9ff7d6	-0.07810943
61	0xbdd1d8ea	-0.10246451
62	0x3cffdf78	0.031234488
63	0xbd4dadcc	-0.050214574
64	0x3d182678	0.03714606
65	0x3de3fe44	0.11132482
66	0xbd702b9c	-0.05863534
67	0x3da42b08	0.0801602
68	0x3d3a3584	0.045461193
69	0xbd984414	-0.0743486
70	0xbde2c95e	-0.11073564
71	0xbd544e94	-0.05183275
72	0x3d66bff0	0.05633539
73	0xbde3e3b0	-0.11127412
74	0xbc298600	-0.0103468895
75	0x3d51b7b0	0.05120057
76	0x3dea110e	0.11429034
77	0x3dc9ad36	0.098474905
78	0x3d855a80	0.06511402
79	0xbdc4c9bc	-0.0960879
80	0xbd885f2e	-0.06658779
81	0x3d111da0	0.035428643
82	0x3defd7e4	0.117111
83	0x3d74faac	0.05980937
84	0x3c95d760	0.018291175
85	0x3cedee90	0.02904442
86	0x3d20a83c	0.03922294
87	0x3d744fe8	0.059646517
88	0xbc909a58	-0.017651722
89	0x3defbe8e	0.11706267
90	0xbd219b5c	-0.039454803
91	0xbdcb4d70	-0.099268794
92	0x3c8aae98	0.016928956
93	0x3d8f3c44	0.06993917
94	0x3d99ab44	0.075033695
95	0x3d030758	0.031989425
96	0x3dd6ed02	0.104944244
97	0x3d927066	0.071503446
98	0x3d8f470a	0.069959715
99	0x3db1ceb8	0.086820066
100	0x3d9670e6	0.073457524
101	0x3c212090	0.009834424
102	0x3dbf268a	0.093335226
103	0x3df80b42	0.12111522
104	0xbc40a990	-0.011759177
105	0xbd37d648	-0.04488209
106	0x3d903b86	0.07042603
107	0x3c8c92a0	0.01715976
108	0x3d61ec38	0.055156916
109	0x3bce7fa0	0.006301835
110	0xbdcc237e	-0.09967707
111	0xbd891448	-0.066933215
112	0xbdfcf21e	-0.12350868
113	0xbd6883f8	-0.05676648
114	0x3dc3a1d2	0.09552349
115	0xbde898a6	-0.113572404
116	0x3d90c006	0.070678756
117	0xbdef540c	-0.116859525
118	0xbdc4bfea	-0.09606917
119	0x3b247b00	0.0025097728
120	0xbd63fa7c	-0.055658802
121	0x3c915da0	0.01774484
122	0xbd25a7b0	-0.040443122
123	0xbda8652e	-0.082224235
124	0xbd87145a	-0.06595679
125	0x3d0a5f0c	0.03378205
126	0x3d6d3fd8	0.057922214
127	0x3d9830b2	0.07431163
128	0x3e439d81	0.19103052
129	0xbd23acc0	-0.03995967
130	0xbdf5b5e2	-0.11997582
131	0x3ca10a70	0.019658297
132	0x3dd50eec	0.10403237
133	0xbdc69652	-0.0969664
134	0x3e02260f	0.1270983
135	0x3e754e76	0.23955712
136	0x3dac23be	0.08405255
137	0x3bdbf540	0.0067125857
138	0x3d0cb359	0.034350727
139	0xbda07a5c	-0.07835838
140	0x3e66ff99	0.2255844
141	0x3d3f7590	0.046742976
142	0xbcc90c60	-0.024542034
143	0x3dc3d077	0.09561246
144	0x3dd085f4	0.101817995
145	0x3de83fc6	0.11340289
146	0x3e64ebdb	0.22355597
147	0xbdf5dacc	-0.12004623
148	0x3d96e30b	0.07367524
149	0xbc91aee8	-0.017783597
150	0x3e17d7e5	0.14828451
151	0xbd46f340	-0.048571825
152	0x3c11045a	0.008851135
153	0xbcf48240	-0.029847264
154	0xbddc21fa	-0.10748668
155	0x3d7cef30	0.061751544
156	0xbc35fb22	-0.011107238
157	0xbd8b2712	-0.067945614
158	0xbc47c98a	-0.012194047
159	0x3cfbfe58	0.030760929
160	0x3d862d56	0.06551616
161	0xbde0060c	-0.10938653
162	0xbda52372	-0.08063401
163	0x3e7adf37	0.24499212
164	0xbde750a8	-0.11294681
165	0x3ccc23f0	0.02491948
166	0x3d0ecb34	0.03486176
167	0xbd2d9a10	-0.042383254
168	0xbcb1e6d0	-0.021716505
169	0x3d38c2cb	0.045107644
170	0xbdfcbb1c	-0.12340376
171	0x3d461124	0.04835619
172	0x3dd8288c	0.10554609
173	0x3de710f8	0.112825334
174	0x3daccd74	0.084376246
175	0xbcf4cb50	-0.029882103
176	0xbd3e1108	-0.04640296
177	0x3d76f889	0.060295615
178	0x3c95a5c8	0.018267527
179	0x3dc4b14c	0.09604129
180	0x3e3cd6df	0.18441342
181	0x3e0f183c	0.13974088
182	0x3e53c55d	0.20680757
183	0xbdb14b3a	-0.086569265
184	0x3d8ec004	0.06970218
185	0x3c8a63a0	0.016893208
186	0xbdde7ca6	-0.108636186
187	0x3e448780	0.19192314
188	0xbdd422bc	-0.103581876
189	0x3d4b7864	0.04967536
190	0xbd077fec	-0.03308098
191	0x3dcd361c	0.10020086
192	0xbe0b1227	-0.13581143
193	0xbda5f298	-0.08102912
194	0xbce422b8	-0.027848586
195	0x3d9be399	0.0761177
196	0x3db67508	0.08909041
197	0xbd74eec4	-0.059798017
198	0xbcb9e4a2	-0.022692028
199	0x3d96cb1b	0.07362958
200	0x3d8170ba	0.06320329
201	0x3d7e5f4c	0.0621026
202	0xbce97157	-0.028496427
203	0x3d9cc52a	0.076547936
204	0xbd7b7229	-0.06138817
205	0x3df5e69e	0.12006877
206	0x3d983281	0.07431508
207	0xbdcbb1d5	-0.09946028
208	0x3cf6173c	0.030040376
209	0xbde287e5	-0.11061076
210	0xbb88e187	-0.0041772756
211	0xbbe68e20	-0.0070359856
212	0x3d8efa9e	0.06981395
213	0x3df0fa48	0.11766487
214	0xbcb229e1	-0.021748485
215	0x3ded43ec	0.11585221
216	0xbc016303	-0.007897141
217	0xbd2beaf8	-0.04197213
218	0xbcd081cf	-0.025452523
219	0xbd0fcaac	-0.035105392
220	0xbe01c561	-0.1267295
221	0xbd1062bb	-0.035250407
222	0x3d832b60	0.064047575
223	0x3df66726	0.12031393
224	0xbd8f9a20	-0.07011819
225	0xbe05b953	-0.13058977
226	0x3d30cf53	0.04316647
227	0x3dc08c0c	0.09401712
228	0xbc433810	-0.011915222
229	0x3ca29430	0.019846052
230	0xbdb250d6	-0.087068245
231	0xbde6a742	-0.11262371
232	0x3dace230	0.08441579
233	0x3b0d3bd8	0.0021550562
234	0x3b053080	0.0020323098
235	0x3dd195d2	0.10233654
236	0xbdd2c0f1	-0.10290707
237	0x3df94dcd	0.121730424
238	0x3d95b1a8	0.07309276
239	0x3df20cf2	0.11818875
240	0x3da11dc8	0.078670084
241	0x3cbfb21f	0.023400364
242	0x3d8daa18	0.069172084
243	0x3dbda3e9	0.09259779
244	0x3bbe32f8	0.005804416
245	0xbb8fb806	-0.004385951
246	0x3da4b002	0.08041383
247	0x3df8a604	0.1214104
248	0x3c14bda8	0.009078421
249	0x3d43e157	0.047822323
250	0xbd018441	-0.031620268
251	0xbcba10a8	-0.02271302
252	0xbdb139fa	-0.08653636
253	0x3d7c9df0	0.06167406
254	0x3de9dcc8	0.11419064
255	0xbd659158	-0.056046814

critic.0.bias f4 [32]
0	0xbc9bcf4a	-0.019019742
1	0x3c9fe1a0	0.019516766
2	0xbc9ecbfe	-0.01938438
3	0xbb78e6f4	-0.0037979456
4	0xbda6c6ce	-0.08143388
5	0x3e6950aa	0.22784677
6	0x3e4f9d8a	0.2027494
7	0xbdcc5588	-0.09977251
8	0xbdd8927c	-0.10574815
9	0x3e1b4682	0.15163615
10	0xbd55fae8	-0.052241236
11	0x3d9ad72e	0.075605735
12	0x3e50200f	0.2032473
13	0x3dcd981f	0.100387804
14	0xbde2dfaa	-0.11077817
15	0x3c1ec9e0	0.009691685
16	0xbdb83c91	-0.08995927
17	0x3cde5ffd	0.02714538
18	0xbd994b4c	-0.07485065
19	0xbd28c344	-0.041201845
20	0x3e61203f	0.21984957
21	0x3e3d4168	0.18481982
22	0xbd85ea92	-0.06538881
23	0x3e1a3754	0.15060169
24	0x3d5a6549	0.05331925
25	0xbd9d7b30	-0.07689512
26	0x3e5abb5c	0.21360534
27	0x3dc75abd	0.09734104
28	0xbdf43546	-0.119242236
29	0x3d355c80	0.044277668
30	0x3e536434	0.20643693
31	0xbc592392	-0.0132531095

critic.2.weight f4 [1, 32]
0	0x3e136897	0.14395367
1	0xbe17aef5	-0.14812835
2	0x3e7b6473	0.24550037
3	0xbe055034	-0.13018876
4	0xbda896ad	-0.08231864
5	0x3e438e68	0.19097292
6	0x3e86b6fd	0.26311484
7	0xbc12173b	-0.008916671
8	0x3d65716a	0.056016363
9	0x3e895fc9	0.2683089
10	0x3ddc096b	0.10743984
11	0xbe1c727b	-0.15278046
12	0x3e376abc	0.1791181
13	0x3e2aa49a	0.16664353
14	0xbdfcedb9	-0.123500295
15	0xbd1f26fc	-0.038855538
16	0x3de23ac1	0.11046363
17	0xbc5319b8	-0.01288455
18	0x3d6206b4	0.055182174
19	0xbe04d008	-0.12969983
20	0x3e94a658	0.2903316
21	0x3e7d08d4	0.24710399
22	0xbd21d8b1	-0.039513294
23	0x3e2d3aa3	0.169169
24	0x3e791d59	0.24327601
25	0xbd90bea9	-0.070676155
26	0x3e93f4af	0.28897616
27	0x3ea3f3ff	0.32022092
28	0xbc9c6fa8	-0.01909621
29	0x3de917e9	0.113815136
30	0x3e6457f7	0.22299181
31	0xbe14b0d2	-0.14520577
