src/franka_h2/scripts/RL/pth/arm_ppo.pth (torch, 69554 bytes, 11 tensors)

shared_layer.0.weight f4 [128, 28]
00000000: 2257 d8bd 892a 54bd e8c7 b43d 381c cabd
00000010: b363 3cbd bf21 f43d 257e c13d 7ecf 613d
00000020: 7369 96bd b574 573d 7ab5 8bbd fa33 10bc
00000030: 8f6e febd d2be 033e 3432 2e3e f2b9 d53d
00000040: 321c 5f3d 94d3 50bc 6051 363e 789f 773d
00000050: fd5b c13d 6cd7 023d a082 30be a9a5 37be
00000060: 2fa9 bbbd 862b 1fbd 419c c6bd c544 13be
00000070: ba23 13bd 5cb7 b2bd ff06 183e 99b5 2cbe
00000080: 6ff1 a9bd a296 d23d 6133 253e ef2a 373c
00000090: 80b8 013e 0d58 8f3c 3cb3 8b3d e4c2 f0bd
000000a0: b256 31be c6d9 02be 9492 a43d d88d 5cbd
000000b0: 8e43 36be f4af d6bc 9491 223e 5836 28be
000000c0: 312c 233e e583 263d fa27 07be 052c ccbd
000000d0: 13ee 0a3e e047 e83d 268e b1bd bf24 72bd
000000e0: dbf2 ea3c fc87 afbd a4fb 3b3e 3461 803d
000000f0: 19c5 783d b8fc f7bd 7f6e f73b a16c 563d
00000100: f707 223e f651 f5bd 04d6 3d3e 6c4d 4cbd
00000110: 87b5 14bd 4a19 c23b d6b0 1bbe b0a7 48bd
00000120: b066 a33d cefe 06bd e1dd 54bd 9965 843d
00000130: b8b4 2e3e 301d fbbc 94df d2bd 9867 a63d
00000140: 0507 143e 22e1 12bc 4354 a5bd 0feb 36be
00000150: 4683 f93d adcc a0bc 4238 533d 4f42 b63d
00000160: 4606 d5bc 03ce 35be 8735 0dbe bedc 51bd
00000170: 5067 39be ba27 41be 3398 3dbe c23d 243e
00000180: 75ea bc3d 3493 343e 4741 203e 46f4 7d3d
00000190: 714c a13d 206f 163e 3921 a63c 0fbe dbbd
000001a0: dfe0 323e 7dbf fcbd aabd 99bd 357f a0bd
000001b0: 02ee 893c 49c5 b7bd d0b9 23be 0d8d 23be
000001c0: 8b29 0bbe 4974 04be 5d4a d13d 34bb 11be
000001d0: 9385 243e d106 e0bc ee0c 9b3c 81d0 a6bd
000001e0: 7365 eebd 0f1a fa3d 667d 843d 6d21 26be
000001f0: 8fde 27ba b2e8 3e3d 1bdc 58bd 425a 103e
00000200: 8501 8cbd 2358 df3d b85f a63d e44f c4bd
00000210: 5cca 05be a94a eabc 262f 9dbd 13c5 52bb
00000220: 5690 e03d f323 99bd 8ae4 e73d 142e 083e
00000230: 0b53 af3d 3f73 7b3d b2a0 08be 2e5d ba3d
00000240: 4600 e1bb 54ab 21be fd5b 3fbe 00c6 2e3e
00000250: 1601 bf3d f621 6ebd 3aad e13d 4fb1 973d
00000260: bd10 7c3d b4b7 09be 1e92 c03d fbd1 2dbe
00000270: 4fad 3cbe 0827 023e df98 2b3d 3c02 d1bd
00000280: 14d3 aa3d 1894 db3d 684f 393d 5752 6e3d
00000290: e09c 00be 028f 0f3e 7d5d cbbd 9578 c83c
000002a0: 413b 1cbe da2b 04bd fd32 223c a3cb 8cbb
000002b0: 0a98 e03d 2219 2abe d48c 4dbd 9a39 b13d
000002c0: 65fe 0cbe 18ac e9bd ef7a bb3d 9dbc 8fbd
000002d0: f84b ad3d 91bd 333e f3bf 0cbe 3e8b 253d
000002e0: ab10 57bd 6865 3d3e 769a 223e a097 e8bd
000002f0: 9df0 08be 8803 cb3c 2f35 83bc b9a2 00bc
00000300: f042 5ebd 7112 1f3e 64fa 5abd 5052 1e3e
00000310: 32ae d33d 2a53 38be d327 253e ac40 39be
00000320: f5e2 72bd f898 44bd 468d 3cbe 4b58 72bd
00000330: 8dbc 01be 2cc8 3d3e 612f 353e 46d6 7fbd
00000340: 4e47 34be 462d e2bc 89f9 0f3d 6cc8 003e
00000350: 2acf 2ebe 3348 aabd fae1 09be b187 1bbe
00000360: 0c77 c2bd ef6b bf3d 183f 323e 29a2 ee3c
00000370: 6475 083d 238f 883d 7ee4 7c3c 8e33 c43c
00000380: acb3 b33d d992 30bc 5da5 24be c515 fbbb
00000390: b437 eebd bfd2 023d 49e2 e3bd 78c4 bcbd
000003a0: 2abf 863c bf6c 25be fa94 563c 8a35 ab3d
000003b0: ea0a f13d c268 29be bf51 bcbb 10c9 a3bc
000003c0: aa48 e63d 5c55 2f3e 2324 33be ec9b 303c
000003d0: 5224 c6bd 9eb4 053e db37 babd 781d 28bd
000003e0: e734 41be ebd8 4bbd 2991 25be 79bc be3a
000003f0: f2fb 0bbe 8d1a 26be 2103 253e 019d 14be
-0.10563494 -0.051798377 0.088271916 -0.098686635 -0.045993518 0.11920499 0.09447888 0.05512952
-0.073443316 0.052601535 -0.06821723 -0.008801455 -0.12423431 0.12865761 0.17011338 0.10435857
0.05447025 -0.012745757 0.1780448 0.060454816 0.094413735 0.031943724 -0.1723733 -0.17934288
-0.091631286 -0.038859867 -0.09697772 -0.14381702 -0.035922743 -0.08726379 0.14846419 -0.16866149
-0.08298003 0.10282637 0.16132881 0.01117967 0.12668037 0.01749804 0.068212956 -0.117559224
-0.17318228 -0.12778386 0.0803577 -0.05384621 -0.17799208 -0.026206948 0.15875846 -0.1642698
0.15934826 0.04065313 -0.13198844 -0.099693336 0.1356738 0.11341834 -0.08669691 -0.059117075
0.028680256 -0.08570859 0.18357712 0.0626854 0.060734842 -0.12108749 0.007551014 0.05234969
0.15823351 -0.119785234 0.18538672 -0.049878523 -0.03630593 0.005923425 -0.15204176 -0.048988044
0.079785705 -0.032957844 -0.051969413 0.06464691 0.17061126 -0.030653566 -0.102965504 0.08125228
0.14455803 -0.008964809 -0.08072712 -0.17863105 0.121832415 -0.019628847 0.051567324 0.08899366
-0.026003968 -0.17754368 -0.1378995 -0.051235907 -0.18105817 -0.1886281 -0.1851509 0.16039184
0.09224407 0.17634279 0.15649901 0.062000535 0.07875908 0.14690828 0.020279514 -0.1072961
0.17468594 -0.12341211 -0.07506879 -0.07836763 0.016837124 -0.08973176 -0.1598885 -0.15971775
-0.13590066 -0.12934984 0.10219262 -0.14231569 0.1606658 -0.027347 0.018927064 -0.08145238
-0.11640444 0.122120015 0.0646923 -0.16223688 -0.0006403708 0.046608634 -0.052944284 0.1409693
-0.06836227 0.109054826 0.08123726 -0.095855504 -0.13065475 -0.028600054 -0.076750085 -0.0032160922
0.1096503 -0.0747756 0.11322887 0.13298827 0.08560761 0.061389204 -0.1334255 0.09099804
-0.0068664877 -0.15788013 -0.18687434 0.17067719 0.09326379 -0.058137856 0.110193685 0.07406866
0.0615394 -0.13448983 0.0940287 -0.16974632 -0.18425487 0.12710202 0.041893836 -0.10205504
0.08341041 0.10721606 0.045241743 0.058183994 -0.12559843 0.14019397 -0.09929941 0.02447156
-0.15256979 -0.032268383 0.009899852 -0.0042967363 0.10966499 -0.1661115 -0.050183132 0.08653565
-0.13768919 -0.114097774 0.09154307 -0.07018397 0.084617555 0.17552783 -0.13745098 0.040415995
-0.05250613 0.18495715 0.15879235 -0.11357045 -0.13373037 0.024781957 -0.01601657 -0.007851296
-0.054263055 0.15534379 -0.053461447 0.15461087 0.103359595 -0.18000475 0.16128473 -0.18091077
-0.059298474 -0.047997445 -0.18413267 -0.059166234 -0.12669583 0.18533391 0.17693855 -0.062460206
-0.17605326 -0.027609479 0.035150085 0.12576455 -0.17071214 -0.08314552 -0.1346511 -0.15188481
-0.09495363 0.093467586 0.17406881 0.029130058 0.033315077 0.06667926 0.015435336 0.023950364
0.08774504 -0.010777199 -0.16078706 -0.0076625072 -0.11631718 0.031939264 -0.11127145 -0.09217161
0.016448576 -0.16154765 0.013097042 0.08359821 0.1176966 -0.16543868 -0.0057470496 -0.019993335
0.11244328 0.17122406 -0.17494254 0.010779362 -0.09674896 0.13057181 -0.09092685 -0.04104373
-0.18867837 -0.049767416 -0.16168655 0.0014552019 -0.13670328 -0.16221066 0.16114475 -0.14513017

shared_layer.0.bias f4 [128]
00000000: d632 bcbd 699d 49bc 1114 c83d a68f 2b3e
00000010: 0c22 0e3e a5e8 1e3d 1871 4e3d 5b66 90bd
00000020: d81d 943d b8ef 0f3e ec77 cabc 44a2 dc3d
00000030: 9609 083e 7568 9e3d 79f8 0b3e a1c0 243e
00000040: dc5e da3d 15fc 2e3e e37b 25be 9ce4 6b3d
00000050: 084a 9f3d f5ac 7b3d 267e fe3d b5a0 06be
00000060: 7ec2 2dbe b984 ae3c 7616 a13d 57d2 2e3e
00000070: ab61 dcbd 56e3 f13d 331e 093d cb6f 15bd
00000080: 8942 7fbd 648d 8fbc 26d6 853c 3312 343e
00000090: db78 09be 2db7 2bbe 7d81 343d 4fe1 343e
000000a0: 5621 26be bdec 673c 45dc 38be 5945 313e
000000b0: a1f1 7b3d acbe e53d 18aa 1d3d 3c1d 683d
000000c0: 15d6 413d 6e5c 3b3e 521e d53d b3d9 ed3c
000000d0: 754c 0d3e 6f55 033e 9231 ae3d d565 03be
000000e0: 02a9 b2bc 8cc2 fbbd 9cca 8dbd 52fd 593d
000000f0: 84c9 d8bc 0595 863c 055f 99bd 00b6 b63d
00000100: 700e 3b3e 6386 a8bd 2c41 263e 35b3 fe3d
00000110: 6e2e 3b3e f66a 923d 3e31 3c3d 1d67 b2bd
00000120: ad81 2f3c 8485 3ebe 12bc 0f3d 12ed f93c
00000130: f7be b23d be9d bf3c 49f5 3d3e 2ed4 e63d
00000140: 3992 b7bd 6eb6 deba e02a ce3d d9d0 ba3d
00000150: 3dca 213e 449d 0cbd dc64 653d 30f1 2a3e
00000160: 311f 04be f880 633d 0bd5 02be 6de2 1abe
00000170: 2151 87bd 31ab 1abe 00f8 813d 46e8 f63c
00000180: 8be3 9e3c ea3e 893d eebc 8fbd 9c07 f0bd
00000190: 59af 1bbe be15 8abd 14be 1a3b c14c 3b3e
000001a0: aeef 22be 1361 043e 9658 063e fc7a 153e
000001b0: e992 e13d 063b 013e aaa6 393e 9964 e2bd
000001c0: 8135 b53d 2ab3 233e 99e1 36be 0ff7 b03c
000001d0: f07b b63d e8c1 a4bc 497a 683d 9582 15be
000001e0: 3466 3fbe 2a7a 1c3e ba5e babd 3384 3abe
000001f0: 1174 a1bc 30e8 b53d a788 36be 1bf7 adbd
-0.09189384 -0.012305596 0.09769452 0.16754016 0.13880175 0.038796086 0.050400823 -0.07050773
0.07232255 0.14056289 -0.024715386 0.10773137 0.13284907 0.07734767 0.13669004 0.16089107
0.10662624 0.17088349 -0.1616054 0.057591066 0.07777792 0.06144424 0.12426405 -0.13147242
-0.16968724 0.021303521 0.07865612 0.17072426 -0.10760816 0.11810939 0.033476066 -0.036483567
-0.062319312 -0.017523475 0.016337465 0.17585067 -0.13425009 -0.16769095 0.044068802 0.17664073
-0.16223654 0.014155564 -0.18052776 0.1731161 0.061509732 0.112180084 0.038492292 0.056668505
0.047323305 0.18296978 0.10406174 0.029034471 0.13798697 0.12825559 0.085055485 -0.12831815
-0.021809105 -0.12292966 -0.0692341 0.0532201 -0.026463278 0.01642848 -0.07488827 0.089214325
0.18267226 -0.08228757 0.16235799 0.12436525 0.1827943 0.071493074 0.0459454 -0.087110735
0.010712069 -0.1860562 0.035091467 0.030508552 0.0872783 0.023390647 0.185506 0.11270939
-0.08963437 -0.0016991624 0.100667715 0.09121866 0.15799804 -0.034329668 0.05600439 0.16693568
-0.12902524 0.055542916 -0.12776582 -0.15125437 -0.06607271 -0.15104367 0.0634613 0.030140053
0.01939561 0.06701453 -0.07018457 -0.117202014 -0.15203609 -0.06742428 0.002361183 0.18290998
-0.15911743 0.12927656 0.1311973 0.14597696 0.11014349 0.12620172 0.18129984 -0.11054344
0.08848096 0.15986314 -0.17859496 0.021602182 0.08910358 -0.020111993 0.056757245 -0.14600594
-0.18691331 0.15280977 -0.09100099 -0.18214492 -0.019708665 0.08882177 -0.17825566 -0.08494397

shared_layer.2.weight f4 [64, 128]
00000000: ccc8 5b3c 05bd 3b3d 1efd 0e3d 9033 76bd
00000010: afb1 0fbc 7ff8 99bc 3d61 39bd b76e 5d3d
00000020: 418f 893d c360 33bd 27ca 01bd 2227 8f3d
00000030: 243d 203d 1589 7ebd 64cc 9c3d 2ad1 83bd
00000040: 0143 92bc 38a1 b2bd f643 a73d 4fa4 753d
00000050: f202 403d 26f6 fb3c 0471 8f3d 0ef4 32bd
00000060: 0285 0ebd 20ab b8bb 37f4 94bc 854a 9e3c
00000070: 0342 bcbc 0059 c7bc 116f fbbc 6d1c 0dbd
00000080: 64f2 79bd d89e 553d 6a2f 903c 7fce ceb9
00000090: 4060 dc3b 58c9 a9bd 8e8f febc 3053 fe3c
000000a0: b3e3 b0bd 058a 20bc 25ec 0c3c b3d3 37bd
000000b0: cb3c d63b df2a 8bbd 2212 80bd e2b3 2abd
000000c0: a934 863d 7654 3ebd 4528 a83d ede4 133c
000000d0: 3fbd 2dbd 2ce8 8cbd 7ab4 ad3d cd80 313d
000000e0: a10d 3ebd 8a01 ac3d 3927 46bc e579 81bc
000000f0: a172 a63d 2e52 70bc 0bb5 613d da1d 553d
00000100: 8d39 a5bd b215 e43b 6971 fb3c 33f6 ad3d
00000110: 6129 763d 63f8 043c 3057 6dbd 4518 963b
00000120: c099 68bd 0ca3 af3d 454c 673d 1762 92bd
00000130: 74ae a53d 9edc b1bd 16da 39bd 2678 3a3d
00000140: 799c a1bd 4d62 6d3d ac84 4e3d bbb0 013d
00000150: 546f 783d 46f1 833c ebb0 b3bb 3106 b4bc
00000160: e629 efba 91b2 4c3d e217 e83c 60f1 2f3d
00000170: 33a4 913d 5ffb 083b 9f04 63bd d0d2 8a3c
00000180: 9761 0d3d 531c 90bb 8c25 1f3b 555f 0cbd
00000190: e4e2 1abd 5c60 6bbd 87c6 143d 64a4 2f3c
000001a0: b799 84bd 00f6 58bc 417b aabd 321c ca3c
000001b0: a4a1 003d 7423 683d 44ff e7bc 9c14 473d
000001c0: 3df7 473d 6ebd 85bd d261 a73d 6fe1 ad3c
000001d0: 79fe b13d 4e94 9e3c d4f8 7ebd 0581 a93d
000001e0: 4d86 b2bc d319 c7bc d7dc 28bc 2b92 cfbc
000001f0: 7564 b3bd a49f 1ebc a388 4abd 51ed 25ba
00000200: f2e3 923d 6e5f 843d fb07 083d b057 e6bc
00000210: 1da2 6abd 6ab7 833d 9719 abbd 4773 68ba
00000220: 45b8 3d3d 15d1 243d 63e1 92bd 885f f3bb
00000230: 2777 8dbd f148 44bd 51b9 09bd dd9f 63bd
00000240: f1cc 763d ac8f 97bd 8e6d 2d3d 1576 90bd
00000250: d014 b0bd 3dcd 82bc 55e9 833d 0664 ab3d
00000260: 4040 86bd a379 9a3d 0af6 6c3d 073b bc3c
00000270: 1e15 a0bd a902 853c 374d a73d 3d87 aebd
00000280: a078 a53d fcbe 313d f6fc a53d a17e 503d
00000290: 459b 56bd 0a5b a4bc 7678 1e3d 4635 293d
000002a0: c725 aa3d 32fb 12bd 8ac6 d33c 9013 83bd
000002b0: 5633 1d3d 5a1b 903d 0d7b a13b c8f9 cb3c
000002c0: e6e5 5d3d f51d 9a3d f88d b2bd e2c7 d43c
000002d0: 594a a9bd 02ab fdbb 0c3f ef3c 01fe 293c
000002e0: d4a0 8cbd 705b ecbc cc3c 903d 8df8 67bd
000002f0: 8d34 0ebd e431 d3bc 02a9 b73c c434 d3bc
00000300: 9862 e83c 5b45 963d ef88 84bd 1ce6 8dbb
00000310: f651 7cbd a55a 7cbc ee00 3d3d 7f51 a83b
00000320: 7cb8 57bd 1cd5 b23d 1baa 67bc d610 e8bc
00000330: bd27 10bd a97d e43c 5d4c 3abc 8c02 a23d
00000340: fc53 a5bc d329 5ebd a6bc a0bd 99dc 843d
00000350: cdd8 9f3c 6261 aa3d 07cc 5ebd 59d2 a0bd
00000360: d095 b23c 70b8 a13c 28d2 ed3b 7fb8 acbd
00000370: e98d 9ebd 20c6 95bd 4f27 97bd 1229 3d3d
00000380: 7b53 423c 2169 003c b3a8 263d 5814 7a3d
00000390: 1387 4bbc c508 9dbd ef14 aabd cdf9 843b
000003a0: 1821 83bd 2823 f03a ee7a 89bd 33ea 843c
000003b0: 2334 ae3d 6597 94bd 21c4 813d 6563 7cbd
000003c0: 5d26 3fbd 9019 683d ddcb 3abc c3af 223d
000003d0: 53a9 363c 9bcb 47bd 4ca3 6e3d 181b da3c
000003e0: 6d3a 78bd 0295 983d 198f 1a3d 50fe 073d
000003f0: e5e6 2e3d d735 52bd c880 a6bd 3f1c fb3c
0.013414573 0.04583456 0.03490936 -0.060107768 -0.00877039 -0.01879525 -0.04525875 0.054060664
0.06716777 -0.04379345 -0.031686928 0.06989886 0.03912081 -0.06214245 0.07656172 -0.06436379
-0.017854216 -0.08722156 0.081672594 0.05997115 0.04687781 0.030757021 0.07003978 -0.04368978
-0.034794815 -0.005635634 -0.018182857 0.019322643 -0.022980696 -0.02433443 -0.030692609 -0.034450937
-0.061022177 0.05215344 0.017600734 -0.00039445233 0.006725341 -0.082903564 -0.031074312 0.031045526
-0.0863718 -0.009798531 0.008601223 -0.044879626 0.006538009 -0.067952864 -0.062534586 -0.041675456
0.06553013 -0.046467267 0.08210806 0.009026748 -0.042416807 -0.06880221 0.08481689 0.043335725
-0.046399716 0.08398731 -0.012094312 -0.015805194 0.081273325 -0.014668031 0.055104297 0.05203042
-0.080676176 0.006960594 0.030693727 0.084942244 0.060098056 0.008115861 -0.057944477 0.00458053
-0.056787252 0.085760206 0.05646922 -0.071476154 0.08089915 -0.086846575 -0.045374 0.04552474
-0.07891173 0.057955075 0.050419495 0.031662684 0.060653046 0.01610626 -0.0054837367 -0.021975609
-0.001824674 0.04997498 0.0283317 0.042954803 0.07111397 0.0020901782 -0.05542433 0.016946226
0.034516897 -0.0043979078 0.0024283854 -0.034270603 -0.037814036 -0.057464942 0.036322143 0.010720346
-0.06474631 -0.013242245 -0.0832429 0.024671648 0.031404153 0.056674436 -0.028319962 0.04860364
0.04881977 -0.065302715 0.081729546 0.02122566 0.08691115 0.019357827 -0.06224902 0.08276562
-0.021792555 -0.024304306 -0.010306559 -0.025338253 -0.08759395 -0.009681616 -0.049446713 -0.00063296134
0.07172383 0.06463514 0.033210736 -0.028117985 -0.05728351 0.06431468 -0.0835449 -0.00088672753
0.04631831 0.04023846 -0.07171895 -0.0074271597 -0.06907492 -0.047921125 -0.033623997 -0.05557238
0.06025404 -0.0740045 0.042340808 -0.07053772 -0.0859772 -0.015967006 0.06440989 0.08368687
-0.065552235 0.075427316 0.05785183 0.022977365 -0.07816528 0.01623662 0.081690244 -0.085218884
0.08079648 0.043395028 0.08104889 0.050902013 -0.05239417 -0.020062942 0.0386891 0.04131057
0.08307987 -0.03588409 0.025851507 -0.064002156 0.038379036 0.07036467 0.004927999 0.024899378
0.054174326 0.07525245 -0.08718485 0.025974218 -0.08266134 -0.007741333 0.029204868 0.010375501
-0.06866613 -0.028852195 0.07042846 -0.05663352 -0.034718085 -0.025780626 0.022419456 -0.025781997
0.028367326 0.07337447 -0.064714305 -0.0043304097 -0.0616016 -0.015402471 0.046143465 0.005136668
-0.052666172 0.08732054 -0.014139677 -0.02832834 -0.035194147 0.02789195 -0.0113707455 0.07910642
-0.020181648 -0.054239105 -0.07848482 0.06487388 0.019512558 0.083193555 -0.054393794 -0.07852621
0.021799952 0.019741267 0.0072577186 -0.08433627 -0.07741911 -0.0731318 -0.073805444 0.046181746
0.011860724 0.007837565 0.040688228 0.061054558 -0.012422341 -0.07667688 -0.08304774 0.004058099
-0.064027965 0.0018321024 -0.067129 0.016224956 0.08506038 -0.07255439 0.06336237 -0.061618228
-0.046667445 0.056665003 -0.011401144 0.0397184 0.0111487685 -0.048778158 0.0582612 0.026624247
-0.060602594 0.07450296 0.037734125 0.033201516 0.042700667 -0.051320877 -0.08130032 0.030653117

shared_layer.2.bias f4 [64]
00000000: ef20 1e3c d14f d23b 1a31 adbd a4ba 513d
00000010: 7eb5 1a3d dc86 023b f6a6 77bd c0ac e4bc
00000020: 6cae eebc 7b59 a2bd 145a 57bd 0857 503d
00000030: c401 9e3d 3bec 26bc e558 7fbd 10a0 783d
00000040: b725 a1bc 626e 6ebc 1285 5f3c 693b 26bd
00000050: e574 26bd 52b7 dabc 0669 23bd f415 50bd
00000060: ebae b2bd b13a 28bc c64f 413d 1f6b 25bc
00000070: d0f8 9e3d 7077 69bd 49e7 a43d 4594 aebd
00000080: 1d72 963d 0e99 ddba 76d4 873c f716 5e3d
00000090: 6490 89bc 0d7f 1d3d 2947 7bbd e4dd 8b3d
000000a0: d1e9 a73c b2e8 aabd 46ec 803c 3e2c ebbc
000000b0: f340 2b3d 0683 1abd 2672 0e3d 3ce9 503d
000000c0: 3fda a03d f124 cf3c 3795 aebb ff99 a5bd
000000d0: 7ee5 a83d 020b 67bd 9ec6 16bd bc04 1d3d
000000e0: 50c4 e7bc 7ed3 ac3b d5b6 aabd b94e 913d
000000f0: 2ed7 833c d762 ec3c cdaa b73c fe3c 36bd
0.009651407 0.0064182063 -0.08456631 0.051203385 0.03777074 0.0019916808 -0.06046196 -0.027914405
-0.029135905 -0.07927223 -0.05257614 0.05086425 0.077151805 -0.010188158 -0.062340636 0.060699522
-0.019671304 -0.0145526845 0.013642566 -0.040584 -0.040638823 -0.026698742 -0.03989508 -0.050802186
-0.08724769 -0.010267899 0.04719522 -0.01009634 0.07762301 -0.05699867 0.08051927 -0.08524374
0.07345984 -0.0016906576 0.016580801 0.05422112 -0.016792484 0.038451243 -0.06134716 0.06829432
0.020497235 -0.08345164 0.015737664 -0.02870762 0.041809987 -0.03772261 0.03477683 0.05100368
0.07854127 0.02528617 -0.0053278464 -0.08086013 0.08246897 -0.056406982 -0.03681051 0.038334593
-0.028291851 0.0052742353 -0.08335654 0.07095093 0.016093817 0.028855724 0.022420311 -0.04449176

actor.0.weight f4 [32, 64]
00000000: da56 ba3d 8c5e 31bd 005e f9bd e8d0 e83c
00000010: 287d a6bd 7aa4 bf3d b875 f23c 34c5 793d
00000020: 9455 89bd 0818 c83c 8a5b a3bd 3017 e2bc
00000030: 00b2 aeb9 a45d 96bd 185e 2e3d a426 143d
00000040: 2078 d33d 50d3 473d 3009 df3c dee9 f5bd
00000050: 481a 813d d074 c93d a050 f73c a480 763d
00000060: 1cb6 ee3d 807e f0bc b029 d3bd 34a1 b03d
00000070: 5861 e43c c069 7a3b 003b 6c3d 786d fb3c
00000080: 5801 d8bd 10ec 77bc 24bb 3dbd 245c 563d
00000090: 6080 c0bb c077 4d3c c8b0 c33c fca0 14bd
000000a0: c06e 2c3c 78ed b73d c005 9bbd 0040 683d
000000b0: c8bd 9a3c 4474 4ebd 0ad6 f73d 10b1 a63c
000000c0: a854 ec3c 0a46 d83d d8d2 0cbd 6695 fd3d
000000d0: 56fb ce3d 7a93 fcbd 42ba e5bd 5254 c8bd
000000e0: b09f e4bc b814 dd3d 9cea 82bd d85d febc
000000f0: 54a2 6f3d 58d0 d5bc ce1d fbbd b44a c7bd
00000100: 58e0 ee3d 5ce0 98bd 30ce 03bc 28ec 8f3d
00000110: 4c89 c7bd e27f 893d 6cf4 33bd 4c0d c33d
00000120: 80c9 eb3a cca8 0e3d 38bd abbc 8445 9fbd
00000130: 6891 8e3c ceb8 a9bd fe81 f9bd 3831 983d
00000140: 2e21 f53d 7e85 bb3d 2c73 e7bd 0037 9c3c
00000150: 9007 5f3c f0c4 61bc e864 993d 100a 123c
00000160: bce9 26bd 90f7 52bd 76c9 de3d d092 d6bd
00000170: 1c31 40bd 804e 93bd 0096 29bb 5048 fb3d
00000180: 4c87 5fbd 809c ff3d 309f 313c 8026 833b
00000190: 54f0 653d c050 9e3b c0a7 493b 9eb8 debd
000001a0: ce48 c63d c863 c43d 38cf c8bc f292 ea3d
000001b0: 7c2c 793d 8c8e 6ebd 56bd a53d b8c0 24bd
000001c0: 806f 44bb 346c e9bd fe88 9a3d 5876 743d
000001d0: d84c 5f3d fec9 d13d 207b ad3b 54fa 98bd
000001e0: 58d8 853c 4453 36bd c0e1 7abd 5446 013d
000001f0: 6404 233d e873 09bd c6c5 f3bd 8026 2bbd
00000200: 8057 94ba 7826 6b3d d0a1 40bd 58f8 dc3c
00000210: d293 dd3d 22de 89bd 90cd 6a3c 00da 85ba
00000220: ac87 4b3d fc7d ef3d 721d ae3d 9090 35bc
00000230: 64f9 3a3d a6b3 ccbd 3444 2a3d 70ee 03bd
00000240: ce58 92bd 02f4 c9bd 007e fe3a 6400 a83d
00000250: bc7f 7d3d 98b3 d63c 78c5 363d 5a18 c1bd
00000260: 84c2 e0bd 4a3d a0bd d494 e13d 2041 40bc
00000270: 1015 053c 402b 8a3c 0018 343d 2c36 f9bd
00000280: 0093 8abc 481d 39bd 5ef3 a8bd a840 b03d
00000290: 08e4 8dbd becc 9c3d e070 a53b 647a 67bd
000002a0: 265f f1bd 2819 87bd a055 a4bd 3aa5 88bd
000002b0: e694 90bd b042 56bc 16c7 b7bd d02d 0d3c
000002c0: d833 a3bd 2e2d 983d e4cb 0dbd 9c38 0c3d
000002d0: 429b 8f3d ae32 ed3d f498 34bd 7889 92bc
000002e0: 7050 af3c 50d3 aebc e864 a6bc 80b1 d93a
000002f0: 2667 f3bd 88f5 9a3d a008 693d 3033 343d
00000300: 1cfb 09bd 647f 2bbd e8ee 5fbd 1c65 193d
00000310: f0b9 1b3c 3077 2f3c d0c3 ac3c a825 e9bc
00000320: 0003 993a 3096 81bd 3eea 82bd e287 993d
00000330: 363d edbd b4fa c8bd 0077 6d3b 609f f7bd
00000340: 40a6 5dbb 909a bd3c f26a ebbd 007a 703b
00000350: 6c3a 383d 3833 103d 9cf6 00bd 20ae a03c
00000360: e01b f83d d6ca e3bd 3843 203d 103f 533d
00000370: 84c5 bf3d 1650 f3bd e45a 023d 4499 4cbd
00000380: 00c6 1cbc 36ea 83bd cc53 df3d d898 9f3c
00000390: 545f e33d 90ec e8bd 70da 653c 746b efbd
000003a0: 582f adbd d4ec c93d ac9f f8bd 2052 db3b
000003b0: 7071 b1bd 0894 9e3c e0c5 e23c a04a 1bbd
000003c0: 2808 27bd 8c3f 93bd b4c6 963d f263 f43d
000003d0: 0ea3 b73d 588f 2dbd b09c c1bc 3a18 e83d
000003e0: 800e 36bb 56a7 a33d 4c17 9ebd 905a a8bd
000003f0: 96c6 cbbd 6c4f b0bd c879 313d 96b9 d9bd
0.09098597 -0.043303058 -0.12176132 0.028419927 -0.081293404 0.09357543 0.029597148 0.060979083
-0.06705776 0.024425521 -0.07976444 -0.027598947 -0.00033320487 -0.07342079 0.042570204 0.036169663
0.103256464 0.048785508 0.02722606 -0.12007497 0.06303841 0.09836733 0.030189812 0.060181275
0.11655828 -0.029357195 -0.10310686 0.08624497 0.027878448 0.0038210005 0.057673454 0.030691847
-0.10547131 -0.015131965 -0.04632105 0.052333966 -0.0058746785 0.012540758 0.023888007 -0.03628634
0.010524452 0.089808404 -0.07569456 0.05670166 0.018889323 -0.05040385 0.121013716 0.020348102
0.028848961 0.10560234 -0.034380764 0.12382011 0.10106532 -0.123328164 -0.112171665 -0.09781708
-0.027908176 0.107949674 -0.063924044 -0.031050608 0.058504418 -0.026100323 -0.12261544 -0.09731045
0.11663884 -0.07464668 -0.008044764 0.07027465 -0.09742984 0.06713845 -0.04393427 0.095240206
0.0017989129 0.034828946 -0.02096425 -0.07776931 0.01740332 -0.08287202 -0.12182997 0.07431263
0.11969219 0.09156321 -0.11301264 0.019069195 0.013612643 -0.013779864 0.074899495 0.008913532
-0.04075025 -0.051505625 0.108782694 -0.10477221 -0.046921834 -0.07192707 -0.002587676 0.12269652
-0.05457239 0.12481022 0.010841176 0.0040023923 0.056137398 0.0048314035 0.0030770153 -0.10875057
0.09681855 0.09589344 -0.024512872 0.11453809 0.06083344 -0.058241412 0.080927536 -0.040222853
-0.0029973686 -0.11397591 0.075456604 0.059683174 0.054516643 0.10243605 0.0052942187 -0.07469621
0.016338512 -0.044513002 -0.06125045 0.03156121 0.03979911 -0.033557802 -0.11902957 -0.041784763
-0.0011317581 0.057409734 -0.047029316 0.026973888 0.1081921 -0.067318216 0.0143312365 -0.0010212064
0.049689934 0.116939515 0.0850171 -0.01108183 0.045647994 -0.09995203 0.04156895 -0.032209814
-0.071458444 -0.09860994 0.0019416213 0.082031995 0.061889395 0.026208684 0.044621915 -0.09428473
-0.10974601 -0.0782419 0.11014715 -0.011734277 0.0081226975 0.016866326 0.0439682 -0.121685356
-0.016915798 -0.04519394 -0.082495436 0.08606082 -0.06928259 0.07656239 0.005048856 -0.056513205
-0.11785726 -0.06596595 -0.08024144 -0.066721395 -0.0705965 -0.013077423 -0.089735195 0.00861688
-0.07968873 0.07430492 -0.034618273 0.034233674 0.07012035 0.11581932 -0.04409118 -0.017887816
0.02140066 -0.021340996 -0.020311788 0.0016608685 -0.118849084 0.075663626 0.05689299 0.04399413
-0.033686742 -0.041869536 -0.054671198 0.03744994 0.00950478 0.010709569 0.021089464 -0.028460339
0.0011673868 -0.06327474 -0.063923344 0.07496621 -0.11583941 -0.09813443 0.003623426 -0.12090945
-0.0033821017 0.02314499 -0.114950076 0.0036693811 0.04497759 0.035205096 -0.031485185 0.01961428
0.12114692 -0.11122672 0.039126605 0.051573813 0.09363845 -0.118805096 0.03182496 -0.049950853
-0.009568691 -0.064411566 0.10904655 0.019482061 0.11102167 -0.11373246 0.01402913 -0.11690417
-0.08456296 0.098596245 -0.1213983 0.0066931397 -0.086642146 0.019357696 0.027682245 -0.037912965
-0.040779263 -0.07189855 0.07362118 0.119331256 0.08966647 -0.04237303 -0.023634285 0.11332746
-0.0027779639 0.07990901 -0.07719287 -0.082203984 -0.09949987 -0.086088985 0.04332903 -0.10631101

actor.0.bias f4 [32]
00000000: f8a6 b8bd f45b 1cbd 5433 b93d f253 cfbd
00000010: 4079 5dbc 54cd 0f3d 1020 4a3c dc97 703d
00000020: 185e c1bd b471 d93d d044 493c ca23 8cbd
00000030: 6035 d6bd 505b 563c 7c30 28bd b0e5 a5bd
00000040: 803d e83b 8e63 a1bd 3640 ccbd 0465 b4bd
00000050: 209b cfbb e6a5 c7bd 88b9 b83c 4020 dcbc
00000060: a69e aebd e0df b83d ee74 a4bd 0092 c7b9
00000070: ccdb 7bbd f840 8dbc 94da 74bd 1476 163d
-0.09016222 -0.03817363 0.09042993 -0.10123433 -0.013517678 0.035107926 0.012336746 0.058738574
-0.09441775 0.1061739 0.012284473 -0.06842764 -0.10459399 0.013083294 -0.041061863 -0.0810045
0.0070874095 -0.07880317 -0.09973185 -0.0880833 -0.006335631 -0.097484395 0.022549406 -0.026870847
-0.085263535 0.09027076 -0.08030115 -0.00038065016 -0.06148891 -0.017242894 -0.059778765 0.0367337

actor.2.weight f4 [7, 32]
00000000: b216 13be 5c64 303e 44c1 9f3d 7cb0 8cbd
00000010: aa33 bdbc 0536 153d 05ef b63c 3340 afbc
00000020: 32f3 cfbc ca58 93bc 3a1e b53c 98c0 f7bd
00000030: 97ea 66bd a85d 1b3e 84cf 8fbd 23ff 163e
00000040: 0447 e63d d59c 0d3c 0cd6 2fbe 8630 be3d
00000050: 239b e03d a17e 91bc 4920 97bc 2ba5 eb3d
00000060: e20a 6e3d 59e9 1a3e d5fe 1e3d 4e21 e9bd
00000070: f3ec 18be ef94 31bd b54b e93d 1c5f b6bd
00000080: e9d5 0dbd 8378 363d 3008 233e 1734 01be
00000090: 414c e8bd 98e4 24bd 0b9c 2ebe 841d f3bd
000000a0: a90d 233c d2c0 a83c cf3f 883d 24af 4a3d
000000b0: 42c0 1d3e f0f0 02be 2d31 d9bc 5722 ca3d
000000c0: eaed d33c 09ea 73bd 3229 12bd 0851 19be
000000d0: 1d2e 46bd 9435 86bd aa8b 9cbd 474c b3bd
000000e0: 89a5 fb3d 9694 21be e377 893d be1c e2bd
000000f0: 0836 5a3d 8c9b 34be e222 e93d c488 fbbd
00000100: 3b3a 88bd 696f 25be fbdf 863c a090 9c3c
00000110: e46f b93d 980d b4bc b5af fe3c 8e6a d6bd
00000120: 980d de3c 352c ccbd 5e7b 31bd 1d83 1ebe
00000130: 77ae 18be ab4e 033e 7cee e9bd cf3e eabd
00000140: 78e3 aa3d 830f 103e 0103 c23c e894 eb3d
00000150: 8fdf d6bd e7fd a53d 0f97 1b3c 931f 3eb8
00000160: f7ea fb3a 4c86 18be b29c b4bd 09fd 273e
00000170: 4b04 2a3e 639d 283e 8698 e8bd dfb8 403d
00000180: 08bf 28bd 6d87 20be 4921 8ebd 5749 b9bc
00000190: befd aebd d8ab 1f3e adc9 c93d 6395 1ebc
000001a0: 17d5 d93d c2ed 323d 65d5 9f3c 32d0 d3bd
000001b0: 8fce cbbd 20f4 adbc 7ca8 f13d 2c33 11be
000001c0: d91d 13be 1310 183e d387 e2bd b09d 9d3d
000001d0: 2fe3 563d d380 87bd 7dcd cfbd 44b6 c4bd
000001e0: 1f42 b63d a442 c2bc 4da2 033e 64b5 3e3c
000001f0: 1628 633d 8f5e 9dbd 3571 52bd 6080 bf3d
00000200: d1e4 acbd 92cd 0ebe e6ef e5bc fb5b 26bb
00000210: 2c21 19be f398 7ebc 7076 d9bd cc6d 143e
00000220: b612 643d b949 a73d 5f4c c73d 6d02 de3d
00000230: c1a4 8b3d f3fa 313e b66a 8e3d 7cb4 25bc
00000240: 6933 f8bd 303c a33d 07d0 113e 980f 2e3d
00000250: 6217 5abc 5b44 053e 5eed 24bd 09f0 8c3c
00000260: 0f24 f9bc 81a9 a9bb 6ff4 033d 8765 1d3d
00000270: 657a dd3d 8c6d a0bd c0a7 153b 6b86 023d
00000280: 8560 1b3e 2fa8 d6bd 444f d63d c257 093e
00000290: 1646 323a 2ccc cfbc b69a b7bc f18f 0b3d
000002a0: f0f3 813d 76ec 7839 0b1b d73d 8bc6 13be
000002b0: 091a 453d 9646 093e 9e6b b6bd ca6b 243e
000002c0: 1d84 3a3d 65a2 183e fc91 bb3c 4b04 40bd
000002d0: 7e41 15be ff64 e33d 5d3f 37bd ee35 03be
000002e0: 1c1f 4fbc aded 283c 0a73 67bd 9afc 33bd
000002f0: cbb1 80bd cda9 7f3a 9624 a3bd 4792 cfbd
00000300: b22e eb3c 42f8 003e 7bcb 933d 3b06 d9bd
00000310: 5fe1 17bd c050 773d 2a0e 74bd 2074 c93b
00000320: be1d 0f3d 0cef 633d 0c4a 30be 4457 5ebd
00000330: dc84 3fbd cc60 21be cdec 063e 0bbf 33be
00000340: 8b84 f73c 6a43 943d 8b58 e3bc 8d3a 10bc
00000350: 9421 00be 7de9 27be d772 953d aa82 6b3c
00000360: 9a30 22bb c4de e2bd 6226 9e3d 5864 283d
00000370: 0a16 27bc 3828 173d cd6d 023d 9028 2fbe
-0.14364126 0.17225784 0.07800534 -0.06869599 -0.023095924 0.03642847 0.02233077 -0.021392917
-0.02538452 -0.017986674 0.02210914 -0.12097281 -0.056376066 0.15172446 -0.07022002 0.14745764
0.11244014 0.008643349 -0.17171496 0.09286599 0.1096709 -0.017760577 -0.018448012 0.11506113
0.058115847 0.15128078 0.038817246 -0.113833055 -0.14934139 -0.043354925 0.11391393 -0.089048594
-0.03462783 0.044548523 0.15921092 -0.12617527 -0.11342669 -0.040257066 -0.17051713 -0.11870864
0.009951987 0.020599756 0.066527955 0.049483433 0.15405372 -0.12787223 -0.026512707 0.09869831
0.025870282 -0.059549365 -0.03568382 -0.14972317 -0.04838382 -0.06553188 -0.07643826 -0.08754783
0.12287433 -0.15779337 0.0671232 -0.110406384 0.053274184 -0.17637461 0.113836065 -0.12281945
-0.066517316 -0.16155781 0.016464224 0.019111931 0.090545446 -0.021979138 0.031089643 -0.104695424
0.027106091 -0.09969369 -0.043330543 -0.15479703 -0.14910303 0.12822978 -0.114224404 -0.11437761
0.083441675 0.14068417 0.023683073 0.11503011 -0.10491859 0.08105069 0.009496464 -4.5328936e-05
0.0019219805 -0.1489498 -0.0881895 0.16405119 0.166032 0.16466288 -0.113572165 0.047051307
-0.041197807 -0.15676661 -0.069399424 -0.022617979 -0.08544491 0.15592897 0.0985292 -0.009679171
0.10636347 0.043683775 0.019510934 -0.103424445 -0.09951507 -0.021234572 0.11799714 -0.14179677
-0.14366855 0.14849882 -0.11061063 0.07696092 0.052462753 -0.06616368 -0.10146616 -0.09605077
0.0889933 -0.023713417 0.12854882 0.011639927 0.05545815 -0.07684051 -0.051377494 0.093506575
-0.08442081 -0.13945606 -0.028068494 -0.0025384414 -0.1495406 -0.015539396 -0.10618293 0.14495009
0.055681907 0.08168358 0.097313635 0.108403064 0.06818534 0.17380886 0.06953947 -0.010113832
-0.12119181 0.07970464 0.14239512 0.04249534 -0.013311239 0.13014357 -0.040265433 0.017204301
-0.030412702 -0.005177677 0.032215532 0.038426902 0.108143605 -0.078333944 0.0022835582 0.031866472
0.15173538 -0.10481297 0.104643375 0.13412383 0.0006800605 -0.025365911 -0.02241264 0.03407282
0.063453555 0.00023739212 0.10503205 -0.14431207 0.048120532 0.13405833 -0.08907245 0.16056743
0.04553615 0.14905699 0.02289676 -0.046879094 -0.14575765 0.11103248 -0.044738162 -0.12813541
-0.012641694 0.010310573 -0.056506194 -0.04394207 -0.06283911 0.00097527803 -0.079659626 -0.10135322
0.02870879 0.12594703 0.07216545 -0.105968915 -0.037080165 0.060379744 -0.05958382 0.0061478764
0.034940474 0.055647895 -0.17215747 -0.05428244 -0.046757564 -0.15759581 0.1317627 -0.17553346
0.030214569 0.07239421 -0.027752182 -0.008803022 -0.12512809 -0.16397662 0.072972946 0.014374414
-0.0024748207 -0.110776454 0.07722165 0.04111132 -0.010198126 0.03690359 0.031842995 -0.17105317

actor.2.bias f4 [7]
00000000: 7ce6 c83c 6659 4fbd b053 923a d4fe 233d
00000010: 696a c33d 909f 2ebe 385a 3e3d
0.024523966 -0.050622366 0.0011163857 0.040037945 0.095417805 -0.17053056 0.046472758

critic.0.weight f4 [32, 64]
00000000: a078 9d3d 5842 dfbd 4893 e43d 903a 213d
00000010: 00f8 bdbc b07b 8cbc 6c37 1c3d d4be e93d
00000020: 8cd7 11bd 1465 43bd 6000 a9bc d4ba 53bd
00000030: 88c0 59bd 28fc 22bd 142a 5a3d 3ea4 bfbd
00000040: 80c1 babd ec6b a8bd b4d7 013d 5c0c be3d
00000050: f04a f13d 104a dbbd a07a 59bc c4ef 553d
00000060: 800e 1ebc 6835 0abd 7c64 c43d c04d 51bc
00000070: b01a e0bd f42b 69bd 4029 f13b 0e0e d13d
00000080: 4edf b83d 6ad3 8cbd b4f9 af3d e058 a2bd
00000090: 86c6 d33d 7245 de3d 5027 be3d 44ff 22bd
000000a0: da5c dcbd 9829 c6bd 98a6 113d 30a9 413d
000000b0: d63d 94bd c493 9d3d 26ba db3d 66ec bb3d
000000c0: 70ce d9bc b08f 813c d035 953c 524c e1bd
000000d0: d8aa a13c a80e afbd e8d7 f6bd 0876 3e3d
000000e0: 5e71 fa3d d845 9a3d 7228 88bd ec0c 613d
000000f0: 5867 af3c f8f9 c1bd ecab ccbd 3056 823c
00000100: 50a1 a6bc e0e4 c63b 30bf c43c 0a09 eb3d
00000110: 6069 da3b d6fc bebd 8256 b6bd de6a eabd
00000120: 42f8 c9bd b693 d83d 3086 043d 4e0d b2bd
00000130: 9c69 c63d c011 93bb 9cb5 aebd eafa d63d
00000140: 5c74 763d ce80 c53d 28ea 4e3d a822 bfbd
00000150: 3e9e 8fbd 68b2 e93d 1026 433c cc7d 54bd
00000160: b4f1 86bd 7c93 10bd e4e4 73bd 783d 0b3d
00000170: 1ce9 4dbd 6886 a9bc 80c4 44bd d4ad 5cbd
00000180: ec2a ec3d 2084 cb3d 90fe 713c f095 cbbc
00000190: de88 e8bd 2452 1b3d a0c1 bcbb dc6c b4bd
000001a0: 24ad 2dbd 1403 26bd 1a0a ac3d e059 d1bb
000001b0: 1456 e4bd 8a83 fbbd 546b fabd 8263 f6bd
000001c0: 84f5 153d 6285 cb3d da85 c7bd c86e ec3c
000001d0: c8a4 60bd 7063 16bc e0fc ebbc 8036 67bc
000001e0: c8e2 4dbd 7849 d73d a8bf 89bc dca5 5dbd
000001f0: 1cb5 50bd d2bc b83d 186d 50bd 4ae8 9fbd
00000200: e880 92bd c06b c13c f0c7 2cbc ccff fc3d
00000210: c0b3 b43d e0bb a8bd 16db c03d c057 bdbd
00000220: 7077 323d 085f bebd 7867 a9bd fcad 9b3d
00000230: 581f 9fbd 461a e3bd 7a5c f43d a4e4 3b3d
00000240: b647 943d e2b4 a13d 4ee8 fd3d def0 96bd
00000250: b2fc d7bd c8ca 6c3d 2c23 ecbd 2270 d13d
00000260: 1043 93bc f87c c1bc 3c79 c83d 58e3 813d
00000270: d497 223d 2661 c63d 209d b03d d0c9 b03c
00000280: 6af7 a2bd 0022 abb9 92f3 ddbd d25d be3d
00000290: 4c6c 483d 3451 603d 4a25 a3bd 20df d93d
000002a0: 8064 72bc 44b6 913d 6412 3d3d 563b 9abd
000002b0: 18e3 7e3d b803 d43d e886 1a3d e82f 6dbd
000002c0: 1075 b7bd 602e 113d fe45 8d3d 6a57 a6bd
000002d0: ecef acbd 04bf d63d a8f6 76bd 1868 f53c
000002e0: 3ede b83d 0c2f 003d e467 edbd 004c 433a
000002f0: 0e49 c2bd da9b fcbd ee9e fbbd 1803 693d
00000300: c2a8 dfbd 7816 efbc 72e4 a03d d23f ba3d
00000310: a87e 9dbc 0017 5d3d 4452 15bd 402d 10bc
00000320: 84a3 1fbd 78b8 cebd 00c2 ba39 5c34 823d
00000330: 624c 82bd 2022 e6bd ecfe d43d d0c4 2dbd
00000340: faa9 f6bd fc9b b5bd 40e2 b8bc b0f4 acbc
00000350: 5496 c3bd c8e9 b83c 58cf c7bd 504d a5bc
00000360: 1a41 ca3d 60f1 ad3d ac47 423d 804e b5ba
00000370: 4080 93bb 6ae4 8abd 8e9d d53d 889e bc3c
00000380: d088 c33c d045 ab3c 2059 2cbd b49b ea3d
00000390: 80fa 55bd 8899 a5bd 7086 703d 4adc d63d
000003a0: c29e f3bd cac9 9fbd 6818 42bd 54bd aabd
000003b0: 404a b83d 2850 04bd 681a 97bc d44d 363d
000003c0: 602b 94bd 4cb3 543d 64c2 e73d 4c60 fabd
000003d0: ec85 89bd f848 afbd 40b1 193c d058 f2bd
000003e0: 703f 79bd a08b dc3b 56d9 a7bd 18ae 813d
000003f0: 52c5 d6bd d09a e4bd 0028 0e3c 0080 dc37
0.07689023 -0.10901326 0.11160904 0.03936249 -0.023189545 -0.017148823 0.038138792 0.11413351
-0.035605952 -0.047703817 -0.020630062 -0.051691845 -0.053162128 -0.039791256 0.053262785 -0.093574986
-0.091189384 -0.082237095 0.03169985 0.09279701 0.11781871 -0.10707486 -0.013273865 0.05223061
-0.009647012 -0.03374234 0.095894784 -0.012774885 -0.1094259 -0.056926683 0.0073596537 0.10207759
0.09026967 -0.068762615 0.08592549 -0.07927108 0.103406 0.108530894 0.09284842 -0.03979422
-0.107598975 -0.09675902 0.035559267 0.04728049 -0.07238357 0.076942 0.10728864 0.09175949
-0.026587695 0.015815586 0.018214136 -0.11000885 0.019734785 -0.08547717 -0.120528996 0.046499282
0.12228654 0.07532853 -0.06648339 0.054943964 0.021411583 -0.09471506 -0.09993729 0.015910238
-0.020340592 0.0060697645 0.024016947 0.114763334 0.0066653937 -0.093255684 -0.08903219 -0.114461645
-0.098618045 0.105750486 0.032354534 -0.08693944 0.09688112 -0.0044882 -0.08530733 0.10497077
0.060169563 0.09643708 0.050516278 -0.09332782 -0.07012604 0.114109814 0.01191093 -0.05187778
-0.0658907 -0.035296902 -0.05954446 0.033994168 -0.05027114 -0.020693973 -0.04803896 -0.053876713
0.11531624 0.0993731 0.014770165 -0.02485177 -0.1135423 0.037920132 -0.0057603866 -0.08809826
-0.042401448 -0.04053028 0.08400364 -0.0063888878 -0.111492306 -0.122809485 -0.122275025 -0.12030698
0.036611095 0.0993755 -0.09742327 0.028861418 -0.054844648 -0.009178981 -0.028807104 -0.014112115
-0.050265104 0.1051206 -0.016815022 -0.054113254 -0.05095397 0.090203896 -0.05088529 -0.078079775
-0.07153493 0.02361095 -0.010545716 0.12353477 0.08823347 -0.08238959 0.09416787 -0.092452526
0.043570936 -0.092954695 -0.08271688 0.07601544 -0.0776965 -0.11088996 0.11931701 0.045872346
0.0724024 0.07895829 0.12397824 -0.073701605 -0.10546245 0.057810575 -0.11530146 0.10226466
-0.017976314 -0.02361916 0.097887486 0.063421905 0.039695576 0.09686498 0.08623719 0.021580607
-0.07957347 -0.00032640994 -0.10837473 0.092952386 0.048931405 0.05476494 -0.07966097 0.10638261
-0.014794469 0.071148425 0.046160117 -0.07530849 0.062228292 0.10352272 0.037726313 -0.057907015
-0.08957875 0.035444617 0.068981156 -0.08122142 -0.08444199 0.10485652 -0.060293823 0.029956862
0.09026764 0.031294867 -0.11592081 0.00074499846 -0.0948659 -0.12334414 -0.12286173 0.056887716
-0.1092086 -0.029185519 0.078560725 0.09094204 -0.019225433 0.053977013 -0.036455408 -0.008799851
-0.0389743 -0.10093778 0.00035621226 0.06357643 -0.06362225 -0.112369776 0.10400185 -0.042424023
-0.12044139 -0.08867642 -0.022568822 -0.02111277 -0.09550157 0.022572413 -0.097563446 -0.020178467
0.098756984 0.08493304 0.047431633 -0.0013832599 -0.0045013726 -0.06781848 0.10430442 0.023024812
0.023868948 0.020907313 -0.042077184 0.11455479 -0.05224085 -0.080859244 0.05872196 0.104912356
-0.11895515 -0.0780216 -0.047386557 -0.08336893 0.08998537 -0.032303005 -0.018445209 0.044507816
-0.072348356 0.051928803 0.11316374 -0.122253984 -0.06714997 -0.085588396 0.009380639 -0.11833346
-0.060851514 0.006730512 -0.081957504 0.06332034 -0.104868546 -0.11162341 0.008676529 2.6285648e-05

critic.0.bias f4 [32]
00000000: 34cd 323d 0074 68bb 780f e43d 4c91 463d
00000010: f8e2 83bc 4039 9abc 1c37 b93d b8cf 07bd
00000020: 229e dcbd e00b 64bd 968c a23d e0be 273d
00000030: 221c 8f3d 722c c73d f8dc a23c 4002 38bd
00000040: 726a 8fbd d406 6f3d daf7 aa3d 7e45 aa3d
00000050: 78e5 903d 8000 a03a 9c76 ad3d c0d4 6bbc
00000060: 6097 1ebd 083a 05bd 800b 753d 801c 8e3d
00000070: 80c5 673d c083 0fbd 74f0 8ebd 9c47 b13d
0.04365273 -0.0035469532 0.11135763 0.04847841 -0.016099438 -0.018826127 0.090437144 -0.03315708
-0.10772349 -0.055675387 0.07936971 0.040953517 0.06987788 0.09725274 0.019880757 -0.04492402
-0.07002725 0.05835612 0.08348055 0.08314036 0.07075018 0.001220718 0.084698886 -0.014393985
-0.03871858 -0.032526046 0.05982542 0.0693903 0.056584835 -0.035037756 -0.069794565 0.086562365

critic.2.weight f4 [1, 32]
00000000: becc 103e b7fa f439 11fd bbbd 0d92 1d3e
00000010: 1774 173e 17c8 97bc dc57 f63d 6df3 0fbe
00000020: 6b98 2a3e 4ec5 24be 5c40 003d 3b81 663d
00000030: 7626 1f3e 9d91 efbd 7a76 bbbd dab4 893d
00000040: 8a03 803d c29b 25be 040d a43c cfbb 233d
00000050: fec1 fabd b780 20bd bb4a 333e 60f5 ec3d
00000060: 6a26 963d ace5 29be 6481 aabc e191 b6bd
00000070: 7517 f63c 3927 8f3b ac6d 34bd 88d7 2b3e
0.14140603 0.00046726104 -0.09179128 0.15387745 0.14790379 -0.018528027 0.120284766 -0.14057703
0.16659705 -0.16090891 0.031311378 0.056275588 0.15542015 -0.116976954 -0.09153457 0.06723948
0.06250675 -0.16172698 0.020025738 0.03997403 -0.12244032 -0.039185252 0.17508976 0.11570239
0.07331546 -0.16591519 -0.020813651 -0.08914543 0.030040482 0.0043686894 -0.044049904 0.16781437
