src/franka_h2/scripts/RL/pth/arm_ppo.pth (torch, 69554 bytes, 11 tensors)

shared_layer.0.weight f4 [128, 28]
00000000: 077b 363e 4b25 febc d006 263d 01d2 983d
00000010: f08c 33be b11c 6a3c 1f55 033e 9cf0 c33c
00000020: 8369 073e 353e 9b3a 1b7b 0ebe 47f3 aebc
00000030: cd32 e4bd 8227 c83c 7e00 1cbe becf 3e3e
00000040: 6439 45bd 03ae 82bb f767 14be 1841 d13b
00000050: b507 00be d0dc 3c3e 55c8 24be f87a c23d
00000060: 05c6 f6bc 5837 8c3d 9dd3 be3d 2bc5 6abc
00000070: f9e9 c6bc 4f98 63bd 4f54 1e3e f19f e63d
00000080: f0b6 25be d8ea c73b 7e5c ac3d 14fa 12bc
00000090: 9e2e 9fbc f566 0ebe 3d98 79bd 923a 0d3d
000000a0: 9ce2 043e 855d 9e3d dbb0 773d 612a 253e
000000b0: 813d edbc d68e e6bd ea6c 543d e758 2c3d
000000c0: e03e e83d cb48 503d 2525 033d 8aeb 113e
000000d0: caa6 df3d e09a 233e 0050 50bd 86af 313e
000000e0: 8a07 f5bd f820 e7bd cfbc 3abe 3cb4 f93c
000000f0: ac46 7fbd b735 24be 55ce d2bc afcf 6fbd
00000100: 801a 993d 57f7 0abc a2dd 253e a9a9 ecbd
00000110: 8b57 91bd 4be8 263e 7ee1 63bd 954b 5cbd
00000120: 8a7a 143e b3f0 913c 9d72 833d 6ddc ce3d
00000130: a59d 183e dffb 37be 6ec1 0dbd e943 0d3e
00000140: b473 a43d 7181 6a3d 33c5 00be 01a8 acbd
00000150: aef5 063e 85f2 053e 8595 d03d a632 17be
00000160: 2948 213e 74fb d33d d85e a4bd 7c81 153e
00000170: be33 253d cdfe 303e 9289 60bd a315 bc3d
00000180: f1a1 153e 89cf 1c3e 61f5 1c3e 2174 c2bd
00000190: b342 373e fc0a c73d cd26 debc e999 9b3d
000001a0: da2d a6bd 107b 503d 7cb5 213e 5432 3d3d
000001b0: a6c7 353e 2863 33bd 6478 b53d b7fb 5dbc
000001c0: ae23 a1bd b012 113e 3a4d 35be 6eb6 5f3d
000001d0: 36c2 17bb b4c2 1f3e a861 a8bd b80c 0bbd
000001e0: 7c30 c4bb 68ea 05be 70ab 05be 51c6 29be
000001f0: dc4b 893b db5e 913c 0ad5 063c c8e1 8f3d
00000200: 9478 8a3d f9b4 25be 1eaa 143d 373c cfbd
00000210: 587b 813d 9f17 21be 211e c13d fc28 d03d
00000220: deb4 d1bd b6c6 0e3e f245 a33d 5470 e6bd
00000230: 074b 0c3e af8f 1e3e 873b bb3d 418d d73d
00000240: 3f27 103d 096d 253e 6e48 f33d 25e3 593c
00000250: 902f 91bd c7fa a53d dcdc 2ebd 9d8c aabc
00000260: 685e a03c db91 b2bc cd41 633d 7862 343c
00000270: 69e8 0abd 154e 23be aee1 b3bd c533 5ebd
00000280: d495 0fbe e66b e5bb e25c c0bd 413b aa3d
00000290: ee24 9b3d 84b5 a83d f9be 2fbe d35c 13bc
000002a0: f945 1cbe 2218 683d 35a8 e1bd 4e17 c83d
000002b0: 9362 15be a491 06bd 4968 723d e8f3 ce3d
000002c0: f681 afbd cc06 213e a46a 0bbd 8b1c 04bd
000002d0: e0a1 e0bc 058f 00be 35f6 9a3c 0f15 343e
000002e0: 57de 083e 3a36 743d c9ea 123e 9c4d 8ebd
000002f0: b149 b8bd a0f4 a93c f210 a13d 553c dd3d
00000300: 4ee1 583d 9376 ad3c 19e9 acbd f800 e53d
00000310: 19fe 4c3b cd80 123d c822 92bc 51c1 49bd
00000320: 6fe2 bcbd f6db b3bc a55b ae3d ffda 5ebd
00000330: 939e 0d3e 0b64 bdbd 5444 b03d 2ab9 9a3a
00000340: e644 d9bd 289d 303e 0774 373e 7766 4b3c
00000350: c940 293d e28c 9c3d 634e 803c 8979 9ebd
00000360: 7dc3 483d e179 b4bd d76c 0bbe f960 c5bd
00000370: 5fe4 0fbd e882 c8bd ff1b f9bd c85e 09bd
00000380: 6cd9 ae3d 8b94 fc3d 01dc 1b3e abfc be3d
00000390: 90fc a93d 2e66 53bd d8d4 f03d 7fc8 05bc
000003a0: 7d86 113e 0556 363d c397 88bc 4d81 f83d
000003b0: c777 963d f3e7 293e 1143 c53d 2f7f 96bd
000003c0: 817c d13d bfc6 0e3e 0b96 79bd 87c7 223e
000003d0: 9dbf 233e c2a9 fcbd 2e8a 15be 1206 a3bd
000003e0: baff b03d bd1c 073e e35d bcbc 0e23 3f3e
000003f0: 8eee d4bd 6219 debb 1208 67bc 433d 173e
0.17820369 -0.031023642 0.04053384 0.0746193 -0.17534232 0.014289067 0.1282544 0.023918442
0.13223843 0.0011844101 -0.13914149 -0.021356238 -0.11142502 0.024432901 -0.15234563 0.18633935
-0.048150435 -0.003988029 -0.14492784 0.0063859336 -0.1250294 0.18443608 -0.16092046 0.09496111
-0.03012372 0.068464935 0.09317706 -0.014329235 -0.024281489 -0.055565175 0.15461849 0.11260975
-0.16183066 0.0061009936 0.08416079 -0.008970756 -0.019431408 -0.13906462 -0.0609362 0.034479685
0.1297707 0.07732681 0.060471397 0.16129448 -0.028959991 -0.112577125 0.05186168 0.04207697
0.113401175 0.05085067 0.032017846 0.14250007 0.10920484 0.15977049 -0.050857544 0.17352113
-0.119643286 -0.11285585 -0.18236087 0.03048145 -0.062323257 -0.16036116 -0.025733152 -0.058547672
0.074757576 -0.008481822 0.16197827 -0.115557976 -0.070967756 0.1629955 -0.055634968 -0.05378302
0.1449987 0.01781497 0.06418345 0.10100637 0.14903887 -0.17967175 -0.034608297 0.13795437
0.08029881 0.05725235 -0.12575226 -0.08430482 0.13179657 0.13080795 0.101847686 -0.14765415
0.15750183 0.10350695 -0.080259025 0.14600176 0.04033255 0.17284699 -0.054818697 0.091838144
0.14612557 0.15313543 0.1532798 -0.09494806 0.17896537 0.09718892 -0.027118111 0.075977154
-0.08114214 0.05089861 0.15791887 0.046190575 0.17751941 -0.043795735 0.08860853 -0.013548783
-0.078681335 0.14167285 -0.17705241 0.054617338 -0.002315653 0.15601617 -0.082217515 -0.033947676
-0.005987225 -0.130777 -0.1305368 -0.16579558 0.0041899513 0.017745426 0.008229503 0.07025486
0.0676128 -0.16182317 0.03629505 -0.10118907 0.06322354 -0.15731667 0.09429575 0.10164067
-0.10239576 0.1394299 0.079723254 -0.11251894 0.13700496 0.15484498 0.09142213 0.10524989
0.035193678 0.16154875 0.11879049 0.013298784 -0.0708915 0.081044726 -0.042691097 -0.020819003
0.019576266 -0.021798065 0.055482674 0.011009805 -0.03391305 -0.15947755 -0.08783279 -0.05424859
-0.14021999 -0.007001388 -0.09392716 0.08312083 0.07575403 0.08237746 -0.17162694 -0.008994299
-0.15261067 0.05666364 -0.11018411 0.0977007 -0.14588384 -0.032853737 0.059181485 0.10105115
-0.0856971 0.15725249 -0.034037247 -0.032253783 -0.027420938 -0.12554558 0.018916229 0.17586158
0.13366066 0.059622027 0.14347376 -0.069483966 -0.089984305 0.02074653 0.0786456 0.10802523
0.052949242 0.021174705 -0.08442897 0.111818254 0.0031279384 0.035767365 -0.01783885 -0.049256627
-0.09222876 -0.021955471 0.085135736 -0.05440807 0.13830023 -0.09247597 0.086067826 0.0011804451
-0.106088445 0.1724745 0.17915355 0.012414566 0.04132155 0.07644059 0.015662378 -0.07738025
0.049014557 -0.08812309 -0.13615738 -0.09637637 -0.0351299 -0.097905934 -0.12163543 -0.033537656
0.08537564 0.1233302 0.15220644 0.09325536 0.083001256 -0.051611118 0.11759347 -0.008165478
0.1421146 0.04451563 -0.016673928 0.12134037 0.073470645 0.16592388 0.096319325 -0.07348477
0.10228825 0.13943003 -0.060934108 0.15896426 0.15991063 -0.12337066 -0.14603493 -0.07960142
0.08642526 0.13194557 -0.022993987 0.18665716 -0.10397063 -0.006777928 -0.014101045 0.14769463

shared_layer.0.bias f4 [128]
00000000: 6855 933c 500d 7b3d 90e7 b2bd 0b92 80bc
00000010: 39b6 ab3d c2ec 2f3d 3b99 dfbd f949 2e3e
00000020: b8ca 5b3d 443e 1e3e 7675 083e 0f42 8c3b
00000030: ccb1 d63c 3795 d43c da82 33be f02e dbbd
00000040: c014 9a3d 1250 cd3d 0a31 2dbe ee49 6d3d
00000050: 379c b1bd ae11 c0bd 1020 0fbd cacd 37be
00000060: 5a71 9fbd c9f9 aabd a721 493d 829f 04bd
00000070: 5c8b 12be bf9e c23d c5c6 86bd f233 b9bd
00000080: 3571 8c3c 0210 ef3b bdf6 2d3e 882d 233e
00000090: 8128 6e3c a926 44bd 8943 05be 3f78 06bb
000000a0: e895 1d3e 125e 12be 4749 a73d c631 32be
000000b0: 2ff6 3bbc 5a4a 41be e602 26be c0bd 46bd
000000c0: c051 e9bd fafe 3ebe 203d 62bd 4e83 173e
000000d0: c602 a23d 235f 83bd 6998 9c3d f3c5 043e
000000e0: 8001 5d3c 8090 a9bd bfb3 f03d 9a54 01bd
000000f0: 456e 1abe 8f72 2cbe 4286 a6bd 6a80 37be
00000100: 59b2 12be 5026 a6bd 379b c2bd 95ba 003e
00000110: 7835 973d 338e fc3d 7958 27be fd29 343d
00000120: 2067 353d 6427 cfbd 09f3 f13d 740a 3ebb
00000130: 0d5b 2e3c d5fc 993d 9e71 26be 7992 2f3e
00000140: c9fd 31be 24d1 1fbd b818 063d 3d19 9cbd
00000150: b132 0cbe 1bd3 3838 c041 13bd 43fd e3bd
00000160: 1a4a 14be 500d 553d 8ae7 313d 643f 39bc
00000170: 7ace 16be 37b0 f1bd 804a 2bbe 09a0 e33d
00000180: fdf9 e6bc 3269 24be 42bc 243d f066 63bd
00000190: f458 c73b f41d ac3d 6cc0 163e 20f2 7cbd
000001a0: 2269 d3bd 52be fcbd 8de6 29be 9379 263d
000001b0: e430 e3bd c641 803b e065 febc bd25 133e
000001c0: 5444 bebd d823 833c e7f7 1f3e 6774 cb3c
000001d0: 848d e6bc 1267 283e 8d58 3bbd 7dd7 c73d
000001e0: 791c 80bd 3ff3 f73d 0cc8 bebc 26f7 40be
000001f0: 736f 95bd d573 123d ae08 b4bd fdcc 103e
0.01798506 0.061291993 -0.08735573 -0.015694639 0.083843656 0.0429504 -0.10917898 0.17020406
0.053660125 0.1545344 0.13326058 0.0042803357 0.026207827 0.025950057 -0.17530385 -0.10702312
0.07523489 0.10025038 -0.16913238 0.057931833 -0.08672374 -0.09378372 -0.034942687 -0.17949596
-0.07785292 -0.08348424 0.04910436 -0.03237868 -0.14310974 0.09502935 -0.06580881 -0.09043111
0.017143825 0.0072956095 0.16988654 0.15935338 0.014536024 -0.04788843 -0.13014044 -0.002051845
0.15389216 -0.14293697 0.081682734 -0.174018 -0.011472269 -0.18876019 -0.16212043 -0.048520803
-0.11392546 -0.18651953 -0.055234075 0.14796183 0.07910685 -0.0641463 0.076462574 0.12966137
0.013489127 -0.08279514 0.11753034 -0.031574823 -0.15081127 -0.16840576 -0.081310764 -0.1792008
-0.14325847 -0.08112776 -0.09502261 0.12571175 0.07383245 0.1233181 -0.16342343 0.043985356
0.0442878 -0.10114935 0.118139334 -0.002899793 0.010641825 0.07518927 -0.16254279 0.17145719
-0.17381968 -0.03901781 0.032738417 -0.07622001 -0.13691212 4.4065626e-05 -0.035951376 -0.1113229
-0.14481393 0.05201465 0.043433703 -0.011306617 -0.14727202 -0.118011884 -0.16727638 0.11114509
-0.028195376 -0.16055754 0.0402186 -0.05551809 0.006083602 0.084041506 0.1472184 -0.061754346
-0.10322787 -0.12340988 -0.16591854 0.040643286 -0.110933095 0.003914091 -0.031054437 0.14369865
-0.09290376 0.016008303 0.15621911 0.024835778 -0.028143652 0.16445568 -0.045738745 0.09757898
-0.06255431 0.121069424 -0.02328875 -0.1884428 -0.07296648 0.035754997 -0.08790718 0.14140697

shared_layer.2.weight f4 [64, 128]
00000000: bbbd 32bd c382 303d 1aff 96bd 3c1d 723d
00000010: 3699 543d 5599 82bd b7a5 7f3d d4b5 58bd
00000020: 208b ac3d 55ce 54bc b45d 0bbd 3fba 7e3d
00000030: fd5f 9f3d a2c2 2e3d 89be 9dbd b28e 863d
00000040: 32c0 f1bb 6481 373d ca74 34bd 353d 853d
00000050: 09cf 3ebd c302 9b3d 5cb5 1a3c b3f0 cbbc
00000060: 0b86 e73c d2d5 07bd fa03 2dbc b62e 51bd
00000070: 9d0e 05bc 5d7c 90bd 95d7 0abd cc07 aabd
00000080: 6306 02bd 4bd8 85bd e118 1ebd b5c1 a33b
00000090: e283 a33c 8c49 683d ddca e53c 16a7 ccbc
000000a0: e142 243d b383 023d e020 dcbc c25b a5bd
000000b0: 764d b23d f492 eebc 7e4d 9cbd a596 2f3d
000000c0: 56bc 9d3d 75b5 253d 8e67 253d 35ee a83d
000000d0: 46db 38bd be80 9bbc 4085 8abc 5356 febc
000000e0: f140 8e3d c0e6 6b3d b240 713c 3666 e53c
000000f0: 5431 01bc eb14 d43c 1dd2 84bb 41a2 363d
00000100: e7a5 afbd 0ac0 0c3a 8e91 37bd 4562 c9bb
00000110: e856 1cbc 1f25 ad3d 10ac bf3c c4e9 dfbc
00000120: f8a1 83bc 0c6b 55bc 1b2b 493d 4f27 9bbd
00000130: 2ada 48bd fc64 9fbd 4f7d 533c 2e3f 88bd
00000140: 5e1a 89bd d30a 68bd eeac 163d 9748 9f3d
00000150: 6f0a 7e3d 494a 103d c133 65bd 3b56 573d
00000160: 8c66 583c d0ec a9bc 9a09 f2bc 6c72 063d
00000170: fdc6 ae3d fc13 eebc 7fc7 5c3d 4ed8 683d
00000180: 752d b3bd 8cfd 9ebd bdb4 9ebd a6dc 8dba
00000190: 4093 623d f969 8ebd 4235 813d a1ac ab3b
000001a0: 8da9 223d 4940 2e3d 35ae a5bd 5c5e 563d
000001b0: 8293 89bc 0555 72bd 938a 00bd 10c8 a53d
000001c0: 34b7 40bd ed74 ea3c 3df1 9c3d 5e60 ce3c
000001d0: 4216 3c3d dd69 843d f0e1 a9bd 64ec 27bd
000001e0: e315 9ebc 61a5 213d 062d 2a3b ee62 a03d
000001f0: 6683 48bd 4623 7b3d e9dc f33c 99cd 623d
00000200: 476d 75bd d866 2e3d c42f 2a3d 37d7 a23c
00000210: b885 8d3d a6c1 f6bc 6e42 a53d ef40 043c
00000220: f45f acbd 7654 943d 976b ce3b b016 903d
00000230: 73d1 003d dc3c 8e3d 6921 8abd a843 a3bd
00000240: 369f 39bd 6d37 253d 6c92 85bc a414 52bc
00000250: 96cb 75bd c203 56bd c3a8 f3bc a0b1 5d3b
00000260: e803 f9bc 45eb 43bd 3a55 2d3d 45da 64bc
00000270: a033 27bd 7811 193c bb6a a2bd 890c 34bd
00000280: e025 7a3d d7f1 b4bd deb8 bd3c 1a7e b6bc
00000290: 5f9e b5bc ff53 9cbd 2ab7 26bd d9ab 70bd
000002a0: a1cf 753d ef74 f5bc 8b80 debc c8ae 90bb
000002b0: 65d2 27bb bdd2 8d3d 111a bfbc f44b 9cbd
000002c0: b8b3 71bd 0a01 7cbd dbd3 07bd 10f0 a2bd
000002d0: 4339 aebd 2624 e83c f285 87bd dd5d a9bc
000002e0: f914 fcbc 539a aa3d 4fcc 59bd b3a3 49bd
000002f0: bf93 f7ba bc51 3c3d 58e0 c7bc 6048 e6bb
00000300: a521 58bd 0c46 b3bd f7c1 10bd c2f6 0f3c
00000310: 78fb 9e3d 0098 a0bd 3c16 6b3d 09db 18bd
00000320: fe55 37bc 71d8 633d 0993 b43d 0c60 edba
00000330: 9d19 263d 7ab5 993d eea7 2ebd d452 b2bd
00000340: a0ed 7ebd 0bc5 1bbd 26cb 9b3d 2697 493d
00000350: 9c5a a63d dee7 6bbc 1b04 2d3c a1d1 a03d
00000360: 7390 353d 03a4 2dbd c6ff 8fbd 0642 4f3c
00000370: acf2 a43d 44d2 bf3c 5ed8 08bd b12e 33bd
00000380: 36eb 723a 327d 8cbc 481e 09bc 7fd4 113c
00000390: aed9 ce3c b0f0 de3c 3ba5 113d 2276 d6bc
000003a0: 6aca ebbc e9a9 dabc 4ac9 8e3c 3aa7 a23d
000003b0: 020d 0abd a0a3 053d 2e3d 9abd cb86 13bc
000003c0: 6ac2 47bd 4030 833d 8644 763d c5c8 81bd
000003d0: 1e5e 0c3d c286 0bbd b740 563d deac 97bd
000003e0: 729c 6ebd b089 78bc 8774 f23c ac43 483c
000003f0: 155e 7e3d 3661 2bbd 7255 423d 0f5c 9c3d
-0.043637972 0.043093454 -0.073728755 0.05910991 0.051903926 -0.06376902 0.062413897 -0.05290778
0.084249735 -0.0129886465 -0.03402491 0.062189337 0.0778198 0.042666085 -0.07702357 0.06570186
-0.007377648 0.04480113 -0.04405669 0.06505815 -0.046584163 0.07568886 0.0094426535 -0.024895048
0.028262159 -0.0331629 -0.01056003 -0.051069938 -0.00812116 -0.070549704 -0.033897 -0.083022684
-0.031744372 -0.06535395 -0.038597945 0.004997457 0.019960348 0.056710765 0.028050834 -0.024982017
0.040102843 0.03186388 -0.026871145 -0.08074142 0.08706181 -0.029122807 -0.07631968 0.042868275
0.07701938 0.040456254 0.04038196 0.082485594 -0.04513099 -0.018982287 -0.016909242 -0.031047022
0.0694598 0.057593107 0.014724897 0.02800284 -0.007885296 0.02588888 -0.004053368 0.04458833
-0.08576565 0.0005369192 -0.044816546 -0.006145748 -0.009542204 0.08454346 0.023397475 -0.027333148
-0.016068444 -0.01302601 0.049113374 -0.07575857 -0.049036182 -0.07782933 0.012908294 -0.066526756
-0.06694482 -0.056650948 0.036786012 0.07777517 0.06202167 0.035227094 -0.05595756 0.05257247
0.013208043 -0.020742804 -0.029545594 0.032823965 0.08534048 -0.029062264 0.05390119 0.05684691
-0.087489046 -0.07763204 -0.07749317 -0.0010823205 0.05531621 -0.069538064 0.06308986 0.005239085
0.039712477 0.042541776 -0.08089868 0.05233608 -0.01679397 -0.059163112 -0.031382155 0.080947995
-0.047049716 0.028620208 0.076632 0.025192436 0.045919664 0.06465504 -0.08295047 -0.040996924
-0.019297546 0.03946436 0.0025966777 0.07831369 -0.048953436 0.061312936 0.029768424 0.055371854
-0.059918668 0.04257855 0.04154946 0.019878013 0.069102705 -0.030121636 0.08069311 0.008072122
-0.08416739 0.07242672 0.006299447 0.07035577 0.031449746 0.06945202 -0.06744654 -0.07971889
-0.04531785 0.04033606 -0.016305171 -0.012822304 -0.060008608 -0.052249677 -0.029743558 0.0033827797
-0.03039737 -0.047831792 0.042317607 -0.013968055 -0.040820718 0.009342544 -0.079305135 -0.043957267
0.061071277 -0.0883519 0.02315944 -0.022276927 -0.022170244 -0.076332085 -0.040702023 -0.058757637
0.060012463 -0.029962985 -0.027160903 -0.004415367 -0.0025607583 0.06924961 -0.02332786 -0.076316744
-0.059009284 -0.06152443 -0.033161025 -0.079559445 -0.085070156 0.02833755 -0.06617345 -0.02067464
-0.03077172 0.08330216 -0.05317336 -0.04922838 -0.0018888636 0.045976385 -0.024398968 -0.0070276707
-0.05276646 -0.08753595 -0.03534123 0.008786859 0.077628076 -0.07841492 0.05739425 -0.037318263
-0.011189936 0.055626336 0.08817107 -0.0018110289 0.04055177 0.07505317 -0.04264062 -0.087072045
-0.062238336 -0.03802971 0.07607107 0.049216412 0.08122751 -0.014398543 0.010560061 0.078524835
0.04432721 -0.042392742 -0.07031207 0.012650019 0.080540985 0.023415692 -0.03340947 -0.0437457
0.00092666165 -0.017149542 -0.008369036 0.008900761 0.025250282 0.027214378 0.035557967 -0.026179377
-0.028783042 -0.026692348 0.017429966 0.07942052 -0.03370381 0.032626748 -0.075312 -0.009004305
-0.048769392 0.06405687 0.060123943 -0.06337122 0.034269445 -0.034064062 0.05230781 -0.07406019
-0.058254667 -0.015169546 0.02959658 0.0122231655 0.062101442 -0.041840754 0.04744477 0.07634746

shared_layer.2.bias f4 [64]
00000000: ebdb adbd fbed 4d3d 2c89 fe3c 0c9c 993d
00000010: 63a1 673d fe44 c9bc 9d71 fa3c 4f9e 8ebd
00000020: 0a4d b1bd f8b1 9fbd f205 413d bce1 a3bd
00000030: 982b 983d 3da7 313d 455e b03d c3e4 2ebc
00000040: 280c 853d 4475 1cbd 0acf 333d 32e6 35bd
00000050: 76a7 b73c 27f9 12bb fa53 29bd eca0 65bd
00000060: 1e4a b23d 9b0b b03c 9053 413d 1220 e6bb
00000070: d967 67bd 72c2 a33d 9d47 313c c5ea 85bd
00000080: 2bd2 02bd 8a89 8e39 2f38 41bd 7a5a 72bd
00000090: 3838 58bd ac6a 55bd 1957 0f3d 3064 ca3c
000000a0: f662 07bd 59e6 d5bc 426c 8ebd f039 db3c
000000b0: 950c 20bd 03f3 6c3d e3c9 2f3d 9ab3 f93c
000000c0: 5f31 a63d 21b3 37bd f935 91bd 0f48 f4bc
000000d0: 8244 bc3c cfbb a2bd 3df3 6dbd 4a0c 49bd
000000e0: eeb9 123d 1265 203d e9d9 223d ee3e f93b
000000f0: 31d6 b83c bbb2 9b3d 941b 3d3d 2686 813d
-0.08489212 0.050275784 0.031071268 0.07500467 0.056550395 -0.02456903 0.030571753 -0.06963789
-0.08657272 -0.07797617 0.04712481 -0.0800204 0.0743019 0.04337238 0.086117305 -0.010674658
0.06496459 -0.03819777 0.04389862 -0.044408984 0.022418719 -0.0022426338 -0.041339852 -0.05606167
0.08705543 0.021489909 0.047198832 -0.007022866 -0.05649552 0.07996072 0.010820297 -0.06538919
-0.031938713 0.00027186825 -0.04717272 -0.059168316 -0.05278799 -0.052103683 0.034995172 0.024705976
-0.03305336 -0.026110815 -0.06954242 0.026761025 -0.0390745 0.05784894 0.042917144 0.030481149
0.081148855 -0.044848565 -0.070903726 -0.029819516 0.022981886 -0.07945978 -0.0580933 -0.049083985
0.035821848 0.03915889 0.039758597 0.0076063788 0.022563072 0.076024495 0.04616888 0.06324415

actor.0.weight f4 [32, 64]
00000000: b0e8 5fbc 405d c43b 78e3 acbd dc39 11bd
00000010: 48c7 e2bc cac2 ab3d 86fa c5bd f4a5 b73d
00000020: 9c0f 48bd 4096 733d 3438 99bd 80b3 d6bb
00000030: a06b 623d 2265 e1bd 305e 9e3c e0ea fa3b
00000040: d09a 9e3c c27f 923d 0037 853d 022b fbbd
00000050: c887 f83d 70cc 733d 607c 693d c463 0c3d
00000060: 3c2b 28bd 8038 313b 7053 33bd 4c96 e9bd
00000070: 882e 863c dc97 523d a24e eb3d fc88 f53d
00000080: f0d2 ccbc 8055 aeba 245b 3abd 606e 23bd
00000090: 0c32 0abd 3069 113d 1e21 903d 82db e3bd
000000a0: fc05 4abd 64f6 113d d02c 18bc aae3 e0bd
000000b0: 6e2a f5bd d0ef ec3c 4847 ae3d 74a8 f93d
000000c0: 7839 53bd 20f0 01bd c6e4 a2bd c0ea 1e3c
000000d0: 6a7f 8dbd 44d6 a53d 8ce3 48bd cea5 93bd
000000e0: 96d1 98bd 2007 47bd 08cc be3c 0a17 a63d
000000f0: 9025 623c dcee dabd 8053 363c 48f3 8fbc
00000100: 3000 843d c48e a93d e0de 01bc 8833 3abd
00000110: e6fd 82bd bc68 b93d f2fb 9a3d 0893 e4bc
00000120: 6093 97bd c025 80bb e8b9 ddbc 8641 f8bd
00000130: 94ae 373d b286 df3d 762b ba3d 802a 603b
00000140: 0821 6a3d e4c7 a8bd dc02 5bbd a0bb f23c
00000150: 3e2b ba3d 0c18 18bd 101b 18bd 80c1 993d
00000160: f0cd e93c a63f b93d 4065 143b 2467 2e3d
00000170: 9021 4abd 500c 653c ee4c ae3d ba24 aebd
00000180: aa17 9e3d 401c c93b ae8f c2bd 0415 f83d
00000190: 2032 29bc 84a7 173d 4046 4a3b 4c36 87bd
000001a0: fe94 9cbd fe9e f1bd e681 b73d 8000 8c3c
000001b0: 245a c63d d838 f43c d00a 603c 0a5f c1bd
000001c0: bc15 ea3d fedb abbd b09e 763d c229 9d3d
000001d0: a8c8 03bd b2a4 ee3d c4ec 3bbd f056 bfbc
000001e0: 70a8 34bd 681f 47bd 70ef ebbc 284e c73d
000001f0: 5604 e53d 200a b5bc 88c0 9abc e8cf 183d
00000200: fed1 913d 4065 6ebc 0cdc ea3d 285e 99bd
00000210: 9c44 c53d 8884 aebd 9c77 99bd 58bf c83d
00000220: 684d c43d 0005 043d f6b8 873d 80a6 c43d
00000230: b833 f33d f070 2c3d 98fc d43c f848 7d3d
00000240: c2ad a4bd 32d8 b4bd d8e1 dc3c 00a2 c63b
00000250: 04ab 193d d0cb 5c3d 04f5 3e3d 404c 06bd
00000260: 5a68 b33d 8064 da3a fcb9 9ebd 449b fbbd
00000270: f0f6 d6bc 182e fd3d da6c 983d 40a1 cb3d
00000280: 7217 9d3d c0c3 813d 5059 1cbc aa94 b03d
00000290: 64a9 1ebd d00e d4bc 0c6e bbbd d0ba 453d
000002a0: de52 e73d ecc4 a1bd f8b4 a63d 3805 443d
000002b0: 1631 fcbd ccd8 6f3d f09b 27bc 2066 8f3b
000002c0: eaff 9cbd 40c3 b9bb b833 e3bc f0ce 83bc
000002d0: 52ae e03d 0cea 0a3d 2c90 f53d 102d 50bc
000002e0: 52ad 9ebd a8b7 1cbd 2405 acbd fa77 a4bd
000002f0: 6836 dabd 906f 99bd f093 7c3d a84f 743d
00000300: 5a23 9ebd 7889 9bbc a0d1 f33d 5432 88bd
00000310: 48d4 803d 1001 afbc 8833 df3c ba00 c5bd
00000320: 3cce 503d 6429 acbd 68d9 d33d 2446 1abd
00000330: 10d9 f33d aecf ee3d d09b a13d 9cbe cd3d
00000340: 00f7 78bd 6ce6 1d3d 8c97 3e3d c03f 493c
00000350: f087 9f3d c00c 213c da93 82bd 4896 293d
00000360: 4c2d 19bd 70d6 6e3c 706d 3ebc 7491 c6bd
00000370: 9add c73d b8bd efbc 600c 433c b49f 0bbd
00000380: a60e f13d 3ef7 b73d 3472 7e3d 8aa0 ad3d
00000390: eebd ed3d c06f d3bb a0b3 043c d026 88bc
000003a0: 00cf 233c e484 33bd 00f8 e03c bcc3 c5bd
000003b0: eabd f5bd d21f b73d f4c1 07bd 4677 a5bd
000003c0: 68ce 61bd 689b 73bd 0a85 dabd 28a9 8e3c
000003d0: d04e 7e3d f290 b3bd 364b a2bd f8ed 62bd
000003e0: f22a b7bd 7476 6dbd 0a95 d8bd 7021 42bc
000003f0: 0080 bfb6 d00b 783c ac63 b63d bca3 82bd
-0.013666317 0.0059925616 -0.08441824 -0.03545557 -0.027682915 0.083867624 -0.09666924 0.089672
-0.04884301 0.05946946 -0.07481423 -0.00655216 0.05527842 -0.11005618 0.019332021 0.007657394
0.01936093 0.07153274 0.06504631 -0.122640625 0.12135273 0.05952114 0.05700338 0.03427483
-0.041056857 0.0027041733 -0.043780744 -0.1140562 0.01637961 0.051414356 0.114896074 0.11989018
-0.025002927 -0.0013300627 -0.045497075 -0.039900184 -0.033739135 0.035500705 0.070375666 -0.11125852
-0.049322113 0.035635367 -0.009288028 -0.109809235 -0.119709834 0.028922945 0.085096896 0.12190333
-0.05156848 -0.03172314 -0.07953791 0.009699523 -0.06909068 0.080975085 -0.04904513 -0.07209359
-0.0746185 -0.04859078 0.023290649 0.08109863 0.013802901 -0.1069009 0.011128306 -0.01757206
0.06445348 0.082791835 -0.007926673 -0.0454593 -0.063960835 0.090531796 0.07567586 -0.027902141
-0.074011564 -0.00391075 -0.027066186 -0.121218726 0.044844225 0.10914363 0.09090321 0.003420502
0.057160407 -0.08241251 -0.053469524 0.029630482 0.09090279 -0.037132308 -0.037135184 0.0750761
0.028540581 0.09045343 0.0022643358 0.04257883 -0.049348414 0.013979986 0.08510767 -0.08503099
0.07719357 0.006137401 -0.09500061 0.121133834 -0.010326892 0.03702499 0.0030864626 -0.06602153
-0.076456055 -0.117979035 0.08960323 0.017090082 0.09685162 0.029812261 0.013674453 -0.094419554
0.11429927 -0.083915696 0.06020993 0.0767398 -0.032173783 0.11652507 -0.045880094 -0.023356885
-0.044105947 -0.048613936 -0.028800696 0.09731704 0.11182468 -0.022099555 -0.018890634 0.03730765
0.07120131 -0.014550507 0.11467752 -0.07488662 0.09632227 -0.08521372 -0.07493517 0.09802121
0.095850766 0.03223133 0.066270754 0.0960207 0.11875099 0.042099893 0.025999352 0.061837167
-0.08040954 -0.088302985 0.02696316 0.0060617924 0.03751661 0.05390531 0.046620384 -0.03278756
0.08760138 0.0016662031 -0.077503175 -0.12285474 -0.026240796 0.12362307 0.07442637 0.09942865
0.076704875 0.063361645 -0.009542778 0.086221054 -0.038735762 -0.02588597 -0.09151849 0.04827386
0.112951025 -0.07898888 0.08139986 0.04785654 -0.1231405 0.058556363 -0.0102300495 0.004376188
-0.07665999 -0.0056690276 -0.027734622 -0.016089886 0.10970749 0.03391461 0.11990389 -0.012706056
-0.07747902 -0.038261086 -0.08399418 -0.08030696 -0.106549084 -0.07491982 0.06166452 0.05964628
-0.077215865 -0.018986449 0.11905217 -0.06650224 0.062904894 -0.021362811 0.027246252 -0.09619279
0.05097793 -0.08406332 0.10344201 -0.037664548 0.11906636 0.116607055 0.07891047 0.100461215
-0.060782433 0.038549826 0.046531245 0.012283266 0.077896 0.0098297 -0.06375857 0.041403085
-0.037396714 0.014577493 -0.011622772 -0.09695712 0.09759064 -0.02926527 0.011904806 -0.03408785
0.11770372 0.089827046 0.06212063 0.08477886 0.11608492 -0.0064525306 0.008099467 -0.01662007
0.009998083 -0.043827906 0.027462006 -0.09656474 -0.11999114 0.08941616 -0.033143952 -0.0807939
-0.055128485 -0.05947438 -0.106699064 0.017414644 0.06208688 -0.087678805 -0.079245016 -0.055402726
-0.08943738 -0.057974294 -0.10575302 -0.011848792 -5.7071447e-06 0.015139535 0.0890573 -0.06378886

actor.0.bias f4 [32]
00000000: 00b8 84bd 0c7a 00bd 443f 8b3d 9093 9cbc
00000010: 3472 373d 7205 f0bd 907f 6ebc acb5 b8bd
00000020: e4b2 163d 2a47 8c3d e2aa be3d 4e1d a2bd
00000030: 1c63 85bd 60cf 90bb 64fb f3bd 2aaf e93d
00000040: 70ee 6fbd 6212 c8bd f201 d3bd 208b 953b
00000050: d8d5 a9bc 186e b33c 80a6 6fbb c8a6 10bd
00000060: b48a 98bd 6469 b2bd 60e7 803d f89d 6abd
00000070: 4087 8b3d 30dd e6bd 745d 3dbd e4b2 a83d
-0.06480408 -0.031366393 0.06799176 -0.019113332 0.044786647 -0.117197886 -0.01455678 -0.09019026
0.036791697 0.06849511 0.09309937 -0.07915746 -0.06513044 -0.0044192523 -0.11913183 0.11410363
-0.058577 -0.09769131 -0.103031054 0.004563704 -0.020731851 0.021903083 -0.0036567748 -0.035315305
-0.074483305 -0.08711508 0.06294131 -0.057279557 0.06812906 -0.11272657 -0.046231702 0.08237246

actor.2.weight f4 [7, 32]
00000000: e6d4 b0bd 648e ec3b 1c0c 8f3d c784 d7bd
00000010: 5c73 bf3d f610 803d edb2 0a3c 9b28 2fbe
00000020: 731b cd3d 69d1 cbbb 422d 9bbb b31d b53a
00000030: b2e2 ac3c 1edd 04be 1285 c33d 3940 343e
00000040: d3e8 2fbd 9cbd 0fbe 5eb1 8e3d 16ea fcbd
00000050: c52b a93d 0920 753d eac4 0d3e d724 c5bd
00000060: af76 673d 0128 163d 3c26 f9bd 8f18 bebd
00000070: 0e86 2ebe 33b2 123e 5b9a 15be 2be2 aebd
00000080: 62a4 13be fcc4 263e 31bd f7bd fc78 2bbe
00000090: f043 93bd 8158 8ebd 0df0 9a3d 7402 63bc
000000a0: 8452 1bbd 9291 1dbd 0336 203e 6a6a 0ebe
000000b0: 6d38 15bd 00e2 14be d760 b73d 2890 a5bc
000000c0: 85d3 a53d 3f27 1b3b 3163 f9bd d376 1a3e
000000d0: 33b5 d2bd df74 d9bd 9c49 b6bd 168c 3f3c
000000e0: 20dd 633d d369 91bd 2542 c6bd 5fe6 d1bd
000000f0: 47aa 3a3b 7ec4 0c3e 6ddd 233e 0b33 0a3e
00000100: 2ce3 65bc fa22 68bd db53 e63d 290e e4bd
00000110: 0236 2abe 31e9 95bd 2b98 d3bd 95d9 543d
00000120: b62d 7ebd 7f3b 30be 61ee 98bc 4807 283e
00000130: afac 25be 3158 eb3c cf3b 013e 8125 b4bd
00000140: e808 803d 8c07 d4bd a69d 263e 361e 2c3c
00000150: 9cfb ac3d 3e1a 073e 8fab 25bd 9753 31be
00000160: bdac 31be 8507 16bd 5085 2b3e 340f f03d
00000170: d8fc 6abc 7436 e63d a8a6 0f3e a286 d1bd
00000180: 5021 763c f60b a13d 5618 903d 5e39 31be
00000190: 716f f33d 5d12 02bc bc91 903d 12fe 98bc
000001a0: 3a87 323c 4d2e adbd 3dd9 d0bd b6d6 09be
000001b0: 505b 833d 53c4 11be 5cae 263e d8ad 2abe
000001c0: 54df f13d d4ae 83bc 2118 31be 67f9 313e
000001d0: ef40 e53d b5f4 863c 4c3c ef3d 89a3 213d
000001e0: 7262 993d 4901 8ebc d58f 413c 7749 bfbd
000001f0: 22e2 32bd 735a e6bd 12a2 3bbd c7a2 e33d
00000200: 2524 99bd f9c3 f33d 8b9d 54bb d0ca 8ebc
00000210: b388 2b3d e9eb 97bd 2cfb 3abd 5444 d83d
00000220: 09bc 0ebe 0534 1fbe 68a2 07be 722b 82bd
00000230: 5174 16be 1260 083d 1070 2abe 8435 03be
00000240: 0249 adbd 0446 953d 6127 3d3b 716f 383d
00000250: 230c b63d 295a 863d b762 00be fc26 34bd
00000260: d2f0 403d 0d8b 583d 7818 053c 6d73 b73c
00000270: f185 fa3d c7bd 9a3d 03ea 86bc 2358 b2bd
00000280: 8f88 5bbd 549f 9e3d 10d6 9c3d 497f 0ebc
00000290: 37f8 b33d 307a 7ebc 20d6 f3bd 7d2c 29be
000002a0: 88d7 01be 75b9 e23d ccf1 44bd 9d1e fb3d
000002b0: 86ac 023e 0c35 e93d a6c9 e1bc d37d d43d
000002c0: f6c1 ae3d b08b 54bc 24e9 b83d 99ee 1d3b
000002d0: 1fee fabd 17f2 3a3d 93e8 c33d 2aa2 24be
000002e0: 58ae ea3d feec 973b dab8 593d c8a3 98bd
000002f0: 1e48 1d3e d925 24be f8b0 d8bc 07b0 023e
00000300: 3cd8 fa3d 1c6f 273d de7f e53d 4fe0 f63d
00000310: abff da3c 3b03 d43d d840 25be c2bd 09be
00000320: 9dd0 16be 019c 68bd eb21 0bbd 3188 123d
00000330: f6bf 2d3e 72d3 7d3d c34e c43d ce4b bbbc
00000340: 1ace e3bd 8d99 30be b5bc a23d 2558 a4ba
00000350: a7cf cbbd c51d 8abc 4a0a 2a3c eb1b 0e3e
00000360: 5dd9 cb3d ceb6 b63d cdae 003d 4363 99bd
00000370: 3b5c 043e 3d27 e4bc ceac 0f3e c80c b33d
-0.08634357 0.0072191227 0.069847316 -0.10523372 0.09348175 0.06253235 0.008465511 -0.17105334
0.10015001 -0.006220032 -0.0047356198 0.0013818055 0.02110419 -0.12974975 0.095468655 0.17602624
-0.042946648 -0.14037174 0.06967424 -0.12349336 0.082603015 0.059845004 0.13844648 -0.09626167
0.05650967 0.036659244 -0.12165496 -0.09282028 -0.17043325 0.1432579 -0.14609663 -0.08539232
-0.14418176 0.16286081 -0.12096632 -0.1674537 -0.071906924 -0.069504745 0.07565317 -0.013855565
-0.03792049 -0.038468905 0.15645604 -0.13907781 -0.036430765 -0.14539337 0.089540176 -0.02021034
0.08096985 0.0023674516 -0.121771224 0.1508439 -0.10288467 -0.106179945 -0.089007586 0.011691114
0.055630803 -0.071002625 -0.09680585 -0.10249018 0.002848284 0.13746831 0.16002436 0.13496034
-0.014031213 -0.05667398 0.11246463 -0.11135513 -0.16622165 -0.07319868 -0.10331758 0.051965315
-0.062055312 -0.17210196 -0.018668355 0.16409028 -0.16179155 0.028728576 0.12620471 -0.08796216
0.06251699 -0.10353002 0.16271076 0.01050525 0.08446428 0.13193604 -0.040446814 -0.17317043
-0.1735105 -0.036628265 0.16750073 0.1172165 -0.014342509 0.11240855 0.14028418 -0.10230757
0.015022591 0.078636095 0.07035892 -0.1730704 0.1188649 -0.007938948 0.070590466 -0.018675838
0.010896498 -0.08456097 -0.10197685 -0.13460812 0.06413901 -0.14235048 0.1627745 -0.16667879
0.118101746 -0.016074575 -0.1729436 0.17380296 0.11194026 0.016474107 0.116814226 0.0394626
0.0748948 -0.017334597 0.011814077 -0.09340184 -0.04367269 -0.112477206 -0.04580886 0.11115032
-0.07477597 0.11902613 -0.0032442536 -0.017430693 0.041878413 -0.07418043 -0.045649692 0.105599076
-0.13938917 -0.15547188 -0.13245547 -0.06355943 -0.14692809 0.033294745 -0.16644311 -0.12813383
-0.08461191 0.07288745 0.0028862583 0.045028154 0.08889034 0.065601654 -0.12537657 -0.04398249
0.047104664 0.052866984 0.00812351 0.022393906 0.122325785 0.075557284 -0.016469007 -0.08708217
-0.05359703 0.07745233 0.07658017 -0.008697339 0.087875776 -0.015532061 -0.119060755 -0.16520877
-0.12679875 0.11070529 -0.048082158 0.122616984 0.12761125 0.11387071 -0.027561974 0.103755616
0.08533089 -0.012972757 0.09028843 0.0024098514 -0.12252449 0.04564103 0.095658444 -0.16077486
0.11459035 0.004636406 0.053154804 -0.07453114 0.15359542 -0.16030063 -0.026451573 0.12762462
0.12248275 0.040877447 0.11206029 0.12054502 0.02673324 0.10352179 -0.16138017 -0.13451293
-0.14728017 -0.056789402 -0.033967894 0.035774413 0.16967759 0.061969228 0.09585335 -0.022863295
-0.11123295 -0.17246075 0.07946149 -0.0012538476 -0.09951716 -0.016859898 0.01037843 0.13877837
0.09953568 0.08921586 0.031416703 -0.07489636 0.12925808 -0.027850742 0.14030764 0.08742672

actor.2.bias f4 [7]
00000000: 292a 42bd c6a2 f3bd a9ff 10bd 6b11 123d
00000010: 6bf2 14be 56ae 01be 0411 3dbd
-0.04740349 -0.11896281 -0.035400067 0.035661142 -0.145456 -0.1266416 -0.046158805

critic.0.weight f4 [32, 64]
00000000: b4b5 87bd 26ea 80bd c405 44bd 40a2 6fbd
00000010: 0861 d7bc 7cbf 723d 5625 c6bd 1e16 a73d
00000020: 00dd 56bd b816 81bd c818 803d fcf8 c5bd
00000030: 8c85 56bd 96f8 9d3d 6813 bdbd 98fc 4d3d
00000040: 966f e33d 3612 8cbd 5c98 17bd 4486 e93d
00000050: 2887 1c3d dce6 9fbd 9001 173d 80cc f43b
00000060: 005d 7eba 083e 9cbd e8e6 aebd 54da ffbd
00000070: 5248 cc3d 3455 f83d e4e4 9dbd 72cf ecbd
00000080: 947b 9dbd e4c3 9a3d c09b b6bb 002c 903d
00000090: 9ea9 e7bd 0af6 fbbd ca11 91bd a81b ecbd
000000a0: 1e3b ca3d 3457 8dbd 5ce9 e13d a86c 9a3d
000000b0: ec5d e1bd c83b 223d 12ab b53d a8c8 fd3d
000000c0: f44d 363d 84bc 313d 109c 0a3d 341e 54bd
000000d0: 66b3 f4bd 5e63 f3bd b045 f8bc 6ec0 c53d
000000e0: c831 483d 68c2 5a3d 8a7a babd 304f 41bd
000000f0: 2034 01bc b4ce acbd 02a7 80bd bc74 1fbd
00000100: 3e17 b23d 7c77 c63d f08a bebd 9e4e d53d
00000110: 00b5 de3a 9016 4f3d 048a 773d 28ab a7bd
00000120: ea6b e13d e496 263d 1c0d aabd b621 a7bd
00000130: 003c 473a 26a1 f0bd c80a 753d 4011 de3b
00000140: 6e77 b33d a088 c5bc 24cd c73d f427 6a3d
00000150: 88d8 7b3d 82eb d4bd c0fd 5d3d 74e5 373d
00000160: b0e4 033d 0e5a d8bd 40dd 8f3b 6827 98bc
00000170: 2630 9bbd 20ec ae3d 001a 28ba c42d b3bd
00000180: 226f d8bd 585c 77bd c89d 993d 1c6b 733d
00000190: 26be 913d 0a5c f43d 303b 483d ecca 85bd
000001a0: b82f eabd 2425 fbbd 3cbb 063d 4c89 a43d
000001b0: 685d fb3d 4286 a2bd 4018 0bbc 6036 973d
000001c0: 5674 803d 8891 cd3c 0447 34bd 74bc 48bd
000001d0: c03b 0a3d 108b c63c 7a36 f7bd 8894 953d
000001e0: dc1c e9bd a0df c8bc f29a 923d 262a d63d
000001f0: ce9f b4bd 58a8 9b3c eaea afbd a4f7 d03d
00000200: b41e debd 0008 503b 46eb e2bd 685c f43c
00000210: baad c6bd 380c 84bc a07c 8b3d b053 e53c
00000220: f0ea a5bc 406f 5ebb 8036 943d d453 abbd
00000230: 78de f53c 16d9 f7bd 4e88 c73d 60da a83d
00000240: 40cd bebc d656 bfbd 1009 10bc 6002 97bc
00000250: 6ca5 61bd c081 e53b f84c b23c 482a 5a3d
00000260: 9eaa bd3d 8812 9cbc d42f b63d c404 303d
00000270: 6c8c 07bd deef d73d c0d3 35bb 0050 ea39
00000280: 3c5b 8a3d 94dc 7d3d 9c38 de3d bccc f0bd
00000290: 0602 cfbd 0e2a a8bd 76ea cb3d 7055 23bd
000002a0: 40a1 00bd 426e aa3d 12ba 9c3d ec93 123d
000002b0: 920d b6bd c833 e1bd 8af2 d9bd 3e4f e4bd
000002c0: 2492 833d 00b2 4c3d 4e44 97bd cc5b db3d
000002d0: 3062 ddbd 5e3a a5bd 5a6d e73d b833 823d
000002e0: f2b1 cebd 4811 b83d b875 15bd 80ef 793b
000002f0: a01c 5fbd 3e39 b0bd f07c 8e3d b027 babc
00000300: 38ce 0c3d f022 583d 2890 a43c 58ef d83c
00000310: 4e44 f53d 901b 16bc 9032 4c3d e40a 903d
00000320: 7032 d13d 1456 93bd 0a5d 853d 90ed 10bc
00000330: 702b febc 5e06 ebbd 341c c73d a0e7 9cbb
00000340: 9641 ebbd 886f 283d ca5e 9dbd ca93 82bd
00000350: 60f0 c23d e8fa 45bd 54ed 113d 8045 5dbd
00000360: 345c 32bd 5002 22bc 6017 cabc a889 183d
00000370: d4bd 943d 9837 edbd 6eda b03d 3aeb e2bd
00000380: 6416 c63d e249 8b3d 3875 a6bc 84d3 123d
00000390: 42b3 ec3d 7ef7 9bbd 4036 763c 7869 473d
000003a0: 669d c8bd 16cc 903d f0f3 153d fc26 3abd
000003b0: fc85 673d 6832 cd3d 10a8 6a3c 5493 123d
000003c0: 8880 d33d fef7 95bd 2894 393d 4c3a 893d
000003d0: 20bc a2bd 56fa e0bd 64c0 d2bd 448a a93d
000003e0: eecc ae3d d842 e7bc 6ef3 d53d a89f a8bd
000003f0: c0ba 4cbc 78f8 87bc a464 f03d 38b2 d33d
-0.06626454 -0.0629466 -0.04785706 -0.058504343 -0.026291385 0.059264645 -0.0967509 0.081585154
-0.052456856 -0.063031614 0.06254727 -0.096666306 -0.052373454 0.0771343 -0.09232217 0.05028972
0.11105268 -0.06839411 -0.037010536 0.11402562 0.038214833 -0.07807705 0.036866724 0.0074706674
-0.0009703189 -0.07629019 -0.085401356 -0.12492815 0.099747315 0.12125626 -0.07709673 -0.115630046
-0.07689586 0.075568944 -0.005572766 0.07039642 -0.11311649 -0.123027876 -0.07083471 -0.115287125
0.09874557 -0.06901398 0.11030838 0.07540256 -0.11004242 0.039607793 0.0887052 0.12391788
0.044507936 0.043392673 0.03384024 -0.051786616 -0.1194828 -0.11884187 -0.030306667 0.09655844
0.0488756 0.053408056 -0.09105404 -0.04719466 -0.007885963 -0.08437863 -0.06281854 -0.038929686
0.08695839 0.096907586 -0.09303844 0.10415386 0.0016991198 0.050558627 0.060434356 -0.08186942
0.11006911 0.040671244 -0.08303282 -0.08160727 0.0007600188 -0.117494866 0.059824735 0.0067769587
0.08763014 -0.024113 0.09755924 0.05716701 0.061485797 -0.10396482 0.054197073 0.044896558
0.032200515 -0.105640516 0.0043903887 -0.018573478 -0.07577543 0.08541131 -0.00064125657 -0.087489635
-0.10568072 -0.0603908 0.075007975 0.05942832 0.07116346 0.119316176 0.04888457 -0.06532845
-0.11434883 -0.122629434 0.032893404 0.08034 0.12273675 -0.07935764 -0.008489668 0.07383418
0.06272189 0.025093809 -0.04401304 -0.049007848 0.03374839 0.024236232 -0.120709375 0.07303721
-0.113824576 -0.024520695 0.0715846 0.10457258 -0.08819543 0.019001171 -0.08589728 0.10203484
-0.108457 0.003174305 -0.11080031 0.029829219 -0.097011045 -0.016119108 0.0681088 0.027994007
-0.020253628 -0.0033940822 0.072369576 -0.08365598 0.030013308 -0.12101953 0.09742795 0.08244777
-0.02329123 -0.093427345 -0.008791223 -0.01843375 -0.0550894 0.007003993 0.021765217 0.05326298
0.09261058 -0.019051805 0.08895841 0.042973295 -0.0330929 0.10543798 -0.002774462 0.00044691563
0.06755683 0.061977938 0.10850641 -0.117578 -0.10107808 -0.08211146 0.09956829 -0.0398764
-0.03140378 0.08321811 0.076526776 0.0357856 -0.08889307 -0.109962046 -0.10641964 -0.11147927
0.064243585 0.04997444 -0.07386075 0.10710868 -0.108097434 -0.08067773 0.11300154 0.06357521
-0.10092534 0.08987671 -0.03648922 0.0038137138 -0.05447066 -0.08604668 0.06957424 -0.022724003
0.034376353 0.052767694 0.02008827 0.026481315 0.11975919 -0.009161845 0.049852908 0.07033327
0.10214698 -0.071941525 0.065118864 -0.008845702 -0.031026572 -0.11475824 0.09722176 -0.004788354
-0.11487119 0.04112199 -0.07684095 -0.06375845 0.09518504 -0.048334986 0.035626724 -0.05402136
-0.043544963 -0.009888247 -0.02466935 0.037240654 0.07262769 -0.11582869 0.08635412 -0.11080022
0.096722394 0.068012014 -0.020319566 0.03584625 0.11557628 -0.07615565 0.015027583 0.048684567
-0.09795646 0.07070176 0.03660959 -0.045447335 0.05652426 0.1001938 0.014322296 0.035785034
0.1032725 -0.073226914 0.04530731 0.06700572 -0.07946038 -0.10985248 -0.10290602 0.08278325
0.08535181 -0.028230116 0.10446821 -0.08233577 -0.012495697 -0.016597971 0.11737946 0.10336727

critic.0.bias f4 [32]
00000000: 8660 f9bd 7097 39bd 8c96 943d ceda 973d
00000010: 600e 2a3c 0474 2dbd 7891 aabc c865 a73c
00000020: 24b3 493d 40e2 0c3b f8f2 8a3d 588d ed3d
00000030: 6000 ffbb 6cf9 143d ea64 a9bd fe92 863d
00000040: 001b 1ebd d867 d03c e857 99bc cca0 d6bd
00000050: 8074 f6bd 84ef d7bd fa94 823d c0d4 8dbb
00000060: c014 ab3d e677 e4bd c033 013d dc6e 483d
00000070: 0801 d53d 2825 65bd 56c4 c53d 903f d6bc
-0.121766135 -0.045310438 0.07255277 0.074147806 0.010379404 -0.04234697 -0.020821318 0.020434275
0.049243107 0.002149716 0.06784624 0.11599225 -0.007782027 0.03637068 -0.08271201 0.06571005
-0.038599968 0.025440142 -0.018718675 -0.10479888 -0.12033939 -0.10543731 0.06376071 -0.0043283403
0.08353567 -0.11155681 0.031543493 0.04893385 0.10400587 -0.055943638 0.09656589 -0.026153356

critic.2.weight f4 [1, 32]
00000000: 2b04 153e cbaf 763c e7d1 413d 1731 373c
00000010: b2a5 a23d 7d3c 44bc c382 2bbe 3ea2 dabc
00000020: a64f 72bc 5393 b23d 5e0c 23be b9ee 90bd
00000030: b82d 313d 2f75 993d 088c c1bb 2465 083e
00000040: 08d4 6a3d b09e 1fbe 1a04 193d 48b9 c4bd
00000050: 4e1b 3fbc b7f0 95bc 6d1a d1bd 7600 18bd
00000060: 78ad bcbd 17e0 bf3d 0e0a 233e 7b67 9c3d
00000070: dca2 aebd 8902 07be c649 bd3d 94bc e73d
0.14552371 0.015056561 0.04731932 0.0111811375 0.0794176 -0.011977312 -0.167491 -0.026688691
-0.0147894975 0.08719506 -0.15922686 -0.07076783 0.04325649 0.07493054 -0.0059065856 0.13319832
0.057331115 -0.15587878 0.037357427 -0.09605652 -0.011664225 -0.018303258 -0.102101184 -0.037109815
-0.09212774 0.093689136 0.15921804 0.07636925 -0.08527157 -0.13184561 0.09242587 0.11315265
