src/franka_h2/scripts/RL/pth/arm_ppo.pth (torch, 67506 bytes, 11 tensors)

shared_layer.0.weight f4 [128, 24]
00000000: dbec 773d 8357 10be cdee cfbd 9b78 fbbd
00000010: 21f5 0ebe 3738 c4bd 7ccf 4cbe f741 be3d
00000020: c40c 36ba 7e93 c33d 5a9d bd3d 76dd 17be
00000030: 3a14 66bc 9473 063e c94e ccbd e361 0ebe
00000040: 442e 3e3d a148 593d 0c8c 333d 3f40 ae3d
00000050: 8fbf 7cbd fdc2 c03c 4534 413d 86eb 6cbd
00000060: f10f 20be d9c8 243e 9e8a cfbd c465 c3bc
00000070: de7a 1a3e 819c 61bd a5c7 8f3d a500 2fbe
00000080: 1237 ccbd 86bf c13d b814 393e e438 833d
00000090: eda8 24be 3d23 4b3e e90a 7e3d 387a 23bc
000000a0: d89b 143e 0b24 9fbd 7cd3 5c3d d94b 423e
000000b0: f004 b53d faee cabd b08b f33c f0f1 d23c
000000c0: e56f f13d e981 323d 98bc fdbd 7837 4cbc
000000d0: 1119 cdbd dd15 1dbe c7fa 3c3e 3ca6 d5bd
000000e0: 95db 803d 849e 533c 284b b6bd 7e71 3a3e
000000f0: bee1 52be b95c 83bd 118f 36bd b697 a1bd
00000100: f640 babd 545d 38be e0d1 5bbc 6834 f6bd
00000110: 7a74 a33d 88d7 a63d eeba 9e3c 40b7 ff3d
00000120: a16e 36bc f0af ef3d b9fe ffbd 6c23 0e3e
00000130: aa2f cbbd ba68 383e 1e39 a73c 0bba 49bd
00000140: 651e ce3d 06c5 3c3e f35b 753d ba9c 1abe
00000150: eb37 203e f4fd 87bd 7b56 963c 4234 313e
00000160: e1c4 11bd 27e5 3bbe 2dbb 3b3e ff6f 0a3e
00000170: f087 25bc 07ea 463d 651f edbd b91f d23d
00000180: 2b89 c1bc 8c0e 0dbe db70 db3d cfe7 3f3e
00000190: f67b 8f3d 28af a33d a575 143d bb4c 47be
000001a0: 735d 1ebe ee1c af3d a9e0 cfbd 5123 3e3e
000001b0: d1f6 90bd 8326 ee3d ba6d 3fbe edf2 03bd
000001c0: d575 19be 2bc5 31be f3a8 013e 3a89 d13c
000001d0: 2ae0 0c3e 1302 3d3d 32e6 09be 672b db3c
000001e0: 4813 a43d 63b4 a7bd 741a f83d dba7 35bc
000001f0: 8f7b fbbd b95f abbd ec11 a1bd 4fde 08be
00000200: 3eac 47bc ec9a 233e 45e0 223e f8d4 99bc
00000210: ca0d 083e 2472 84bd 8088 2f3e 5686 313d
00000220: fa91 66bc ead4 113e c7cb 1fbe 6f8a 45be
00000230: 5300 3c3e fbcc 2fbd f463 253e db98 f83d
00000240: 6220 cdbb 7f89 31be 6064 46be 7732 0c3b
00000250: 180d 4ebe 3ad7 b03d 989b bbbd d412 c1bd
00000260: 2baf 033d 1e1a 123e 9d18 93bc 43e8 02be
00000270: e2d9 54be 564f 1a3d 6fda 22be 4071 5e3d
00000280: 5791 29be b845 41be 4511 403e c1a0 8ebd
00000290: 696e 6a3d e548 13be dffa 22be ddca 373d
000002a0: f5dc d7ba 504a 353b 49b6 2f3d 3870 c8bc
000002b0: a12e ef3c 89aa b93d 07f6 273e 05bd e53d
000002c0: 26fa eebd 08f6 053e 918c 3fbe c655 12be
000002d0: df47 c33d 061d 8fbd 01a5 d8bd e68c 86bd
000002e0: a208 8cbc 2f78 f43d 2581 12be 433a 2abe
000002f0: ab8a b33d 27c6 473e df69 2e3e 5a09 e73d
00000300: e282 2fbe 4fe2 7b3d 80ba 07bd 0ede 253e
00000310: a6af 763d a148 1b3e 291f d0bc 4049 ea3d
00000320: d402 bdbd 7c0f 053e 4c8c b73d d0fa 143e
00000330: 0930 48be ecf1 41be 6dd3 073d 294b e73c
00000340: fd99 2cbd 066d 983d 145f f8bd 970c 39be
00000350: 27a0 4c3d 6dd1 a23d 4ca8 e1bd 90e9 afbd
00000360: 9b5f 06be 4c80 f23d 2ec8 10be d43c 0fbd
00000370: 2ce3 bfbd 6421 20be 3e53 a0bd 3f33 843d
00000380: 4c10 8b3d bf0c 5fbc 40fd bdbc 3a9f 213c
00000390: 846e 433e b0d6 263e 2c6e 6a3d bf8d a53d
000003a0: 8744 ffba 2cd5 283e b07a 253d c73e f13d
000003b0: 62fd f0bd e1f1 4b3d c6ed 123e b2f6 07be
000003c0: b037 a2bd 1af7 d8bd 6239 2b3d 9d6d d2bc
000003d0: 3299 3cbe 689d 4fbd b63f 5d3d 3d45 c3bd
000003e0: 9dde f8bd aa62 273e 37b3 2f3e 95ca 6b3d
000003f0: 0a15 3cbd d36e d3bd 87ad 1e3e 669a b7bd
0.060528617 -0.14095883 -0.101529695 -0.12278863 -0.13960697 -0.09581035 -0.20001024 0.092899255
-0.0006944651 0.09549616 0.09258528 -0.14830574 -0.014042908 0.13130027 -0.099759646 -0.13904528
0.04643084 0.05304778 0.04383473 0.08508348 -0.061706122 0.023530478 0.04716899 -0.0578418
-0.15631081 0.16092242 -0.10133861 -0.023852237 0.15085933 -0.055080894 0.07020501 -0.1709009
-0.09971441 0.09460358 0.1807431 0.064073354 -0.16080065 0.19837661 0.062022123 -0.00997787
0.14512575 -0.077705465 0.053912625 0.18974246 0.088388324 -0.099088624 0.029729694 0.02575013
0.1178892 0.043580923 -0.12389487 -0.012464397 -0.10014547 -0.15340371 0.18455039 -0.10432097
0.06291882 0.012916211 -0.08901054 0.18207356 -0.20593926 -0.0641417 -0.044570033 -0.07890265
-0.090944216 -0.18004352 -0.013416737 -0.120217144 0.079812005 0.08146578 0.019376244 0.12486124
-0.011134774 0.11703479 -0.12499756 0.138807 -0.099212006 0.180087 0.020412978 -0.04924969
0.10064391 0.18434533 0.059902143 -0.15098849 0.15646331 -0.066402346 0.018351784 0.17305091
-0.03558815 -0.18349133 0.1833312 0.13519286 -0.010103211 0.04856303 -0.11578254 0.10259957
-0.023624977 -0.1377508 0.10714885 0.18740772 0.070060655 0.07992393 0.036245007 -0.19462864
-0.15465336 0.0855044 -0.101502724 0.1856816 -0.070783265 0.11628439 -0.18694201 -0.032214094
-0.14986356 -0.1736037 0.12662105 0.02557813 0.13757387 0.046144556 -0.13466719 0.026754094
0.0801149 -0.08188703 0.121144205 -0.011087383 -0.12279426 -0.08367867 -0.078647465 -0.13366054
-0.012187062 0.15977067 0.15905865 -0.01877831 0.1328651 -0.06467083 0.17141914 0.043341003
-0.014072889 0.14241377 -0.15605079 -0.1929109 0.18359499 -0.042920094 0.1615141 0.1213853
-0.006259964 -0.17337607 -0.19374228 0.0021392384 -0.20122182 0.08634801 -0.091605365 -0.09427419
0.032149475 0.14267775 -0.017956072 -0.12783913 -0.2078624 0.037673317 -0.15903638 0.054307222
-0.16559349 -0.18874252 0.18756588 -0.06964255 0.0572342 -0.14383276 -0.15916012 0.0448712
-0.0016469049 0.0027662702 0.04289845 -0.024467573 0.02919704 0.0906573 0.16402446 0.11217693
-0.11668806 0.13082135 -0.18705966 -0.14290532 0.09535193 -0.06987958 -0.10578347 -0.06569843
-0.01709396 0.11936986 -0.14307077 -0.16623788 0.08766683 0.19509183 0.17032574 0.112810805
-0.17139772 0.06149512 -0.033136845 0.16197988 0.060226105 0.15164424 -0.025405483 0.114397526
-0.09229055 0.12994188 0.089623064 0.14548802 -0.19549574 -0.18939942 0.033160616 0.028234081
-0.042139042 0.074426696 -0.1212751 -0.18071209 0.04995742 0.07950101 -0.11018428 -0.085894704
-0.13122408 0.11840877 -0.14138862 -0.03497012 -0.093695015 -0.15637738 -0.07828377 0.06455087
0.06790218 -0.013613879 -0.023192048 0.009864623 0.19085127 0.16292834 0.057233974 0.080836765
-0.0019475379 0.16487569 0.040400207 0.11779552 -0.11767079 0.04979122 0.14348516 -0.132777
-0.07920778 -0.10594006 0.04180277 -0.025687033 -0.18417814 -0.050687224 0.054015838 -0.095346905
-0.12151835 0.16346231 0.17158209 0.057566244 -0.045918502 -0.103238724 0.15495883 -0.08964996

shared_layer.0.bias f4 [128]
00000000: 35a9 1fbd 6c84 083d 9bb7 0b3e f98c a03d
00000010: 9e5b 3abe dde5 313b 52ff e13d b2e1 fd3b
00000020: a89e d1bd 40de 353c 821c 94bd ff25 453e
00000030: 27c9 acbc f384 0c3e 1542 443e 9989 353d
00000040: 99c9 3ebd ef5d b83c c4ed 3e3d ba21 2b3e
00000050: b3c8 e33d 217c 563e fa5d b63c c6b0 d1bc
00000060: 8b9e 8dbd 4d4a 3e3e eefb 8c3d 41b5 debd
00000070: 5d30 023c 2b46 88bd 7297 7c3d 52b9 2f3e
00000080: 1f57 a0bb e099 3c3e c761 23be 59ca 2a3d
00000090: d8d0 e9bd 3506 57bd 54ba 02be c416 0bbe
000000a0: 3928 c8bd 5dc8 1fbd 3def 10bc 72c1 2abe
000000b0: e968 363d 1499 9d3d c7c2 093d 3985 883d
000000c0: f151 223e d3a8 bd3c f516 193d 303b 8e3c
000000d0: 644c 07be a991 5ebc d99b 453e e5ba 65bd
000000e0: 2569 03be 4e89 3d3e 210a 0abe b7bf 04bd
000000f0: 6cd7 dc3d 0aef 17bc c1d4 103e 8cfd 283e
00000100: 9c0a 563e 2950 fb3c f1fa 67bd 8029 efbd
00000110: 9295 4d3e 3f2e c3bd 647e 2dbe 5bbb 393c
00000120: 76b1 9abd 43dd 373e a983 223e 7577 30bd
00000130: bf6d cc3d e335 1a3e d35d 903c 4433 f2bc
00000140: cff6 f83c 7d93 7a3c 836b ccbd d753 393e
00000150: c8b2 103e aaeb 70bd 13af 51bc 548f 24bd
00000160: dce1 08bd c5b6 0c3d b9ae 46be c902 9ebd
00000170: 4eb7 b5bd 2571 c2bd 0779 dfbd 3b3f 803d
00000180: 0c8c 553d 2b8d cb3d f336 0a3b 81fd 363e
00000190: 81d6 48be 8178 34be 339a 02bb f94c d43d
000001a0: ff40 8e3d 3a87 0b3d 2995 3e3e 9086 0dbe
000001b0: 1618 c83d 60e7 50bd b753 06bd 33cc 0dbe
000001c0: 6854 cb3d b253 233e 4329 25be e1d3 4d3e
000001d0: 96eb 283e 2505 4fbe 4b24 0abd b97c cabd
000001e0: 4ac8 1b3e f7ed 5fbd 0863 e6bd 06af fbbd
000001f0: 2f08 203e 521c 203c ffa0 c43d 5031 b8bd
-0.038979728 0.033329412 0.13644259 0.078393884 -0.18199012 0.0027145066 0.110350266 0.0077478522
-0.102353394 0.011100352 -0.07232 0.19252776 -0.02109201 0.13722591 0.19165833 0.044320676
-0.046578977 0.022505729 0.04661347 0.16712084 0.11122265 0.20945789 0.022261608 -0.025596987
-0.06915005 0.18583031 0.06883989 -0.10874415 0.007946101 -0.066540085 0.061667867 0.17160538
-0.004893198 0.18418074 -0.15955268 0.04169688 -0.11416787 -0.052496154 -0.12766391 -0.13582903
-0.09773297 -0.03900944 -0.008846101 -0.16675356 0.044533644 0.07695213 0.03363302 0.06666035
0.1585157 0.02315179 0.03737541 0.017362207 -0.13212734 -0.013584533 0.19297732 -0.05608644
-0.12833078 0.18509409 -0.13480426 -0.032409396 0.10783276 -0.0092733 0.14143659 0.1650297
0.20902485 0.030677872 -0.0566358 -0.11677837 0.20076588 -0.09530305 -0.16942745 0.011336173
-0.07553379 0.17955498 0.15870537 -0.043082673 0.0998187 0.15059619 0.017622864 -0.029565461
0.030391125 0.015293953 -0.09981444 0.18098389 0.141307 -0.058818497 -0.012798089 -0.04017575
-0.03341852 0.03435399 -0.19402589 -0.07715375 -0.08872853 -0.09494237 -0.10911756 0.0626206
0.052135512 0.09939035 0.0021089881 0.17870142 -0.19613077 -0.17624094 -0.0019928336 0.10366244
0.06945991 0.03406451 0.18611588 -0.13820863 0.09770219 -0.051001906 -0.03279468 -0.13847427
0.099282086 0.15949896 -0.16129021 0.20100357 0.16496119 -0.20216806 -0.033726018 -0.0988707
0.15213123 -0.0546703 -0.112493575 -0.122892424 0.15628122 0.009772377 0.0960102 -0.089937806

shared_layer.2.weight f4 [64, 128]
00000000: 8b24 e5bb 05f0 413d 2724 21bd 9376 35bd
00000010: 3254 cd3a 9c7a 103b 8e2b ddbc 0284 393d
00000020: 4aeb a4bd 4001 81bd b09a 8e3d 0877 c1bc
00000030: b39b fcbc 36b7 92bd 22c6 38bc 330b 303d
00000040: 5724 bbbd 91fe 843c 0866 4abd bcf8 88bc
00000050: 66df 843d f544 0ebd 8797 0d3d 793f b3bd
00000060: debd aa3d 2d0a 5d3d 1e4a 9f3d 26b3 78bd
00000070: 44ff 883d 0eb7 d0bc 3416 40bc d988 13bd
00000080: 63c3 9fbc 9784 aa3b 827a 0d3c 1c4b 7dbc
00000090: b13b a63d 95d7 81bd 32ec a53d 9148 913d
000000a0: 9e0e 49bc c194 8e3c b667 b0bd f813 36bc
000000b0: 2906 943d cb0f 95bd 610c 853d 47ac b0bd
000000c0: 3d29 3a3d c434 fa3c 6eba 1dbd f2ea 96bc
000000d0: eb4a 9abd 1dba 903d e822 ccbc 9564 a43d
000000e0: df2b e8bc 16a0 5b3d 6120 3a3d 7bac 363d
000000f0: 6e9e 72bd 31d8 a3bd c14b 8c3d e5a1 07bd
00000100: d63f 05bd dcbc bdbc f639 923d 24d4 51bd
00000110: 9f30 f83c 07ee 8bbb 829a 13bd bcca 1dbd
00000120: bd53 8d3b 63da 433d 160b 9cba 1a78 6c3d
00000130: e73e dabc bcf3 fbbc 81e1 b5bd 07c8 97bd
00000140: dc79 4f3d f146 0abd 3d9d 1d3c 6f70 3abc
00000150: 30a4 d13c e2e2 a13a 3d04 a13d f2fb 33bd
00000160: 8dd0 bd3c 7ae5 5ebd c4c3 bdbc 3511 dc3c
00000170: 33d7 96bb 4910 b83d e244 dc3c ed7d 8b3d
00000180: 5d68 8dbd 4ee2 8a3d 82b7 9d3d 056d 943c
00000190: 1443 863c 931e 1fbd 1414 87bd a7e8 4cbc
000001a0: 1105 da3c 179e eabc 4bcf c8bc 5bfe e0bb
000001b0: 4700 68bd 919f 923d ffaa 94bd d66e 84bd
000001c0: be5c 883d c5da 7fbd 85b7 c73a 7af7 8c3c
000001d0: e913 85bd 1450 423d c77e 4bbd 0abf 733c
000001e0: 12e4 a1bc 7c3f edba 929d 883d 62b6 10bd
000001f0: 10d4 c83c fd53 eabc 17ab 083d b2b6 8ebd
00000200: 09aa 8bbc e65b 53bc ca59 adbd 6e82 433b
00000210: 7451 1dbd 24cd 153c ce0b a73d 15e9 113d
00000220: 6cf0 013c d6eb 2ebb 1444 33bd a651 9cba
00000230: 1077 8a3c c19f d0bc 4700 80bc 782e fdbc
00000240: 8c35 71bd 79a4 0abc 1cc2 803d 1356 b83c
00000250: 195d 30bd 8810 263d 4a73 33bd df20 3f3d
00000260: ed0f 273d 4ae3 55bd 2d69 b2bc 17cb 7dbc
00000270: 47ba b0bd f80f 813d cdf0 fbbc e4d6 553d
00000280: d7c0 86bd cc58 1e3d 844a 4bbd 8976 62bd
00000290: d528 4fbc fb36 2cbd 95d6 823d 41ae c2bc
000002a0: fbe5 47bc 28c4 f0bc 3ba6 73bd 59eb 563d
000002b0: 300d 753d f698 5c3d 01c6 7a3c 3425 08bc
000002c0: 53b0 8d3c c738 b4bd 782e 8fbb e985 86bc
000002d0: 295c 383d f803 7ebc f476 4b3d 0089 c2bb
000002e0: 4deb 7a3d 9329 a0bd a597 6dbd ed3d 8dbc
000002f0: 367d 5d3c eaf1 0c3d c7a3 a5ba 6293 c7bc
00000300: 789c 4ebb 8d89 1c3d 739c 1bbc bddb 77bd
00000310: 074b 2dbd eac6 b6bc d4e2 f83b 8efb 8fbd
00000320: c534 833d 5734 96bd d85f 813c 51ce 7fbd
00000330: c44d 81bc 0c48 b43d 7cd7 9c3d a8dd f0bb
00000340: 81c2 5a3d 5106 03b9 7233 5e3d 8296 afbd
00000350: 7a12 49bd d6fb dc3c fe34 8a3d 4165 a43d
00000360: fbb9 f2bc 3225 4dbd 35f0 11bd 7066 e8bc
00000370: b616 2b3d 8aca b33d 6bc9 abbd f8b4 9db8
00000380: 7681 8c3b f981 53bd 57d4 6cbd f811 8e3c
00000390: ef58 993d b689 90bd c202 3ebd b5e6 023d
000003a0: 4552 903d 68f2 ebbc 6d5a 19bd f3d9 79bd
000003b0: e010 2cbd d5eb 33bd b0b5 0e3d 16fe 983d
000003c0: 6fb7 de39 c765 35bc 67d8 8c3d 2c62 29bc
000003d0: 77f5 b73c dbe2 a8bd 127d 963d b5d3 923d
000003e0: 9281 a33d 22fa 64bc 02e5 5ebd 84a4 00bd
000003f0: 7632 6fbd bda4 6dbd 2235 15bd 0fd4 473d
-0.0069928817 0.04734804 -0.03934112 -0.044302534 0.0015665351 0.0022045737 -0.026998308 0.045291908
-0.0805269 -0.062990665 0.06963098 -0.023616329 -0.030835962 -0.07163851 -0.011277707 0.04297943
-0.09137791 0.016234668 -0.04941371 -0.016720168 0.06487922 -0.03473373 0.034568336 -0.08752341
0.083369955 0.053964783 0.077778086 -0.060717724 0.06689313 -0.025477912 -0.011724044 -0.03601918
-0.019502347 0.005203794 0.008635165 -0.015459802 0.08116854 -0.06339947 0.08101691 0.07093919
-0.012271551 0.017404916 -0.08613531 -0.011113159 0.072277375 -0.07278403 0.06496502 -0.08626609
0.045449484 0.030542739 -0.03850787 -0.018422578 -0.07533821 0.07066748 -0.024918988 0.08026997
-0.028341232 0.053619467 0.045441035 0.044598084 -0.05923312 -0.080002196 0.068503864 -0.03311338
-0.03253158 -0.023161344 0.071399614 -0.051227704 0.030296622 -0.0042703184 -0.036036022 -0.03852342
0.004312961 0.04781569 -0.0011905159 0.057731725 -0.026641322 -0.03075587 -0.08880902 -0.07411199
0.050653324 -0.03375906 0.009620008 -0.011379345 0.025590986 0.0012350942 0.078621365 -0.043941446
0.023170734 -0.054418065 -0.023164637 0.026863674 -0.0046032905 0.08987481 0.026888315 0.06811128
-0.06904671 0.067814454 0.07701017 0.01811839 0.016389407 -0.038847517 -0.065956265 -0.0125066405
0.026613744 -0.028639836 -0.024512907 -0.006866259 -0.05664089 0.07159341 -0.072591774 -0.06466453
0.06658314 -0.062464494 0.0015237188 0.01720785 -0.06497938 0.04743965 -0.04968145 0.01487709
-0.019762073 -0.0018100585 0.06670679 -0.035330184 0.024515182 -0.028604502 0.03336629 -0.0696844
-0.017048853 -0.012900328 -0.084643915 0.002983238 -0.038407758 0.009143148 0.081565484 0.035622675
0.007930856 -0.0026690862 -0.043766096 -0.0011926189 0.016902477 -0.025466802 -0.015625132 -0.030905947
-0.058888957 -0.008462065 0.062870234 0.02250198 -0.043057535 0.04054311 -0.04381112 0.046662208
0.040786672 -0.052218713 -0.021778667 -0.015490315 -0.086292796 0.06301874 -0.030754471 0.05220689
-0.0657975 0.038658902 -0.04963161 -0.055288825 -0.012644012 -0.04204462 0.063885845 -0.023764731
-0.012200828 -0.02939041 -0.0594847 0.05247054 0.05982703 0.053856812 0.015305997 -0.008309651
0.017295992 -0.08799892 -0.004369553 -0.016421275 0.045009766 -0.015503876 0.04967399 -0.005936742
0.061259557 -0.0782043 -0.058005948 -0.017241443 0.013518622 0.034410395 -0.001263731 -0.02436227
-0.0031526368 0.038217116 -0.00949775 -0.060512293 -0.04230788 -0.022311646 0.0075953994 -0.07030402
0.06406549 -0.07334202 0.015792772 -0.062452618 -0.015784152 0.08802804 0.07658288 -0.0073506422
0.05340815 -0.00012495487 0.05424828 -0.08573629 -0.049089886 0.026975553 0.06748389 0.08027125
-0.029629698 -0.0500843 -0.03562947 -0.028369159 0.041769706 0.08778866 -0.08388027 -7.5200514e-05
0.004287894 -0.051637623 -0.05781969 0.017342553 0.07487666 -0.07057516 -0.04638935 0.0319583
0.07046942 -0.028802112 -0.037439752 -0.06099887 -0.04200828 -0.04392608 0.03484124 0.07470338
0.00042479808 -0.011071629 0.06877213 -0.010338347 0.022455914 -0.08246394 0.07348074 0.07169286
0.07983698 -0.013975652 -0.054417618 -0.031406894 -0.058397733 -0.058018435 -0.036427625 0.04878622

shared_layer.2.bias f4 [64]
00000000: 42a5 473c d9f4 50bc e57d bc3c 7629 b03d
00000010: 68ec 913d 6b9b a83c 57e6 acbd 7f20 e03c
00000020: d060 9c3d 8221 c1bb ebc3 4dbd 01a9 a83d
00000030: 521b ec3c e5a9 af3d 8387 383d d7db 083d
00000040: a70a 523d f3bf 13bd 4cc5 6d3d dc8d a23d
00000050: e835 b2bb ac29 94bd 3e29 b63d 3df0 393d
00000060: bbb6 5d3d 1e41 a0bc f5ca 8b3d fc73 2dbd
00000070: c1dd b9bd e306 493d d5dd 27bd 2c29 75bd
00000080: 0e63 8abd 7171 32bc f6c7 093d e614 e03c
00000090: ca93 de3b 5a3d 90bb 4192 b2bc 3f19 b03d
000000a0: 5e72 413d 466e 59bd 0cef 8d3b c1d9 4dbc
000000b0: 4297 9d3d 275c c9bb 1047 953d 6e03 ab3c
000000c0: 5ef0 243d 9af6 a9bd f96c 1d3d 18c2 48bc
000000d0: 47e9 133c b48d ab3d b717 2e3d 999a 893a
000000e0: c223 863d b1ce e93c a72c 8bbd c066 90bd
000000f0: bd3e 893d 1e81 2dbd d517 00bd 5b15 85bd
0.012185397 -0.012753689 0.02300925 0.08601658 0.07125169 0.020581922 -0.08442371 0.027359245
0.07635653 -0.005893887 -0.05023567 0.0823536 0.028821621 0.08577327 0.04505111 0.03341278
0.05127969 -0.03607173 0.058049485 0.07937214 -0.005438555 -0.07234511 0.08894585 0.045395125
0.054129343 -0.0195623 0.0682582 -0.04234694 -0.09075499 0.049078833 -0.04098304 -0.059853718
-0.067571744 -0.010891304 0.033637963 0.027353715 0.00679252 -0.004401845 -0.021798255 0.08598565
0.04722821 -0.05308368 0.004331475 -0.012564124 0.07694866 -0.0061450186 0.07288945 0.020875659
0.040268295 -0.08298989 0.038434003 -0.012253307 0.009027786 0.08376637 0.042503085 0.0010498344
0.06549789 0.028540941 -0.06795626 -0.07050848 0.067014195 -0.042359464 -0.031272728 -0.06498214

actor.0.weight f4 [32, 64]
00000000: d940 c9bc 542f f2bd 575a 533d 4adc dc3d
00000010: 0b09 b03d 1401 d5bd 2ec3 87bd 0ba7 cf3d
00000020: cb68 4bbd 6855 023e adca f23c 0e03 b1bd
00000030: aa90 bf3d 8c26 7d3d 82b9 a43d 5b24 bfbd
00000040: 3e31 153d cd43 193d 16ab e83d 8785 ee3d
00000050: 2b12 003e 3831 433d b4b4 43bd 4c24 723d
00000060: f172 9a3d 082b 283d 7e46 0ebd 754c 093d
00000070: d0ac 103c 5f4b 563d 7933 b4bd f039 17bc
00000080: 10d1 d8bc f477 873d 2058 a83d 2a05 9f3d
00000090: f9c2 a03d 5191 5fbd 604c cc3b ba4a acbd
000000a0: aa87 89bd c384 e13d 3e75 2ebc fb90 90bd
000000b0: 980f 033d b30c 1abd d1a3 473d 83a6 e13d
000000c0: b06e 12bd f932 bfbd 886f bbbd dda2 9cbd
000000d0: 6642 f63d 1ab5 d83d f092 5dbd 453b 833c
000000e0: f46f 733c 09c4 82bc b8c7 2ebd 2615 9e3d
000000f0: 70bc 09bc 7533 633d 088c f2bd df8f 4ebc
00000100: 4298 e63c 441d 713d af95 443b 1c46 073d
00000110: 7800 e13c f2db f7bc aa54 513d a026 563d
00000120: e946 e4bd 80e7 1abb fb7e b13d f471 803b
00000130: c4f7 013c c10b 9b3c 8adc babd f84a 8fbd
00000140: 5a3e 1fbd 1ea8 dfbd 15eb 86bc fdb0 c33c
00000150: 71e0 ff3d 9028 823c 8a52 e23d f8ad cd3d
00000160: a881 863d 3d9b cd3d 57d2 37bc 97de c4bd
00000170: 00de 05ba 85c8 9abb d20b 2abd 0248 8c3d
00000180: f2f7 dabd 9ee4 bdbd da25 21bd 329b acbd
00000190: ea82 e63d 5619 08bb 2840 a6bd 7802 1dba
000001a0: 3040 8b3c 8c1d e4bc b4a4 173d dc4a 043d
000001b0: 311f 3fbb fba5 1d3b 89c6 9abd 2098 4ebc
000001c0: d55c 943d f7b6 2e3a ce34 babd b1c5 003c
000001d0: e003 d9bd 7d26 ac3d 3b22 97bc a070 d23b
000001e0: a053 a93d 14e1 f5bd 240e 8f3d 4287 a2bd
000001f0: 502c cf3c 7fd8 f6bc 900f 24bc f07a 983d
00000200: 001a 243b f871 bcbd 4ce0 c6bd c67c 8ebd
00000210: f2a6 953d 60f0 393d 0085 823b 8081 443b
00000220: 801c 89bb 20d8 edbd 7060 4dbc 3885 5c3d
00000230: 3034 543c 4c64 76bd 2216 903d 3827 1cbd
00000240: 306d 0fbc b0a7 84bd d827 9cbc 6ced f43d
00000250: aa86 88bd f00c f93d 2a05 943d d0e7 fcbd
00000260: 6e9b bc3d 0c28 a5bd 48d3 1e3d a62b 86bd
00000270: f0dc 00bc a6be d9bd 105c b0bc f00f 9bbc
00000280: 0afc d53d ec63 eebd 1865 6ebd 10db 31bd
00000290: 0824 9a3c 90d9 5ebd b629 b23d 7cf4 3ebd
000002a0: 74b4 343d c86f 8d3d 0886 9ebc c220 de3d
000002b0: 8003 c4bc 784e f93d 124a a43d fc20 c3bd
000002c0: b00d e9bd eccf 01bd fc23 b93d 340d fcbd
000002d0: 2ab0 ccbd 149e 89bd 4463 96bd 40a4 29bb
000002e0: fe52 d33d c04a b13d eacf 9c3d de39 d4bd
000002f0: 4887 dfbd 40c4 3c3d b619 cb3d b048 c73c
00000300: c264 963d 8c69 28bd ac7b c8bd c42b 433d
00000310: 202e d0bb 003e 3bbc d0dc 703c bc62 15bd
00000320: 1ad5 fbbd c0c7 7ebd 3c29 ba3d c4fb 6dbd
00000330: b88c 44bd c802 993c 2ca6 79bd b402 cc3d
00000340: 9636 ecbd 9038 b63d 2064 be3d 42d7 c43d
00000350: 4434 393d 8699 b0bd dce6 cdbd 248c fdbd
00000360: d4d0 2c3d d4d2 0b3d c0e6 4bbc 5033 ed3d
00000370: f217 f43d c864 bd3d 6044 84bb a6aa c03d
00000380: 0091 6dbd 586b f0bd c0cd 3ebd c84f 1a3d
00000390: d09b 40bc 1804 f6bc d689 ab3d e824 f23d
000003a0: 3c13 f83d b077 23bd 1c26 1f3d 80aa b83c
000003b0: 927b f1bd 1c21 f6bd 3610 ccbd ac4f 0fbd
000003c0: 5065 2b3d 8c11 d63d c0bf 47bd ce2d ee3d
000003d0: 9482 d5bd 4268 b03d a41d 943d 40c3 abbc
000003e0: 5c42 e03d a88c d23d 9a98 f9bd e605 c73d
000003f0: f2bd b8bd f6c9 b73d 6057 16bc 9049 d63c
-0.024567055 -0.118254334 0.051599827 0.10784204 0.08595475 -0.10400596 -0.066290244 0.10139283
-0.049660485 0.12727892 0.029637659 -0.08643161 0.09353764 0.06180434 0.08043195 -0.09333106
0.036423914 0.037418175 0.11360757 0.11646562 0.1250693 0.04765436 -0.047779754 0.059116647
0.075414546 0.041056663 -0.034735195 0.03352018 0.008830264 0.052317973 -0.0879888 -0.009230122
-0.026466876 0.06614676 0.082199335 0.07764657 0.07849688 -0.054581944 0.0062346905 -0.084126905
-0.06715329 0.110116504 -0.01064807 -0.07058903 0.031997293 -0.037609767 0.048740212 0.11018088
-0.03575009 -0.09335894 -0.09152132 -0.07648251 0.12024383 0.105814174 -0.05409521 0.016019473
0.014858235 -0.015962617 -0.042670935 0.077188775 -0.008406743 0.055468995 -0.11843115 -0.012607544
0.028148774 0.0588658 0.0029996445 0.033025846 0.027466044 -0.030256245 0.051106133 0.05228293
-0.111463375 -0.002363652 0.08666798 0.0039198343 0.007932607 0.018926503 -0.09124096 -0.06996721
-0.038877822 -0.10920738 -0.016469518 0.023888106 0.12493981 0.015888482 0.11050899 0.100429475
0.06567699 0.10039375 -0.0112195825 -0.09612768 -0.0005106628 -0.004723611 -0.04151518 0.06849672
-0.10691823 -0.09272121 -0.03934274 -0.08428039 0.112554386 -0.0020767055 -0.081177056 -0.00059894426
0.01699838 -0.02784612 0.037022308 0.032297954 -0.0029162879 0.002405523 -0.07557399 -0.012609512
0.07244269 0.0006664837 -0.09092103 0.007859633 -0.10596442 0.084057786 -0.01844894 0.0064221174
0.08267903 -0.12005821 0.06985119 -0.07935955 0.025289685 -0.03013253 -0.010013476 0.074453235
0.0025039911 -0.09201425 -0.0971075 -0.069573924 0.07307233 0.045395255 0.00398314 0.0029984415
-0.0041843057 -0.11613488 -0.0125351995 0.053837985 0.012951896 -0.060154244 0.070354715 -0.03812334
-0.00875406 -0.06477296 -0.019061968 0.11959347 -0.0666631 0.12160671 0.072275475 -0.12348902
0.09209333 -0.08064279 0.038775712 -0.06551294 -0.007865176 -0.106320664 -0.021528274 -0.018928498
0.10448463 -0.11640152 -0.05820188 -0.043421805 0.01881601 -0.054406703 0.08699362 -0.046619877
0.044117406 0.06906086 -0.01935102 0.10846092 -0.02392745 0.1217317 0.0802194 -0.09527776
-0.11379564 -0.03169243 0.090400666 -0.12307206 -0.09994538 -0.06719604 -0.07343152 -0.0025885254
0.10318564 0.086568356 0.07656844 -0.103626 -0.10914475 0.046085596 0.09917013 0.024326652
0.07343437 -0.041116282 -0.097892135 0.04764916 -0.006353155 -0.011428356 0.014701083 -0.036471114
-0.12296505 -0.062202215 0.09089896 -0.05810143 -0.047985762 0.018678084 -0.06094949 0.09961453
-0.11533849 0.08897507 0.09296441 0.0961137 0.04521586 -0.08623032 -0.100537986 -0.12380245
0.04219134 0.03413661 -0.012445152 0.11582053 0.1191863 0.09247738 -0.0040364712 0.094075486
-0.05799961 -0.11739224 -0.046582937 0.03767374 -0.011755899 -0.030031249 0.083758995 0.118234456
0.12113044 -0.039909065 0.038854703 0.022542238 -0.11791147 -0.12018034 -0.099640295 -0.03498809
0.041844666 0.104525656 -0.04876685 0.1162983 -0.104252964 0.086136356 0.07232216 -0.020967126
0.10950157 0.10280734 -0.121873096 0.09717922 -0.09020604 0.08974068 -0.009176105 0.026158124

actor.0.bias f4 [32]
00000000: c71a a03d 6b96 89bb b048 bcbd f6a3 c5bd
00000010: 5a36 503d 782a 6c3d 4f11 bb3d 86a5 afbd
00000020: 40ad 69bb 57fb 733d 20b3 86bb 448d e53d
00000030: 0b0d ea3d 7d82 643d c0fb fc3c 0e98 9ebd
00000040: a50d 3c3d ed59 69bd 467e 8d3c 8237 d63d
00000050: afe2 b9bb f4fc dfbd f97b 8a3d 361f febd
00000060: 2029 6fbd f717 ad3d 506e 793d 4acc adbd
00000070: bc45 8bbd 1d1e 203d 6187 293d e17c ea3c
0.078176074 -0.0041988394 -0.091935515 -0.09650414 0.050833084 0.05765769 0.09134161 -0.08576493
-0.0035656244 0.05956587 -0.004110709 0.11208585 0.11428269 0.055788506 0.030881763 -0.07743846
0.04591145 -0.056970526 0.017272126 0.10459806 -0.0056727747 -0.10936919 0.06761927 -0.12408297
-0.05838883 0.084518366 0.060896218 -0.08486231 -0.0680041 0.03909122 0.041388873 0.028624

actor.2.weight f4 [7, 32]
00000000: 1551 5c3d cf86 a7bd a422 e939 6b99 f2bd
00000010: 07bb 193e c41b 28bd 50b0 06bd d893 00be
00000020: 037a 1cbe f58d c73d e211 d13c ea40 9cbc
00000030: 5b6b b0bd 3765 29be c4bc 733b 2c20 b53d
00000040: 1bd3 093e 7387 cb3d 742e 0b3e a809 81bd
00000050: fdad f73c 8551 dabd f9f7 ca3d 8caf 4d3d
00000060: 8953 d5bc 041a 3a3e 6c32 253e a41e e5bd
00000070: a49a 123d 69d1 f6bd eeef e93c 7fc5 833d
00000080: fa5d 3e3e 5191 45bd 16e6 00bd 3094 8e3d
00000090: 808c 98bd 2afd c4bd ba3f ce3d 334f 183e
000000a0: 5460 f3bc d725 54bd 96ba fbbd 0a93 313e
000000b0: cf3e 853d a028 d3bd d8ec cd3d 446b 0abe
000000c0: 9d48 bc3d c8c6 fdbd 62a3 34bd 8228 13be
000000d0: 313d 32bd 7b12 af3d 3fe7 ee3d c35c 223e
000000e0: 6a09 52bd 6844 5bbd 81eb f13d 41fe 5aba
000000f0: 30ad 543c 51c8 adbd 403f 6b3d c16e 97bb
00000100: f591 293e 8f69 dabd 8921 28be 99ad f8bd
00000110: db2d 25be 427d 16be ec8e 823d 025d c1bd
00000120: 839a d13d 409f 28be a9dc 24be faa2 b8bd
00000130: eff6 5d3d e5a5 163d 31d2 c2bd 371d eabd
00000140: 7931 dfbd 3d65 553d 0a0d 0a3e 7f5a 533d
00000150: 5562 a23d 0a4f 1c3e c16b dfbd 3cd4 c1bd
00000160: 63e9 30be feb0 733d efc3 1b3e 1e6b 153e
00000170: 0d76 00be defe fb3c d9bb fcbd be24 38bd
00000180: 9699 85bd cbb6 753d 1ad4 d0b9 178a 1b3d
00000190: 79b7 c73d 1176 e1bd 436d 22be ae0c 983d
000001a0: 9362 ecbd 3aff de3d 9e97 313e dfb7 213e
000001b0: 5627 373e 98f8 d63c 6a3a 913d 65e5 513d
000001c0: 8c86 df3d 6304 03be c6fa e9bd 6e5f 0cbe
000001d0: 6552 823d ebfb 8dbd fe6b fdbd 555f a33d
000001e0: 6793 183e 730f e4bd 337b 243e 2bc3 14be
000001f0: 594c 29be 54b5 3c3e 8781 8dbb 615a 8f3c
00000200: f777 a03d 23a9 e53d 9ecb e93d 0833 6ebc
00000210: 03de 00bd 0071 d03d d349 bc3c 41c7 4d3d
00000220: bfe5 283d 9cea 56bd de42 e73b 90d7 943d
00000230: 9a8e 283e 7aa5 063c 597d 02be 2241 c73d
00000240: 69f6 223e 4128 243e fedc d4bd 2895 60bd
00000250: b819 f2bd edfb 1c3d 46fa d23c dd40 e43d
00000260: 63b1 1d3d 7cf8 9cbc eaef 6bbd 980b 0fbe
00000270: 53f8 a73d 7957 133e 169a 3c3d e25f b2bd
00000280: 6667 c1bd 140e ff3c dafa a33d aa94 96bd
00000290: 249f b5bd b585 99bd 1f0e 7a3d df2b 1cbe
000002a0: fac6 073e 1d45 0c3e 590d 393d f80c a1bd
000002b0: 45f8 813d a198 353c 242f 273d b984 72bd
000002c0: 7857 5b3d 7949 263e e640 283e 0ce8 9b3c
000002d0: e0cc 103d 3ee4 22be 197f 26bb 970e a9bd
000002e0: bb37 c13d 9ee9 b13d 2732 7cbd 0c8c 7d3d
000002f0: d1a1 a23d f90e 45bd 25fc 18be 5173 323e
00000300: 086b 283e f8d2 35be 8052 54bc 62db 17bd
00000310: 95b3 0c3e bc3f 003e b230 b5bd 49c6 2e3e
00000320: 6477 cabd 79f4 ef3d 18d4 0e3d 25dc 413d
00000330: 14d1 b1bd dcbe 203d 7d35 44bd 56bb 813d
00000340: a619 27be 2a50 edbd c503 a2bd f941 6bbd
00000350: 41c3 aabd 2ea5 c9bd f3da 143e b1c4 a3bd
00000360: 81f5 1b3d 94fc 49bd 54c1 173e 07eb dc3d
00000370: 0a83 33be 7047 07be 6bb9 c0bd 7d84 0cbe
0.053788263 -0.081800096 0.00044467032 -0.118456684 0.15012752 -0.041042104 -0.03288299 -0.12556398
-0.15280919 0.09743873 0.025521223 -0.019073922 -0.086142264 -0.16542517 0.003719137 0.08844027
0.13459437 0.09937944 0.13591939 -0.0630067 0.030234331 -0.1066008 0.09910578 0.050216243
-0.02604081 0.18173987 0.16132516 -0.11187485 0.035792008 -0.120516606 0.02855679 0.06434154
0.18590537 -0.048234288 -0.031469427 0.06961858 -0.07448673 -0.096186 0.100707486 0.14873962
-0.029709019 -0.0517939 -0.12291448 0.17341247 0.065061204 -0.10310483 0.1005494 -0.13517481
0.091935374 -0.1239143 -0.044101126 -0.14370921 -0.043515388 0.08548447 0.116652004 0.15855698
-0.05127851 -0.053532034 0.11812497 -0.0008353927 0.012980744 -0.08485473 0.057433367 -0.004621357
0.16559584 -0.10664665 -0.16419043 -0.12142486 -0.16130774 -0.1469622 0.063749164 -0.09441568
0.10234549 -0.16466999 -0.160998 -0.0901546 0.054190572 0.036779303 -0.09512747 -0.114313535
-0.10898108 0.0520985 0.13481537 0.051599976 0.079289116 0.15264526 -0.10909224 -0.094643086
-0.1727653 0.059494965 0.15211461 0.14591643 -0.12545033 0.030761179 -0.123405166 -0.044956915
-0.06523435 0.059988778 -0.0003983088 0.03797349 0.097517915 -0.110088475 -0.15861993 0.074242935
-0.11542239 0.10888524 0.17342994 0.15792798 0.17886099 0.026241586 0.0709122 0.05124416
0.10914335 -0.12794642 -0.11424784 -0.13708279 0.06363372 -0.06932815 -0.123741135 0.079771675
0.1489998 -0.11135759 0.16062622 -0.14527576 -0.1653303 0.18428546 -0.0043184194 0.01749915
0.078353815 0.11213901 0.1141579 -0.014538534 -0.031461727 0.10177803 0.02298442 0.05023885
0.041234728 -0.052469835 0.0070575317 0.07267678 0.16460648 0.008218164 -0.12743129 0.0972922
0.1591431 0.1603098 -0.103937134 -0.054829746 -0.11821312 0.038326193 0.025754105 0.11145184
0.038499247 -0.019161455 -0.057601847 -0.13969266 0.08201661 0.14388837 0.046045385 -0.087096944
-0.0944355 0.031134643 0.080068305 -0.07352574 -0.08868244 -0.07496206 0.061048623 -0.1525111
0.13259497 0.1369824 0.045178745 -0.07863802 0.06346182 0.011083753 0.04081644 -0.059208605
0.053550214 0.16238965 0.16431007 0.019031547 0.035351634 -0.1590738 -0.0025405346 -0.08254736
0.09434458 0.08687137 -0.061571267 0.061901137 0.0794102 -0.048109982 -0.14939936 0.17426802
0.16447079 -0.1775626 -0.012959123 -0.037074454 0.1374038 0.12524313 -0.088471785 0.17067827
-0.09886053 0.11716551 0.034870237 0.047329087 -0.086824566 0.039244518 -0.047902573 0.063345596
-0.16318378 -0.11587556 -0.07910875 -0.057435963 -0.08338023 -0.09845959 0.14536647 -0.079965
0.038075928 -0.049313143 0.14819843 0.107870154 -0.17530456 -0.13210845 -0.09410366 -0.13722415

actor.2.bias f4 [7]
00000000: 3444 dbbc 1a6b 153e 9101 15be 1dcd fabd
00000010: 47cc 003e 89b4 293e c857 d1bd
-0.02676592 0.14591637 -0.14551379 -0.122461535 0.12577926 0.16572775 -0.10221821

critic.0.weight f4 [32, 64]
00000000: 22cc 7c3d 701a d13c 5ad0 293d a22c d9bd
00000010: a4f8 41bd c796 a6bd 7553 4b3d f76c 4bbb
00000020: acd2 dbbd 1ec1 5ebd 41aa 07bd c5d8 76bc
00000030: f39e 8ebc f15b 49bc 809f d1bd 5dd5 b3bb
00000040: 1ce5 bf3c e6f5 12bd 4fba c8bc 67dd ccbd
00000050: 2eef 943c ba81 c4bd 634a 70bd 4820 ba3c
00000060: 46d7 8bbd 58a6 9ebd 03a5 7e3d ef21 f2bc
00000070: 9584 783b 195c d53d 040b aabd 50e2 25bd
00000080: 28c4 0b3d 025f c93d eca9 04be 2065 b13c
00000090: d3b0 c6bd 3934 923d b09e 553c 2a5a 6fbd
000000a0: 4064 e63d 9ed0 9abd 281e 44bd 2ab5 8c3d
000000b0: 1015 0b3d c7f8 d23d e2b1 a13d 3266 e3bd
000000c0: 3467 ad3d 3e4e ae3d a4ef dc3d 9486 ed3c
000000d0: b29e a3bd f6bb 87bd 628c 103d 41d4 a6bd
000000e0: b3f5 6bbd eba8 c93c 5cca e03d 20d6 debd
000000f0: feb8 ac3d 3185 85bd 0ef0 a3bd 006a 43bd
00000100: 547c b7bc bccb cd3d 00e3 bf3d d474 a0bd
00000110: 687f 29bd 4e86 283d 1161 f83d 9733 a2bd
00000120: 379a b3bd 7605 bdbd 31a5 eb3c 7a00 dbbd
00000130: bd69 f23d 0e51 febd 5742 1bbd 5e39 e2bd
00000140: 9b1d e33d dc26 8fbd 725a fbbd 14e7 923d
00000150: 7d42 7ebd d810 40bd 55c1 f5bd e444 95bd
00000160: fc68 893d f560 3c3d 5438 ac3d abc9 d83d
00000170: 51ff e13d a6c7 293d dc97 fabd 42b4 e6bd
00000180: 9253 8ebd 8451 91bd 9b9a ab3d 26f1 81ba
00000190: f9e6 4fbd 62ab ba3d 0c50 ff3d 4f5b dfbd
000001a0: bc0a e93d 176f ca3d 5731 89bd f008 8a3d
000001b0: f752 88bd 5862 033d c689 64bd b273 e2bc
000001c0: 5df3 a93d 7cb4 4f3c 7ba5 c73d 1fbe b4bc
000001d0: a5b2 ff3c a149 fdbd 0fcb ebbc 6ab9 c3bd
000001e0: 67d3 cc3d a70b c33d 20bb 28bd 346c 9a3d
000001f0: 8c87 b3bd 816e 4cbd 4006 55bd 0083 3abb
00000200: a7c6 843d e490 193d ec3b f33c d260 8e3c
00000210: bba7 a23d 6a99 c83d f426 e23d 16fa 273b
00000220: b953 8dbd e4bb 923d 800b 133d adfc 5ebb
00000230: 4117 20bd 0c6b 013d b2d6 a0bd 1bf7 98bc
00000240: 050c cb3d 4d19 e13d 6766 f33d 0488 953d
00000250: 99de 8ebb 9ef0 c23d 0fd9 7e3d 8096 2dbc
00000260: ed94 793c d14a 713d 3af2 b5bd fb14 dc3d
00000270: 2c07 7bbd ccb6 8fbd f534 8d3d 5477 f9bd
00000280: 4005 d83b b8a5 c6bd 779c 49bd 41f3 92bd
00000290: b9ad e13d 0763 e2bd 9657 fbbd f0c0 babc
000002a0: c011 383d 799c cbbd a0c9 0d3d d413 8fbd
000002b0: 28bc b03d 4c10 67bd 3f28 b53d e1a3 cbbd
000002c0: a0cc 5d3d aae7 b1bd c90a 21bd 4060 123d
000002d0: e688 91bd 9263 e33d a331 cdbb 141a 4e3d
000002e0: 0b86 7c3d c2ae 88bc 84fe 3d3d 76c9 c9bd
000002f0: 6877 f8bd 9db0 173d f023 f63c ab6d eabd
00000300: 6015 74bd 8c7c 6e3d 054d 1a3d 5fed 033d
00000310: 12f9 39bd 7998 083e 9222 923d fdf0 0abc
00000320: 74d5 e9bd 110c ee3d f01a 7cbc 9013 023e
00000330: 9a66 f1bd 0548 e6bc a2ef fc3c ca47 f33d
00000340: 02ca 063e 882b ad3d dc03 44bd f3d5 bf3d
00000350: 4b30 f63d 0a0a ab3d 8838 ef3c 441e 33bd
00000360: 289f c0bd 0165 99bd 14eb 023d bdf5 1ebd
00000370: eec1 f93d 97bc efbd a1bd b83c c863 863c
00000380: 2445 023d 4805 8e3d 2d6a c23d 6447 5f3d
00000390: 3c9a 813d c6a4 833d aa9e ed3d 32db 24bc
000003a0: 9005 3fbd 4c45 1f3d 7abb bb3d 987b 51bd
000003b0: ec0a bd3d 66d4 043e ec44 a63d adec c43d
000003c0: 83f5 cdbd c96f debd 567b b2bd 20bc c03b
000003d0: 5e44 d2bd ac17 dbbd 573b 50bd 3dde e8bd
000003e0: f3a3 e93c 62ba efbc f8ad b23d 7c55 5ebd
000003f0: 7858 eb3d fb81 b03d 424f dd3d 6085 43bd
0.061718114 0.025525302 0.041458465 -0.10604216 -0.047356263 -0.08134227 0.049640138 -0.003104029
-0.10733542 -0.05438339 -0.03312135 -0.01506633 -0.017409777 -0.012289987 -0.102355 -0.0054880814
0.023424678 -0.03587904 -0.024502901 -0.10003167 0.018180456 -0.09595056 -0.05866469 0.022720471
-0.068281695 -0.07746571 0.062169086 -0.029557196 0.0037920822 0.10417957 -0.08302882 -0.04049903
0.034122616 0.098325744 -0.12955445 0.021654665 -0.09701695 0.07138867 0.013038322 -0.058435597
0.1124959 -0.07559322 -0.04788032 0.06870492 0.033955634 0.10301357 0.078952566 -0.111034766
0.0846695 0.08511017 0.10787895 0.028994836 -0.07989253 -0.066276476 0.03529013 -0.08145953
-0.057607364 0.02461668 0.10976097 -0.10880685 0.08433722 -0.06519545 -0.08004771 -0.04770851
-0.022398151 0.10048625 0.09369469 -0.07834783 -0.04138127 0.041143708 0.12127889 -0.07919996
-0.087696485 -0.09229557 0.028765293 -0.1069345 0.11836574 -0.12417804 -0.037905063 -0.11046098
0.11089631 -0.06989834 -0.122731104 0.07172981 -0.062075127 -0.046891063 -0.11999766 -0.072885305
0.06709477 0.045990903 0.08409181 0.1058534 0.11035026 0.041450165 -0.12235996 -0.1126485
-0.069495335 -0.07095626 0.08379098 -0.0009913787 -0.050757382 0.0911472 0.124664396 -0.109060876
0.113790005 0.0988447 -0.06698864 0.06739986 -0.06656449 0.03207621 -0.055795453 -0.027643058
0.08298371 0.012677308 0.0974836 -0.022063313 0.031213114 -0.12367559 -0.02878335 -0.09556849
0.10001259 0.09523707 -0.04119408 0.07540169 -0.08766088 -0.049910072 -0.052007914 -0.002845943
0.064832024 0.037491694 0.029691659 0.017380152 0.07942148 0.097948864 0.11042586 0.002563124
-0.069007345 0.071647435 0.03589964 -0.0034025118 -0.039084677 0.03159623 -0.0785345 -0.018672517
0.09914402 0.10991154 0.11884766 0.073013335 -0.004360032 0.0951855 0.062218722 -0.010594964
0.015233261 0.05890924 -0.08884092 0.10746189 -0.061286137 -0.070172876 0.068948664 -0.12180963
0.0065924227 -0.09699577 -0.049221482 -0.07175303 0.11019463 -0.11054044 -0.12272565 -0.022797078
0.044938803 -0.09941954 0.034616113 -0.06986204 0.08629638 -0.056412026 0.08845567 -0.09943367
0.054150224 -0.086867645 -0.039316926 0.035736322 -0.071061894 0.11102976 -0.0062620207 0.05031784
0.06165127 -0.016684894 0.046385303 -0.09852879 -0.1213215 0.037033666 0.030046433 -0.11446699
-0.059590697 0.058224246 0.037671108 0.032208797 -0.045403548 0.13339414 0.071355 -0.008480308
-0.11417666 0.11623395 -0.015387282 0.12702775 -0.11787148 -0.028110513 0.030875985 0.11878927
0.13162997 0.084555686 -0.047855243 0.093669794 0.1202093 0.08351524 0.02920176 -0.043730035
-0.09405357 -0.07489968 0.03196247 -0.038808573 0.12195192 -0.117058925 0.02255136 0.016405001
0.03180422 0.06934601 0.09492908 0.054511443 0.06328246 0.064279124 0.116025284 -0.010062026
-0.046636164 0.038884446 0.09166618 -0.05114326 0.09230599 0.12971649 0.081186146 0.09615455
-0.10056593 -0.10861165 -0.08714931 0.0058818012 -0.10266946 -0.106978744 -0.05083784 -0.113705136
0.02852056 -0.029263679 0.08724588 -0.054280743 0.114914834 0.08618542 0.10806133 -0.04773462

critic.0.bias f4 [32]
00000000: 64ca eb3d ec43 8c3d b2cd 61bd c3ce 833d
00000010: 1f7f cc3d b9b4 2ebc 307e 2bbd 56aa edbd
00000020: 6e5b c43d 1f8b 953d 4c04 cebd d680 aabd
00000030: 186f f2bc 0632 f8bc 676b e23d dfc1 46bd
00000040: 83e0 923d 184c f7bd 4865 efbc 0fb0 6bbd
00000050: e9ab 693d 19f8 553d 2c14 b5bc 1330 193d
00000060: 97fc c53d e89a 9abc 8a4a e3bd d05e b5bc
00000070: abfb b73d 1c56 ccbd cebf ddbd 0a10 ce3c
0.11513212 0.068488926 -0.055127807 0.06435921 0.09985184 -0.010663205 -0.04186839 -0.116047546
0.09587751 0.07301926 -0.10059413 -0.08325355 -0.02959399 -0.03029729 0.110556416 -0.048524734
0.071717285 -0.120750606 -0.0292231 -0.05754095 0.057048712 0.052238557 -0.022104345 0.037399363
0.09667318 -0.018872693 -0.110982016 -0.022139937 0.08983549 -0.099773616 -0.108275995 0.025154132

critic.2.weight f4 [1, 32]
00000000: 9314 08be c08b 13be 2f40 01be 246f c43c
00000010: 43d8 913d 184b 53bd 1563 ff3d a911 b4bc
00000020: 700c e23c 6be8 2e3e e798 d03c 0c31 15be
00000030: 0797 2ebd 4533 18be c060 023e 8e2d d9bd
00000040: 45e4 8fbd 36cc ca3d c0ad 15be 74ef 093d
00000050: a934 d4bb 3975 ec3d b080 79bd cd54 063e
00000060: f00a 1f3e 3a07 033e 9792 d5bd 5294 f3bd
00000070: 405a 14be 5690 103e 5336 c83c 0ede 863d
-0.13289098 -0.14408779 -0.1262214 0.023978777 0.07121327 -0.051585287 0.1247007 -0.021981077
0.027593821 0.17080848 0.025463535 -0.14569491 -0.0426245 -0.14863308 0.1273222 -0.10604392
-0.07025961 0.099022314 -0.14617062 0.033675626 -0.006476004 0.11545796 -0.06091374 0.13118286
0.15531516 0.12795725 -0.104283504 -0.11893524 -0.14487553 0.1411756 0.024439966 0.06585322
