src/franka_h2/scripts/RL/pth/arm_ppo.pth (torch, 67506 bytes, 11 tensors)

shared_layer.0.weight f4 [128, 24]
000000 de 27 05 bc c2 79 db 3d ef 08 d8 3d a1 41 a5 bd
       -0.008127181 0.10716583 0.10548579 -0.08069158
000010 b0 60 c5 3d e3 05 c4 3d 32 ba 10 3d cc a0 1e be
       0.09637582 0.09571435 0.03533382 -0.15491027
000020 1c c0 26 3e c9 3d 44 be 13 c7 38 3e 09 d8 44 3e
       0.16284221 -0.19164194 0.18044691 0.19223036
000030 cb 35 4d 3e ef e8 a4 bd 22 99 56 39 5d 28 04 be
       0.20040052 -0.08052241 0.00020465677 -0.12906022
000040 63 c9 9f bd b1 7f db 3d 71 9d 11 3d b3 a0 04 3e
       -0.07802083 0.107177146 0.03555054 0.12951927
000050 b1 28 10 3e 27 32 b4 bd f2 5e 71 bb c6 d2 a6 3d
       0.14078023 -0.08798628 -0.0036830273 0.081456706
000060 af 3a 32 be 48 db 12 be c3 a2 f7 3d 68 6d 4c 3e
       -0.17405199 -0.14341462 0.12091591 0.1996361
000070 61 87 b4 3d eb 98 87 3d b7 d1 51 3d 0f 02 15 be
       0.08814884 0.06620964 0.05122539 -0.14551567
000080 cb 9a 7a 3d 3f a6 d7 3c f1 c8 46 3d c6 36 83 bd
       0.06118278 0.02632439 0.048531476 -0.064069316
000090 cb b2 29 3e de 9d ad 3d 34 d8 27 be ab c5 7f 3d
       0.1657211 0.084773764 -0.16391069 0.06244437
0000a0 f7 16 ba bd 82 8e 23 3d 7f 31 38 bb 41 15 36 bd
       -0.090864114 0.039930828 -0.0028105674 -0.044453863
0000b0 84 7e 4c 3e 38 6a c0 3c ad a8 8c 3d 26 9e 26 be
       0.19970137 0.023488149 0.0686811 -0.16271266
0000c0 28 c0 84 3e 59 a0 a7 bd 5c c9 7b 3e 78 d4 ff bc
       0.25927854 -0.08184881 0.24588531 -0.031229243
0000d0 4e a5 f0 3c d8 35 4a 3e e5 f1 02 be 76 4e d3 bc
       0.029375698 0.19747102 -0.12787588 -0.025794249
0000e0 87 1b fe bd 18 8f 4d bd a7 e5 57 be bd ca fd 3c
       -0.12407594 -0.050185293 -0.21083699 0.030980462
0000f0 ef a0 af 3c ec 75 35 3e f6 bf e6 bd 5e 02 22 3e
       0.021439044 0.17720765 -0.112670824 0.15821216
000100 d9 2b 5b 3c 24 86 33 bd b0 75 ba 3d 92 be fb bd
       0.013377153 -0.0438291 0.09104478 -0.12292208
000110 98 2d 3d 3e 9e a1 71 bd 82 57 85 3e 9a 14 86 3d
       0.18474424 -0.05899202 0.26043326 0.06546898
000120 6f 21 29 3e cd b0 79 3e cd dd f2 3d c6 02 86 be
       0.1651666 0.2438385 0.118587114 -0.2617399
000130 b7 2a 8b 3e e3 de 84 3e d6 63 a9 bd f9 3d 96 3d
       0.27181026 0.259513 -0.08270995 0.07336039
000140 16 f2 04 be ff 41 43 3e 60 28 07 be a0 9e dd 3d
       -0.12982973 0.19068144 -0.13198996 0.10821271
000150 2d 51 75 bd 90 ad 15 be 0f 66 31 be 1c 98 1f 3e
       -0.05989187 -0.1461699 -0.17324089 0.15585369
000160 a4 90 d4 bd 76 2b 33 3e c5 21 e5 3d 7f 4a 9d bc
       -0.103791505 0.17497048 0.11188082 -0.019200562
000170 92 fb 6d 3e 12 ed bb bc f3 5d 5e 3e c5 66 5f bd
       0.23240498 -0.022940192 0.21715526 -0.054541368
000180 7a d0 66 3d c2 7b d4 bd 3f 10 2d 3d f5 70 ac 3d
       0.056351162 -0.103751674 0.04225182 0.08419982
000190 cb 1e 8d 39 a4 30 15 3e b3 81 60 3d 66 ea 1c be
       0.00026916558 0.14569336 0.05481119 -0.15323791
0001a0 67 80 a2 3d 4e b3 1c bd c1 07 cf bd 6a 75 3f 3d
       0.07934647 -0.038256936 -0.10108901 0.046742834
0001b0 7f 6b 29 be 9d dd 93 bd 37 ca 13 3d d2 ea f6 bd
       -0.16544913 -0.07220004 0.03608152 -0.12056507
0001c0 c9 72 f3 3d 41 49 de 3c ec 4a 4a 3e fd 20 c0 bd
       0.11887128 0.02713454 0.19755143 -0.09381292
0001d0 96 09 37 be 80 cc 22 3e 69 8d b5 3d 3d 47 ba 3d
       -0.1787475 0.15898323 0.088648625 0.09095619
0001e0 ed a4 d9 bd 5b 3b fc bd 98 05 ed bd 88 e5 8b bc
       -0.1062716 -0.12316009 -0.115733325 -0.017077222
0001f0 d8 62 08 3e b5 4f c0 3d 37 73 72 bd 9d 40 32 3e
       0.13318956 0.09390203 -0.05919191 0.1740746
000200 10 42 8b bd 47 25 2c 3e fd a1 1b bd a1 91 4f bd
       -0.0679971 0.16811095 -0.03799628 -0.050675992
000210 ba 73 9f bd 20 65 c7 3d 43 3f c5 bd 07 d6 6d 3e
       -0.07785745 0.09736085 -0.09631207 0.23226176
000220 22 83 6d 3e 08 16 31 3e 9c 22 02 3e 45 10 39 bc
       0.23194554 0.1729356 0.12708515 -0.011295383
000230 38 73 4c 3d e3 fb 5f 3e 01 b6 4a bd da 54 b1 3d
       0.04991457 0.21873431 -0.04948998 0.08658762
000240 5f 29 91 bd 42 0e c5 bc 71 bb b2 3b e0 a9 41 be
       -0.07087969 -0.02405465 0.0054544737 -0.18912458
000250 9a 53 3f 3e 4f 83 76 3e 8f f2 a3 bd fc e0 10 be
       0.18684235 0.24073528 -0.08005249 -0.14148325
000260 98 33 9c 3d 6b 89 8e 3b 8a 63 31 be 53 d7 2a bd
       0.07627028 0.0043498776 -0.17323127 -0.041709255
000270 d9 6e 10 3d 34 4e 12 3d 3d 40 55 3e b1 80 38 bd
       0.035261963 0.03571911 0.20825286 -0.045044605
000280 5e 2f 2a be ee 38 1b 3e 36 7b 22 bd 4f b6 16 3e
       -0.16619632 0.15158436 -0.039668284 0.14717983
000290 0e 49 a0 bd 5f 89 51 3e 81 5d 37 3e c9 18 70 3c
       -0.07826434 0.20462559 0.17906763 0.014654347
0002a0 8e bb 03 3e b7 34 27 be d5 63 f6 3d e5 89 9c 3d
       0.12864515 -0.16328703 0.1203076 0.07643489
0002b0 66 d1 02 3d 75 3e 94 bd 26 2c 3d 3c 88 87 0e be
       0.03193798 -0.07238475 0.01154617 -0.13918889
0002c0 f5 2f 96 bd e8 87 09 3e 56 06 73 bd 5a 0e ee bd
       -0.07333366 0.1343075 -0.059332214 -0.11623831
0002d0 0a f3 be bc 5c 43 f2 3d 2a 81 1a be d1 4f 10 3d
       -0.02330925 0.11829254 -0.15088335 0.03523237
0002e0 48 e2 d8 3c 5c eb da bd f7 7f 5a bd cd 52 4c 3e
       0.026475087 -0.106894225 -0.053344693 0.19953461
0002f0 61 83 47 3e f3 7a 95 3c a6 4a 0c be 86 17 25 be
       0.19483711 0.018247103 -0.13700351 -0.16122255
000300 3a f9 40 3e 8e 9d d8 3d f1 b0 c0 bd 61 05 87 be
       0.18845072 0.10576926 -0.09408749 -0.2637129
000310 b0 c6 87 3e 3a e8 ae 3b c4 b0 88 bd 75 ed 0a be
       0.26518774 0.005337742 -0.0667434 -0.13567145
000320 ab 94 0d be f1 5e b7 bc e6 00 a9 3d 28 f0 2b be
       -0.13826244 -0.022384139 0.082521245 -0.16790831
000330 c0 b0 4c bd 35 64 c5 bd 0a a3 fe bd fd 6a 11 be
       -0.04997325 -0.096382536 -0.12433441 -0.14200969
000340 86 72 f2 bc 85 94 9d bd 9d a6 c1 3d e6 69 37 be
       -0.029595625 -0.076943435 0.09455607 -0.17911491
000350 13 0a d6 bd 47 11 01 be 3a a1 a2 bb 8d 5e 06 be
       -0.1045114 -0.12604247 -0.0049630674 -0.13122006
000360 e1 89 2f be a7 2c bf 3c 9b 8a 19 be a9 3c 0b be
       -0.1714244 0.023336722 -0.1499428 -0.13597359
000370 eb 9f f7 3d dc e0 a3 3d 1d 7f 32 3d c7 14 9a bd
       0.12091049 0.08001873 0.043578256 -0.07523494
000380 ce c6 91 3d 2d b7 a5 3c a0 6a 2e 3e 26 19 dd 3d
       0.07117997 0.020228947 0.17032862 0.10795812
000390 b9 51 03 be c9 6b ea bc e0 a0 a6 3c 9b a9 64 bd
       -0.12824143 -0.02861585 0.020340383 -0.05582581
0003a0 5a 93 08 3d ef 7a 3a bc 6b 55 3c 3e ff ef 9b 3c
       0.03334365 -0.011381849 0.1839196 0.019035337
0003b0 12 b8 fc bd 38 6d 2b 3e e4 ca 49 be be 61 4a be
       -0.12339796 0.16740882 -0.19706303 -0.19763848
0003c0 f4 a1 eb bd 16 25 45 bd cc 65 1f be 15 bb 8d 3d
       -0.115054995 -0.04813107 -0.15566176 0.06920449
0003d0 c5 8d 32 be 53 fd 15 3e 58 47 3d 3e 6e 72 f5 3d
       -0.17436893 0.14647417 0.18484247 0.11984716
0003e0 70 ec 21 3d 4a 0f 0e 3e d8 62 f3 bd f3 c0 76 3d
       0.039532125 0.1387302 -0.11884087 0.060242604
0003f0 75 c2 f5 3d 60 86 0e 3b 4c 5d 4b be 52 24 c4 3d
       0.1199998 0.0021747574 -0.19859809 0.0957724

shared_layer.0.bias f4 [128]
000000 29 e3 60 3e c3 fe 0d be d3 06 2c 3e ad 3c 54 3e
       0.21961655 -0.13866715 0.16799478 0.20726271
000010 0c 3b 36 bd 9e 92 a8 3d 72 a6 84 3e 1c 42 d2 3d
       -0.044489905 0.0823109 0.25908238 0.102665156
000020 e2 fc 70 3e fe a0 46 be 2f e8 b4 bd bf 4c 2d be
       0.23533967 -0.19397351 -0.08833348 -0.16923808
000030 3a 74 23 bc fc ff cd 3c e0 b2 15 be e8 c4 3c 3e
       -0.009976441 0.025146477 -0.14619017 0.18434489
000040 24 ff 0c be d9 ba 03 be 56 c4 46 3e 66 4f 28 3e
       -0.13769203 -0.12864245 0.19410834 0.16436538
000050 1b 0b fd bc 40 76 e4 bd 11 f8 4a be ca 29 ae bd
       -0.030889085 -0.11155367 -0.19821192 -0.085040644
000060 55 0e 9f 3c 61 56 a8 3d a5 5d b3 bc 37 99 57 be
       0.019416014 0.082196005 -0.02189524 -0.2105454
000070 d6 bf 83 3e 04 5c 56 3e 33 99 4e be fc 2d e3 3d
       0.25732297 0.20933539 -0.20175628 0.11092755
000080 d9 be ec bd d2 80 14 3e c0 fe ec bd e0 86 8e bd
       -0.11559839 0.14502266 -0.11572027 -0.06959319
000090 99 c6 e0 bd aa 61 5e bd f0 95 96 3d 8d c2 d8 3d
       -0.109753795 -0.05429236 0.07352817 0.105839826
0000a0 e0 36 b0 bb 01 99 72 bd 90 30 1b 3e 57 b8 f6 3d
       -0.0053776354 -0.059227947 0.15155244 0.12046879
0000b0 40 64 47 3e 87 c4 31 3e 7e 51 4d bd f8 9f 8d 3d
       0.19471836 0.17360125 -0.050126545 0.06915277
0000c0 01 cb 17 be 28 9f 6a bb 41 84 24 be ae b5 4b 3d
       -0.14823534 -0.003580043 -0.16066076 0.04973381
0000d0 0d 1c 45 be 62 81 db 3d f8 59 85 3e 09 bc 1a 3e
       -0.19248982 0.10718037 0.26045203 0.15110792
0000e0 70 a3 b7 bd c5 28 dd bd 5f a0 0c 3e a0 5d 75 3e
       -0.0896672 -0.10798792 0.13733052 0.23961496
0000f0 b1 c1 06 be 54 1e 28 3e fa 8d 5e 3e 85 87 32 3e
       -0.13159825 0.1641782 0.21733847 0.17434509
000100 a4 0e b1 3d 4e f6 96 bd 91 9b 13 be 53 02 1d be
       0.086453706 -0.07371198 -0.14414813 -0.15332918
000110 35 72 d7 3d 48 9b 16 3d 92 e2 71 3e cc a5 b8 bc
       0.1051983 0.03676918 0.23621586 -0.022539996
000120 76 19 ad bb 88 48 18 be f6 c6 70 3b 0d 99 83 3e
       -0.005282576 -0.14871418 0.0036739684 0.25702706
000130 29 6c 1a 3e 50 1a 0b bd 36 70 1e 3e 60 c8 9f bd
       0.15080322 -0.03396064 0.15472493 -0.078018904
000140 9c ea 15 3e b3 57 16 3e 85 8b 21 3e df 80 e7 3d
       0.14640278 0.14681892 0.15775879 0.11303877
000150 f8 e6 2f 3e 70 30 33 be a2 03 23 3e c9 66 d2 3c
       0.17177951 -0.17498946 0.15919355 0.025683777
000160 7a 6c 51 3e 6d 38 f6 3d 1c 84 42 3d cf 3a 0f be
       0.20451537 0.12022481 0.04748927 -0.13987277
000170 4b 20 81 3e 25 e6 37 3e 01 2a 32 3e f7 fb 24 bd
       0.2521995 0.17958887 0.17398836 -0.040279355
000180 7e 0a f4 3c b1 dd 36 be 7a 2b 6c bd 77 79 0a 3e
       0.02979016 -0.17858006 -0.05765865 0.13522898
000190 7c 4f 2c bd 02 60 20 3d 4b 9a c4 bd 35 50 64 3e
       -0.04206799 0.03915406 -0.095997415 0.22296222
0001a0 24 42 c3 bd 3c 7e 10 bb ef eb 28 bd b8 8e fb bb
       -0.095341 -0.0022047898 -0.04124063 -0.0076769255
0001b0 a0 2e c1 3d 7b a3 57 3e 14 6a 4d bd 62 40 4a be
       0.09432721 0.21058457 -0.050149992 -0.19751123
0001c0 43 6b 8b bd 8e 99 15 be 1e 90 70 3e 35 7c 25 3d
       -0.06807568 -0.14609358 0.23492476 0.040401656
0001d0 65 43 73 3e b1 0f 76 3e 06 12 01 be b1 94 e4 bd
       0.23756178 0.24029423 -0.12604532 -0.11161173
0001e0 f9 38 f8 bd b9 9e d7 bd c1 90 86 3e c0 7f 50 3d
       -0.12120242 -0.10528321 0.26282313 0.050903082
0001f0 23 80 24 3e 9d 3a 8a 3d 2f b9 2d 3e 7e db 21 be
       0.16064505 0.06749461 0.16965173 -0.15806386

shared_layer.2.weight f4 [64, 128]
000000 1a 8e 93 3d 54 3e 95 3d c0 48 18 bd f1 e7 ae bd
       0.07204838 0.07287279 -0.037178755 -0.08540333
000010 97 67 98 bb ba 35 55 3d 28 bd 92 bd fc 73 31 3c
       -0.0046510207 0.05205319 -0.07164985 0.0108308755
000020 6a f5 17 3d bc 3c 26 bd f7 b8 d4 3c 0e 58 a1 3d
       0.03709928 -0.040585265 0.025967104 0.07878123
000030 a5 3c 2f 3d d0 77 2e 3d e8 42 12 3d f1 2a a5 bd
       0.042782445 0.04259473 0.035708338 -0.08064831
000040 f7 31 0a 3a 26 1d 63 3b ae d7 8d bc 5e 71 72 bd
       0.00052717276 0.0034654825 -0.017314758 -0.059190147
000050 71 5e 16 3d 1a 7e e0 bc ba b0 ba bc 03 c8 59 bd
       0.03671116 -0.02740388 -0.022789348 -0.05316926
000060 50 0e f5 3c 97 c5 f9 bc 51 54 dc bb ca f9 fc 3b
       0.029914051 -0.030489726 -0.0067239185 0.007720207
000070 58 2a 27 3d 59 9f 7b bc 8d 6d 89 3d 39 22 60 3c
       0.040811867 -0.015357816 0.06710348 0.013680034
000080 fb df a5 bd 4e 4b 20 3d e7 24 61 bd 11 00 35 bd
       -0.080993615 0.039134316 -0.054966833 -0.044189516
000090 d9 69 56 3d 59 42 5d bd 55 1b 29 3c 93 b3 02 bd
       0.052347038 -0.054018352 0.010321458 -0.031909537
0000a0 e0 43 a2 bd b0 b2 76 bd 7e f8 6e 3c fd 72 10 bc
       -0.079231024 -0.060229003 0.014585612 -0.008816478
0000b0 fc c2 b5 bc 7a 08 26 3d d6 59 a3 3d 68 2b 10 3d
       -0.022187702 0.040535428 0.07976119 0.035197645
0000c0 93 e6 9d 3d 46 c7 b0 3c 06 fa b2 3c 2a 91 48 3d
       0.07709994 0.021579396 0.021847736 0.048966564
0000d0 58 74 93 3c 8d e6 37 3d 78 6f a2 bc 33 39 ad 3d
       0.017999813 0.044897605 -0.019828543 0.084581755
0000e0 50 22 8c 3c 9b a5 83 bd 5d 5d 97 3d 4a be 4c bd
       0.017106205 -0.06428071 0.073908545 -0.04998616
0000f0 73 5f 7a bd 95 87 a2 3d 3a 69 e7 3c fd c9 39 3c
       -0.061126184 0.079360165 0.028248418 0.011339662
000100 2b 11 7d 3c ea 07 52 bd ee d7 96 3d cb da 7f 3d
       0.015445988 -0.05127708 0.07365404 0.062464517
000110 74 bf 58 3d 6a 0d 17 bd 92 e6 8a bd 3d 79 80 bc
       0.05291696 -0.036878027 -0.06782259 -0.01568281
000120 04 d9 89 bd 62 ed ed bc ec a0 a6 3d 90 e9 83 3b
       -0.067308456 -0.029043857 0.08136162 0.0040256456
000130 47 46 ab 39 b7 c7 4a 3c db 7b 56 3c 68 89 6a bc
       0.00032668022 0.012376717 0.013091053 -0.014314987
000140 88 4e 40 bd 4e 3e 6d 3d 54 23 5a bd 5e ce 58 bd
       -0.046949893 0.057920747 -0.053256348 -0.052931182
000150 75 83 0d bd 28 ea a3 3d 04 42 8e bd 5f 55 99 3d
       -0.034549195 0.08003646 -0.06946185 0.07486986
000160 1f a5 39 bd 93 04 bd bc 2f 95 36 bd 5a 0b b2 3c
       -0.045323487 -0.02307347 -0.044575866 0.021733928
000170 76 aa a2 bd 19 9c 49 bd 25 c6 1c 3d 3e 15 96 bd
       -0.07942669 -0.049221132 0.038274903 -0.073282704
000180 e2 e4 a5 3d a7 7d 79 bd 94 f1 65 bd 13 2e a4 3d
       0.081002966 -0.060910847 -0.05613859 0.080166005
000190 66 cc d2 3c 64 fd 99 bd 30 7d 18 bd e9 41 3e bc
       0.02573223 -0.075190336 -0.037228763 -0.011612394
0001a0 be cf 1a bd f0 0d f9 bc 31 61 40 3c ed 7e 4e bd
       -0.037795775 -0.030402154 0.011741922 -0.050414015
0001b0 81 68 a2 bd 71 07 64 3d 8f 36 8b 3c a6 ce 42 bd
       -0.07930089 0.05567116 0.016993789 -0.047560357
0001c0 ac fa f8 bc 76 65 ae bd 4a e4 2c 3b 56 f2 70 ba
       -0.030392967 -0.08515446 0.0026381188 -0.00091913843
0001d0 a7 5b 19 3d 02 bd 3d bd d0 b4 9f bd 58 81 37 bc
       0.037440922 -0.04632283 -0.07798159 -0.011200272
0001e0 a6 8f a5 3d 48 2d a5 bd 43 4e 32 bd b3 a8 a2 3d
       0.080840394 -0.08065277 -0.043531667 0.07942333
0001f0 95 1f 4f 3d e0 5a 97 bd d0 b7 40 3d ec b1 6c 3d
       0.05056723 -0.0739038 0.047050297 0.057786867
000200 31 14 4e bd 10 f3 e4 3c 5b 17 2c bd 0d 28 22 3d
       -0.050312225 0.027947932 -0.04201446 0.039588977
000210 64 79 9e bd 81 b1 6f 3d cf ad 53 3c 98 f0 1e 3d
       -0.07737997 0.05851889 0.012919857 0.038803667
000220 18 26 a3 bd f3 5f 58 bd 04 19 91 bd b0 d1 6e bb
       -0.0796625 -0.05282588 -0.070848495 -0.0036440901
000230 29 7a af bd 4b 15 8a 3d db fa 7d bd ae 26 0a bd
       -0.08568222 0.067423426 -0.062006813 -0.033728294
000240 f0 99 a1 bd 05 12 8f bd 56 82 30 3d 32 ab c5 3c
       -0.078906894 -0.06985859 0.043093048 0.024129484
000250 01 7a 27 3b 5f ae 85 3d 4e 32 3b bd 27 ae 87 3d
       0.0025554898 0.06527399 -0.04570227 0.06625014
000260 cf 08 b1 3c 40 92 f6 3c fb 59 30 bd 6e 86 50 bd
       0.021610646 0.030099034 -0.043054562 -0.050909452
000270 bc e1 25 bd be b1 ab 3b dc ba 2d bd 3d fc c9 b8
       -0.04049848 0.0052396944 -0.04241453 -9.63141e-05
000280 c5 11 6f bc ea 37 a0 3d 35 21 8b 3d 99 1a eb bc
       -0.014591639 0.07823165 0.06793443 -0.028699206
000290 c3 12 a5 3d b5 a4 29 3d a2 a7 b0 bd 2a 94 ad 3d
       0.08060219 0.041416842 -0.086257234 0.08475526
0002a0 d4 b1 e1 3b f7 59 14 bd 62 8a 82 3d 43 fd 62 bd
       0.006887654 -0.03621861 0.06374051 -0.05541731
0002b0 c3 dc f2 bc 74 87 0a bd 2e de 89 3d 20 c6 6f bd
       -0.029646283 -0.033820584 0.067318305 -0.058538556
0002c0 0f 71 6a 3d 82 f4 eb bc 3c 11 39 bd c6 12 97 bd
       0.057236727 -0.028803114 -0.04518245 -0.073766276
0002d0 9e 3a a1 3d ef e7 42 3c de ef 5d 3d e8 4e 9b bd
       0.078725085 0.011896118 0.054183833 -0.075834095
0002e0 25 8a 49 3d 82 38 21 bd 37 92 a5 3d 9b 1e ab 3d
       0.04920401 -0.03936053 0.08084529 0.08355447
0002f0 9a 6a 77 3c 41 0b d1 bc cd a6 e8 3c f0 29 3a 3b
       0.015101099 -0.025518062 0.02839985 0.0028406344
000300 e9 7e 4c bb bd c6 ad 3d e8 03 7d 3d cb 17 a8 bd
       -0.0031203574 0.08485172 0.061771303 -0.08207663
000310 9e 71 a0 3d 8e 1a c0 bc a8 96 52 bc 1f f1 b4 3d
       0.07834171 -0.023450162 -0.012853302 0.08835053
000320 f4 84 21 bb 09 8c b4 bc 47 ea 8b 3d c1 94 ec bc
       -0.0024645897 -0.02203943 0.06831794 -0.028879525
000330 4b d4 90 bd 60 be d8 bc c6 f6 85 bd 09 f3 13 3d
       -0.07071742 -0.026457965 -0.06541209 0.03612045
000340 74 01 a1 bd 76 6a 8a bd 4a 4b 17 bd 85 34 55 3d
       -0.07861605 -0.06758587 -0.036937036 0.05205204
000350 d0 82 b7 bd bc 57 1e bd 0b 9a a9 bc 97 ee 82 bc
       -0.089604974 -0.03865789 -0.020703336 -0.01598291
000360 d8 38 9c 3c 4a 7a 98 3d fb b6 7b bd 75 d5 88 3d
       0.019070074 0.074452 -0.0614538 0.06681339
000370 79 f8 53 3c f7 07 b2 bb a3 55 4c ba c7 37 87 3d
       0.0129376585 -0.0054330784 -0.0007794743 0.066024356
000380 09 e4 5c 3d a1 6b 08 3d d2 86 04 bd f8 50 27 bd
       0.05392841 0.033305768 -0.032355137 -0.040848702
000390 5a 69 4f 3d 9a 10 c1 bc 32 0e a2 bc 92 ba 81 3d
       0.05063758 -0.023567487 -0.01978216 0.063344136
0003a0 98 ba 29 3d d3 aa 81 3d b7 a1 e6 bc 4b e2 b1 3d
       0.041437715 0.0633141 -0.028153284 0.0868574
0003b0 e7 34 a9 3c 47 52 07 3d e3 fd 49 3d 91 0d 4c 3d
       0.020655109 0.03303745 0.04931439 0.049817625
0003c0 08 00 c8 bc 08 f8 95 3c ed 1c 57 3d 33 96 a4 3d
       -0.024414077 0.018306747 0.05251782 0.08036461
0003d0 77 50 ae bd ea 90 8a 3d 69 e9 99 bd f2 e8 d3 bc
       -0.08511441 0.067659214 -0.075152226 -0.025867913
0003e0 41 eb 92 bc 8d 42 a8 bd 78 9b cc bc 26 60 61 3d
       -0.017934443 -0.082158186 -0.024976477 0.055023335
0003f0 fe 6a 68 bd c2 ef 41 bd 21 03 6d 3c 1a aa 0b bd
       -0.05674266 -0.04734779 0.014466078 -0.03409777

shared_layer.2.bias f4 [64]
000000 4b de 90 3c 96 5b 46 bc d1 37 9a 3d c7 8d 22 bd
       0.017684123 -0.012106797 0.075301774 -0.03968599
000010 12 ad e5 3d 99 eb c5 39 39 06 10 3e d8 ea d0 3d
       0.11214651 0.00037750302 0.14064874 0.10201043
000020 c1 80 89 bd dd b2 94 3d 74 ad e8 3d 9d bc 32 3c
       -0.06714011 0.07260678 0.113612086 0.010909227
000030 30 da a2 3c 17 f8 a2 3d 0a 1c d4 3d 55 ca 29 3d
       0.01987943 0.07957476 0.103569105 0.041452724
000040 26 34 25 3d 2e 23 17 3d 95 bc da 3c 46 a6 3f 3d
       0.040332936 0.036898784 0.026701251 0.04678943
000050 55 0a 0b bd a4 7a c1 3c d8 ce 4b bd 52 1b d7 3c
       -0.0339454 0.02361805 -0.04975781 0.026258145
000060 07 b6 ab ba a0 02 92 3d 0b 14 ae 3d b4 62 83 bd
       -0.0013100513 0.07129407 0.08499917 -0.064153105
000070 09 c0 da 3d 65 5e 95 bd ef 0f 97 3b 97 37 8a bc
       0.10681159 -0.07293395 0.0046100537 -0.01687221
000080 63 df 8b 3d 6d 56 a1 3d ab 50 32 3d a3 1a d1 bc
       0.06829717 0.078778125 0.043533962 -0.025525397
000090 41 ac 3e 3d 61 56 44 bb 8e 8d f4 3d d4 12 b2 3d
       0.046550993 -0.0029958712 0.11941062 0.086949974
0000a0 60 50 7f bd d9 cd da 3d 92 38 69 3d 74 1f 18 3d
       -0.06233251 0.106837936 0.056938715 0.03713937
0000b0 e4 94 45 3b 2c b6 2d bc 80 50 02 3e 17 ab aa bc
       0.003014856 -0.010602515 0.12726021 -0.020833535
0000c0 3b 2d 14 bd 7e 31 14 bc 64 51 b3 bc 9b a5 91 3d
       -0.036175948 -0.009045003 -0.021889396 0.07111665
0000d0 07 f0 86 3d 8c 4f ff bb 48 29 de 3d ea ad 4e 3d
       0.0658875 -0.007791465 0.108477175 0.050458826
0000e0 ea 6c 49 3d c9 71 a9 bd c2 d8 44 bd e8 6d 36 3d
       0.049176134 -0.08273656 -0.04805828 0.04453841
0000f0 ce e3 29 3d f3 e9 88 3d c9 0c 15 bd 9e 49 98 bd
       0.041477017 0.06685247 -0.036389146 -0.07435916

actor.0.weight f4 [32, 64]
000000 28 11 37 bd bf 32 a4 bd aa bf a2 3d c3 ac 0f 3c
       -0.044694096 -0.080174915 0.07946713 0.008769217
000010 3f 1f b9 bc cf e4 ca bd b0 bc d9 bc 6f 9f 1a 3d
       -0.022597907 -0.09906923 -0.026579231 0.037749704
000020 30 86 6b bc bc 8e d3 bd f4 ca 40 3b 1c c3 3b bd
       -0.0143752545 -0.10329959 0.0029417844 -0.045840368
000030 02 2b 33 3e 26 d7 28 3d 69 1c 15 3e 44 9d b3 bd
       0.17496875 0.041220807 0.14561619 -0.087702304
000040 a8 12 01 bd f8 b2 a3 3c 00 32 c2 bc 9c 0d 40 bd
       -0.031511933 0.0199828 -0.023705482 -0.04688798
000050 f3 dc 1d 3e 87 08 a7 bd 94 e4 66 bd 7b 4f 2d 3e
       0.15416317 -0.08155923 -0.056370333 0.1692485
000060 8b a5 7a bd 8c 7e 16 3d 5e e1 1e 3e b0 31 3a 3c
       -0.06119303 0.03674178 0.15515658 0.0113643855
000070 f6 91 6d 3d 28 f7 a3 bd 12 a3 ec 3d 71 3c d6 3d
       0.058000527 -0.08006126 0.11554541 0.10460747
000080 d5 de a7 3d c5 71 d8 3d e4 bf bc bd 25 3f cc bd
       0.08196799 0.10568575 -0.09216288 -0.09972981
000090 ea a5 e3 3d df 58 17 3e bf 71 c7 3c 89 71 2c 3e
       0.1111563 0.14779995 0.02434623 0.16840185
0000a0 b0 c7 1c bd 45 dd e1 3d 7c 89 7a 3d 1a 3a eb 3d
       -0.038276374 0.11028532 0.06116627 0.11485691
0000b0 0f c0 d4 bd cb 65 01 3e 2d 01 57 bd 04 7d 8c bd
       -0.10388195 0.12636487 -0.052491356 -0.06859782
0000c0 b1 9d c7 3d ca 3d 22 3e 30 75 33 bd d5 f8 dd bc
       0.09746874 0.15843883 -0.04381293 -0.027096191
0000d0 c7 da 56 bd 00 33 20 3d 85 46 81 3c 48 69 94 bc
       -0.052454736 0.039111137 0.015780697 -0.018116608
0000e0 ba aa 20 3e 24 de 2a 3d b0 28 5f 3c 78 7a ee bc
       0.15690127 0.041715756 0.0136205405 -0.029111132
0000f0 06 b4 d4 3d a5 e1 67 3c 64 da 54 bd fc 03 05 bd
       0.10385899 0.014152919 -0.051966086 -0.032474503
000100 38 bb e7 3c 10 5a f0 3c 76 15 c6 3d c0 0f 2b 3c
       0.028287515 0.02933982 0.09672062 0.010440767
000110 20 04 de bc 40 56 66 bb 46 ca 9d bd c4 11 97 bd
       -0.027101576 -0.0035146624 -0.07704596 -0.073764354
000120 1c e0 24 3d 0c fd db bd 8c 1b ff 3d 5c 72 e1 bd
       0.04025279 -0.10741624 0.12456426 -0.110081404
000130 b0 34 5e bd 12 ed f5 bd 14 bd b8 3d 50 cf cb 3d
       -0.054249465 -0.12008108 0.09020439 0.09951651
000140 60 e1 d9 3c f6 8b c5 bd a8 9f 34 3d ac 1a a7 bd
       0.026596725 -0.09645836 0.044097573 -0.08159384
000150 80 6b d7 ba f0 d7 33 bd a4 03 91 3d fe 8d f4 bd
       -0.0016435236 -0.043907106 0.070807725 -0.11941145
000160 00 b4 b7 3c 28 41 9c 3c a4 7f 2c bd 92 e0 85 bd
       0.022424698 0.019074038 -0.042113915 -0.06536974
000170 f4 49 4d bd 08 b0 24 3d 52 83 aa 3d cc a7 4c 3d
       -0.050119355 0.04020694 0.083258286 0.04996471
000180 94 90 53 3d 76 6a af 3d 54 90 be bd 50 62 85 3c
       0.051651552 0.08565228 -0.09304872 0.01628223
000190 20 d9 df 3d 88 2b e7 3c 20 66 99 bb e8 af 8b bc
       0.10930085 0.028219 -0.0046813637 -0.017051652
0001a0 f8 a7 bd 3d a8 da d3 bd 60 86 6f 3d e0 37 d1 3d
       0.09260553 -0.1034444 0.05847776 0.102157354
0001b0 9e d9 cb bd b0 60 54 3d ba 61 f1 bd 00 1c ed b9
       -0.099536166 0.05185002 -0.11786218 -0.00045225024
0001c0 da de ee bd 66 b1 da bd 04 15 29 bd 80 83 de bb
       -0.11663599 -0.10678367 -0.041279808 -0.0067905784
0001d0 d0 a8 08 bc 98 b5 a7 3c 4a 0e cb bd 00 95 ac ba
       -0.008341029 0.020472333 -0.09914835 -0.0013166964
0001e0 24 e3 81 3d 80 41 4d 3b e8 1a b0 bc c4 0f ec bd
       0.06342152 0.0031319559 -0.021497205 -0.115264446
0001f0 84 9a 69 bd e8 d0 0a bd d8 4c 25 bd 40 7d 1a 3c
       -0.057032123 -0.033890635 -0.040356487 0.009429276
000200 f2 d8 82 3d 3c d9 eb bd 58 f1 99 bd 30 4d 06 3d
       0.06389035 -0.115160435 -0.07516736 0.032788455
000210 cc 52 6e bd 38 88 f0 3d 58 59 81 3d 9c 6b 6b 3d
       -0.05818443 0.11744732 0.06315869 0.05747567
000220 a6 40 ae bd b2 a8 87 bd b8 2b d4 bc 18 c2 ac 3d
       -0.085084245 -0.06623973 -0.025899753 0.08435458
000230 40 d8 09 bd 2a fd ea 3d 00 1d b8 3a 06 6d a6 3d
       -0.033653498 0.114740685 0.0014046729 0.08126263
000240 d0 86 b1 bd d4 28 35 3d 8c 9e c6 bd b0 1a 86 3c
       -0.086682916 0.04422839 -0.09698209 0.016370147
000250 80 17 fa bb 56 8c 9d bd 16 6b a4 3d 18 db 00 3d
       -0.007632196 -0.076927826 0.080282375 0.031458944
000260 ec 87 c6 bd c0 75 b5 bd 32 9c d4 3d 70 5f c5 bd
       -0.09693894 -0.0886035 0.103813544 -0.09637344
000270 bc 88 bf bd c4 af fd 3d 14 0b f1 bd d0 f2 74 3c
       -0.09352252 0.1238704 -0.11769691 0.014950469
000280 1e 01 ec bd ca 87 f3 bd 18 ff 1a 3d 18 b4 44 bd
       -0.115236506 -0.11891134 0.037840933 -0.048023313
000290 08 b3 5f 3d d0 09 0d bc 00 d5 05 3b 90 88 4c bd
       0.054614097 -0.0086082965 0.0020421147 -0.049934924
0002a0 60 4b b2 3c 6c 29 57 bd 00 d1 d8 3a a8 dd d1 bc
       0.021764457 -0.052529737 0.0016541779 -0.02561839
0002b0 82 a7 9f bd fa c9 9f bd 70 3a ce bc 1e d1 f9 3d
       -0.077956215 -0.07802196 -0.02517435 0.12198089
0002c0 da e5 c9 3d 48 c3 4d bd e2 9d a0 bd 32 68 a0 bd
       0.09858294 -0.050235063 -0.07842614 -0.07832374
0002d0 a8 3c 96 3d d8 1c f3 bc 20 63 df bc 02 ac b5 3d
       0.07335788 -0.02967684 -0.027268946 0.088706985
0002e0 ca e7 fc bd bc 6d 99 bd 86 61 f0 3d 04 55 d9 3d
       -0.12348898 -0.07491633 0.11737351 0.106119186
0002f0 40 84 a4 bb 40 a7 76 bb c0 67 83 3d c8 4c d4 bc
       -0.0050206482 -0.003763631 0.06416273 -0.025915518
000300 d8 53 8e 3d 48 88 ec 3c 5e d3 55 bd 60 a3 f1 bd
       0.06949586 0.028873578 -0.05220353 -0.117987394
000310 c6 49 b4 3c 16 15 f5 3d d9 17 dc bd bd a2 72 3d
       0.022007834 0.119669124 -0.10746736 0.05923723
000320 28 2a c0 bd 26 50 8e 3d 8b fd 6b bd 3c 6e d3 3d
       -0.09383041 0.06948881 -0.057614844 0.1032376
000330 76 e6 27 3d 14 9b 05 3d 3c 55 96 3c b4 e6 db bd
       0.04099127 0.032618597 0.01835119 -0.107373625
000340 8c 7c 9b bd 5c 95 26 bd 10 a3 87 bd d0 ea 56 bd
       -0.07592115 -0.040669784 -0.066228986 -0.05247003
000350 e3 a4 af 3d e6 f4 e1 bd be 0b cb 3d 0f 95 d3 3d
       0.085763715 -0.11033039 0.09914349 0.10331165
000360 86 b8 e3 3d 64 cf 41 3d ff f3 98 3d 20 ef b2 3c
       0.111191794 0.047316924 0.074684136 0.02184254
000370 ad fb 7f 3d ae 20 f3 3d 40 dc 8e 3d 48 b7 83 3d
       0.062495876 0.118714675 0.06975603 0.064314425
000380 f7 33 8d 3d de d0 1b 3d 10 c0 f6 bd b8 52 dd 3c
       0.06894677 0.03804099 -0.12048352 0.027016982
000390 ec ce ab 3d 03 33 aa 3d ab 60 9b 3c da d5 e3 bd
       0.083890766 0.08310511 0.018966993 -0.11124773
0003a0 d0 83 fa bd 79 ed dd bd b0 51 31 bc 80 32 84 ba
       -0.122321725 -0.1083631 -0.0108226985 -0.0010085851
0003b0 b0 be 21 bc 4e 91 8f bd 23 fe cd 3d e8 81 12 bd
       -0.009872124 -0.070101365 0.10058238 -0.03576842
0003c0 80 31 ab 3d a3 1a 55 bc 06 b0 c0 3d f8 63 8d bd
       0.08359051 -0.013006839 0.09408574 -0.06903833
0003d0 f0 2f 89 bc 49 24 91 bd 5f 67 92 bc 56 5b db bd
       -0.016746491 -0.07086999 -0.017871557 -0.1071078
0003e0 a0 a8 15 bd d8 43 a0 bc 60 66 81 3d e0 ad 41 3d
       -0.036537766 -0.0195636 0.063183546 0.04728496
0003f0 00 54 f1 39 2d b9 b9 bd 9e 65 a0 3d 0e 65 84 3d
       0.00046029687 -0.090685226 0.07831882 0.06464587

actor.0.bias f4 [32]
000000 95 77 2a 3e 50 14 66 bd c0 cf ca bc 02 b8 b4 bd
       0.1664718 -0.056171715 -0.024757266 -0.08824159
000010 00 97 33 bd dc 68 96 bd 1e e3 9e bd 3e e2 d0 3d
       -0.043845177 -0.07344219 -0.07758163 0.10199402
000020 50 e9 ea 3c e1 b9 8f bd 36 83 04 3e 21 29 ff 3d
       0.028675705 -0.070178755 0.12940678 0.124590166
000030 cf a9 8a 3d 20 32 ed 3c 4d c9 69 3c 7e aa 18 3d
       0.0677067 0.028954566 0.014269185 0.03727197
000040 a4 0d ae bd f0 eb 99 bd ba 1b c6 bd 24 be 2a bd
       -0.084986955 -0.07515705 -0.09673257 -0.04168524
000050 fc 13 c8 3d f7 32 89 bd 69 32 2b 3d 9a ab db bd
       0.09769437 -0.06699174 0.04179612 -0.1072609
000060 bd 0a 08 3c e4 23 3a 3d 1d 5b aa 3d a0 b3 4c 3d
       0.008303341 0.045444384 0.0831816 0.04997599
000070 75 0a 11 3e de 27 20 3e 94 b9 7f 3b 16 ce af bd
       0.14164145 0.15640208 0.0039020525 -0.0858423

actor.2.weight f4 [7, 32]
000000 fb b7 5d 3e 4a 56 dd 3d bc 86 ff bd 03 a8 86 bd
       0.21652214 0.10807474 -0.124768704 -0.065750144
000010 7d 8f f0 bd 76 21 22 3e f6 02 20 bc 00 cc a5 bd
       -0.11746118 0.15833077 -0.009766331 -0.080955505
000020 43 b7 9c 3d 53 f0 f5 3d ff 33 0b bd d8 f4 68 3e
       0.07652142 0.12008729 -0.033985134 0.2274965
000030 69 bc 4e 3e 27 4d 80 3c ee 99 46 bd 77 58 07 3e
       0.2018906 0.01566179 -0.048486643 0.1321734
000040 af 28 c1 bb e5 bd 97 bd 17 87 b1 3d 50 37 0e 3d
       -0.0058947424 -0.074092664 0.086683445 0.03472072
000050 13 29 94 bd f9 97 24 be 4e 24 19 3e 1d 59 a7 3d
       -0.07234397 -0.16073598 0.14955255 0.08171294
000060 e1 3f 47 3e cd f5 cb 3c 8f f4 8c bd 86 82 e6 3d
       0.19457962 0.02489748 -0.06882583 0.11255364
000070 5d 6a c1 bd 6a d1 d5 3d 34 1d a2 bd a5 62 04 bd
       -0.09444115 0.10440333 -0.07915726 -0.032320637
000080 7a 8a 6b bd a7 18 84 bd 92 d8 4f 3d f6 ab c3 bc
       -0.05750511 -0.064500146 0.050743647 -0.023885708
000090 ec af e6 3d a9 1d 73 bd 64 bc 00 bc 2f e9 44 3e
       0.11264023 -0.059354458 -0.007857416 0.19229577
0000a0 8e 7a 86 bd e5 b8 f3 3d 78 97 81 bd 2b e6 7d bc
       -0.06566344 0.119005 -0.063277185 -0.015496771
0000b0 5d 86 42 3e cc c6 10 3e dc 35 2b 3e fb e1 df bd
       0.18996568 0.14138335 0.16719764 -0.10931774
0000c0 f6 39 00 3e 0a 7b 5a bd c9 5a 80 3d 86 8e 2a 3e
       0.1252211 -0.053339995 0.06267316 0.16655931
0000d0 0d 3f 40 3e 65 ec ca 3d f6 a5 34 3d a1 8a 02 be
       0.18774052 0.0990837 0.044103585 -0.12748195
0000e0 a5 0c 88 3c c3 47 18 3e 79 1c 9f bd ec 5c 0a 3e
       0.016607592 0.14871125 -0.077691026 0.1351201
0000f0 0e ac 56 3e 0f 35 16 3e 47 48 d1 bd 8b 92 04 3e
       0.20964071 0.14668678 -0.10218864 0.12946527
000100 f1 54 df 3d 4c e1 27 3e 35 cc 05 3e 3f f0 f9 3d
       0.10904873 0.16394538 0.1306618 0.122040264
000110 d5 2a c0 3c 6e 01 1a be 4b 05 e1 bd c9 9e 7c 3d
       0.023457924 -0.15039608 -0.10987338 0.061674867
000120 c9 00 cc bd fd 00 54 bc 71 dd d0 3d d7 51 2d 3e
       -0.09961087 -0.012939689 0.101984866 0.1692575
000130 ec 8d 84 3c d4 e6 b0 bc 17 4a 0a 3e 2d 8c 38 3e
       0.016180955 -0.021594442 0.13504826 0.18022223
000140 82 81 27 be 48 38 9c 3c ab 95 ca 3d d3 5a bc bd
       -0.16357997 0.019069806 0.09891828 -0.09197011
000150 8e 75 02 3e b4 44 2b 3d 45 a2 76 3d 3f 8f 2b 3e
       0.12740156 0.041813567 0.060213346 0.16753863
000160 20 54 8d 3d ca 87 05 3d ce f7 ad bd 25 6c f1 3d
       0.06900811 0.0326002 -0.084945306 0.11788205
000170 23 03 10 3e 01 23 18 3e 42 cf dd bd 06 3b a6 3d
       0.14063697 0.14857103 -0.10830547 0.081167266
000180 a4 96 00 bd 9b a7 db 3b ca bc d8 3d 1b 94 1c be
       -0.031393662 0.0067033297 0.10582884 -0.15290873
000190 06 62 d2 bc c4 b1 29 3e 61 3f f7 bc c9 95 9a bd
       -0.025681507 0.16571718 -0.030181589 -0.075481005
0001a0 36 36 81 3d 9d 23 ab bd 1f a0 08 3e a8 99 27 bc
       0.06309168 -0.08356402 0.13342331 -0.010229506
0001b0 ad 0b 52 3e a9 cc 04 3e 3c ef 65 3e 5c e8 3b 3d
       0.20512266 0.12968697 0.22454542 0.045875892
0001c0 41 ca 31 3c 58 69 66 bd 94 ce 51 bd a3 69 82 bd
       0.010851444 -0.056252807 -0.0512224 -0.06367805
0001d0 2d 27 27 3e c8 7b f8 bd 49 cf 41 3e 0a 13 65 bd
       0.16323538 -0.121329844 0.1892673 -0.05592636
0001e0 3c d7 a6 bd d4 1d 63 3c 52 33 c2 3d d3 6c f4 3c
       -0.081465214 0.013862092 0.09482445 0.029837048
0001f0 f3 52 4b 3e ad c8 49 3e 77 2e a7 bc 0d ef 67 3e
       0.19855861 0.19705458 -0.020407898 0.22649784
000200 39 b9 9c 3d a7 30 22 be 6a c2 a3 3c f8 c5 e1 bd
       0.07652516 -0.15838872 0.019990165 -0.11024088
000210 d8 68 0f be 33 06 e7 bd d8 47 2b bd 2d d4 07 be
       -0.14004838 -0.11280479 -0.041816562 -0.13264532
000220 0b 63 30 bd 06 dc 2d 3e fc 5f 45 3e d6 98 57 3e
       -0.043063205 0.16978464 0.19274896 0.21054396
000230 01 40 e3 bd 18 8e d3 3d 07 5b 64 3e 38 49 00 3e
       -0.11096192 0.103298366 0.22300349 0.1252793
000240 cf f7 e5 bd e3 7e b6 3d 86 5e ed 3d 65 b1 f0 3d
       -0.11228906 0.089109205 0.115902945 0.11752585
000250 4f 89 38 3d 37 6f 3a bd 58 7c ca 3d f1 85 3b bd
       0.045052823 -0.04551622 0.09886998 -0.045782033
000260 20 63 2d 3e f8 ef d1 3d 67 3a 73 bd 66 b7 23 3e
       0.16932344 0.102508485 -0.05938187 0.1598793
000270 25 e6 b7 3d 06 6f 02 be be d5 b2 bd ad 32 9f 3d
       0.089794435 -0.12737665 -0.08732174 0.077733375
000280 c4 b1 4f 3d a5 5f ec 3d b0 47 c3 bd a7 52 20 3e
       0.05070664 0.1154168 -0.09535158 0.1565653
000290 17 e5 dd 3d 5b 38 09 3c a5 1a b4 bd 75 4d a3 3d
       0.10834711 0.008375253 -0.087941445 0.07973758
0002a0 6f fa 23 be 8d 6b 51 3d e5 b3 0f 3e 3f 92 9e 3b
       -0.16013502 0.05112796 0.14033468 0.0048392112
0002b0 13 bb 5e 3c 49 c5 d8 bd 2b a1 8b bd 38 3d 6c 3e
       0.013594407 -0.10584504 -0.0681785 0.23070228
0002c0 07 cf 8f bd ce ef 10 be cb 26 92 3d 15 c0 82 bd
       -0.07021909 -0.14153978 0.071363054 -0.06384293
0002d0 ec e7 e2 3d 92 a4 d6 bd f8 a4 a1 bd 7f e3 49 3d
       0.11079392 -0.10480608 -0.078927934 0.049289223
0002e0 5e c8 ab 3d d5 51 17 3e 73 d4 02 be 48 c1 6f 3e
       0.083878264 0.1477731 -0.12776355 0.23413575
0002f0 c2 a6 05 3e f5 78 7e bd 56 5f 44 bd 82 0a 55 3e
       0.13051894 -0.062127072 -0.047942482 0.2080479
000300 ad c3 19 3e f9 35 b7 bd 4a 25 65 3d 0d 93 02 bd
       0.1501605 -0.08945841 0.055943765 -0.03187852
000310 64 de a9 bd 60 d3 33 be c2 b2 bf bc 04 18 e1 bd
       -0.08294371 -0.17561102 -0.023400668 -0.10990909
000320 cb a3 8b bd 27 75 34 bb 8c 05 08 bd d0 db 1e 3e
       -0.068183504 -0.0027535649 -0.033208415 0.1551354
000330 32 16 75 3d 12 08 0c be c8 08 b3 bd d6 24 b9 3d
       0.05983562 -0.13674954 -0.08741909 0.09040229
000340 16 33 53 bd 9d 01 e3 3d 7f 01 b4 3d f1 6a 19 be
       -0.05156239 0.11084292 0.08789348 -0.14982201
000350 38 70 97 bc fd 68 17 3d c1 ec d6 bd af 99 57 bd
       -0.018486127 0.03696536 -0.10494376 -0.0526368
000360 4f 6c 65 3e 29 b7 d9 3c 31 80 a4 3c a8 fc 2f 3e
       0.22404598 0.026576595 0.020080658 0.17186224
000370 10 82 05 3e 5f 70 45 3d 19 f5 ae 3b 63 98 79 bd
       0.13037896 0.04820287 0.0053392765 -0.060936343

actor.2.bias f4 [7]
000000 d0 3a 48 3e b2 8c b6 3b fb 4d dd bd 26 e1 35 bd
       0.19553685 0.0055709714 -0.10805889 -0.04440417
000010 d5 10 39 3e 0d a9 98 bb 37 5c 0a 3d
       0.18072827 -0.0046588243 0.03377935

critic.0.weight f4 [32, 64]
000000 84 20 ac 3d 62 03 d8 3d 35 64 f3 bd 80 3d e1 bb
       0.08404639 0.1054752 -0.11884347 -0.0068737864
000010 c6 2f 3a 3d 60 25 a3 bb 06 c2 fd bd f8 6c 7c 3d
       0.045455717 -0.0049788207 -0.12390523 0.06162736
000020 b0 0d 79 3c 9e 86 d3 bd 7b 99 63 bd 1e 6a d5 3d
       0.015201017 -0.103284106 -0.055566292 0.10420631
000030 cb 7b a0 bc d8 1c 4f 3d da 84 a5 bd 28 cc 31 3d
       -0.01959028 0.050564617 -0.0808198 0.04340759
000040 64 61 1b 3d 5e da f1 bd 60 e2 bf 3c ec 80 b7 3d
       0.037934676 -0.11809228 0.023423374 0.08960137
000050 34 f2 bf 3d 78 16 fc bc e4 d7 26 3d bb 38 3a 3c
       0.093723685 -0.030772433 0.040733233 0.011366065
000060 f2 79 c0 bd fc a4 d1 3d 47 c2 f3 bc 7e 2b c8 3d
       -0.09398259 0.102365464 -0.029755725 0.097739205
000070 ee a8 f1 bd d2 93 9e 3d 90 34 35 bd c0 79 6c bc
       -0.11799799 0.07743038 -0.04423958 -0.014433324
000080 d6 e7 aa 3d e0 5e 58 3d 48 05 9c bc 22 cc e4 3d
       0.083450004 0.052824855 -0.019045487 0.11171748
000090 48 28 b8 bc f7 5e 1d bd 85 e1 8f 3d 7a 1f a0 3c
       -0.022480145 -0.038420644 0.07025436 0.01954626
0000a0 a0 d8 72 3c 48 64 c1 3d dc 04 15 bd 4c b7 60 bd
       0.014822155 0.09442955 -0.036381587 -0.054862306
0000b0 5c 80 e0 3d c4 ce 6b bd b9 b7 06 bd 6c d5 f1 bd
       0.109619826 -0.057570234 -0.032890055 -0.11808285
0000c0 2c 37 e4 bd 16 3b a0 3d 40 89 26 3b 5e 95 ca 3d
       -0.11143336 0.0782377 0.0025411397 0.09891771
0000d0 68 54 9f bc 0b e9 65 bc 06 50 0c 3d d0 86 1d 3c
       -0.019449428 -0.014032613 0.034256004 0.009614661
0000e0 66 15 ef bd 3c bf 81 bd 84 cb 54 bd 58 f7 64 bd
       -0.11674003 -0.06335303 -0.0519519 -0.055899948
0000f0 10 ff 63 bd 86 50 cf 3d 78 85 e8 bd b0 93 27 3c
       -0.05566317 0.101227805 -0.11353582 0.010228083
000100 58 78 53 bd 14 6c 49 3d 5a 81 40 3c 8e e2 f5 3d
       -0.05162844 0.049175337 0.01174959 0.120061025
000110 b9 a0 02 3d b0 b1 ba 3d ff a6 e7 bc db d4 a6 bd
       0.03189156 0.091159225 -0.028277872 -0.08146068
000120 68 c8 8a 3c d8 45 d3 3c 71 d6 2a 3d 08 a1 8a bc
       0.016941264 0.02579014 0.041708414 -0.016922489
000130 2d dc 96 bd 2c eb b2 bd 2d 8f d1 bd 60 5e 21 3c
       -0.07366214 -0.08736262 -0.10232387 0.009849161
000140 81 46 3f 3d 90 6d af 3c 74 d0 6d 3d 10 5f d5 bc
       0.046698097 0.021414548 0.058060125 -0.026046306
000150 72 a0 be bd ce 8a db bd 40 ca 7b bb 41 31 d0 3d
       -0.09307946 -0.10719834 -0.003842011 0.101656444
000160 c0 02 d4 bb de 93 9e 3d 1a aa 75 3c 90 28 3d 3c
       -0.0064700544 0.07743047 0.014994169 0.011545315
000170 42 2c 9e bd e0 0f f1 bd 28 d1 0c 3d 1a f7 bf 3d
       -0.07723285 -0.11770606 0.034379154 0.09373303
000180 7f 33 b7 3d 81 7c 92 bc b8 5e 3c bd e8 a9 92 bd
       0.08945369 -0.017881634 -0.04598877 -0.07161313
000190 50 a8 ee bc 71 5d ba bd bc 4e 2e 3d 74 03 5b bc
       -0.029132992 -0.09099854 0.042555556 -0.0133675225
0001a0 b4 ca 61 bd ff 90 de 3d 8c b2 0c bd 98 1d 6b bd
       -0.055124953 0.108674996 -0.034349963 -0.05740127
0001b0 64 e3 e1 3d 40 d3 a9 bc 18 81 38 bd 18 8a a0 bc
       0.110296994 -0.020730615 -0.04504499 -0.019597098
0001c0 70 88 52 3d 96 29 0c bd 78 d1 44 3d 40 0f 46 bc
       0.05139965 -0.034219347 0.048051327 -0.012088597
0001d0 f0 23 90 3c 35 de f1 bc 7b e4 38 bc 10 fe 5d 3d
       0.017595261 -0.029524902 -0.011284943 0.05419737
0001e0 d9 82 cc 3d ec 0d 57 3d 00 b0 3a 39 20 e2 ec 3d
       0.09985895 0.05250351 0.00017803907 0.115665674
0001f0 68 d0 91 3d 02 70 1c 3d 60 f8 df bb 7e 96 ee bd
       0.071198285 0.038192756 -0.0068350285 -0.11649798
000200 c0 03 60 3b 97 67 54 3d f7 7b 9d 3d 4c fc 27 bd
       0.0034181923 0.051856603 0.0768966 -0.041012093
000210 8d 17 bc bd 3c 86 5a bd c9 b4 a3 3c da 7f ab 3d
       -0.091841795 -0.053350672 0.019983666 0.08373995
000220 0c 07 db bd 16 34 01 bd 25 84 f7 bd 9a ed e8 bd
       -0.106947035 -0.031543814 -0.120857514 -0.11373444
000230 96 a6 34 3d 0b 86 11 3d 0e bf 15 bd 4e d3 7b 3d
       0.04410418 0.035528224 -0.036559157 0.061480813
000240 db 67 35 3d 00 b3 4e 3d 8e 0a b3 bd 76 48 eb 3d
       0.044288497 0.050463676 -0.087422475 0.1148843
000250 d5 9e ad bd 71 4e 37 3d 4e 53 d1 3d 53 eb 9c bd
       -0.084775604 0.044752542 0.10220967 -0.07662072
000260 e2 f1 29 3c 2c 1d 58 3d bf bd 58 3d a8 14 85 3d
       0.010372611 0.052762195 0.05291533 0.064980805
000270 5c e7 64 bd fe d1 da 3d 9a 07 f4 3d 98 a4 a8 3d
       -0.055884704 0.10684584 0.119155124 0.08234519
000280 2e 10 bf bc 38 f5 0b be 00 11 c4 bb 1d 82 01 be
       -0.023323145 -0.13667762 -0.005983472 -0.1264729
000290 b8 61 07 bd 1d be 65 3d ea 65 19 bd 68 bd 07 be
       -0.033052176 0.05608951 -0.03745071 -0.13255847
0002a0 f4 80 a0 3d 48 ce 67 bd e8 77 ef bd 80 3e 7c 3c
       0.07837096 -0.05659321 -0.11692792 0.015395761
0002b0 b5 f6 eb bd e5 ef eb 3d 5c 55 8e 3d 0c 4e 28 3d
       -0.11521665 0.115203656 0.06949875 0.041090056
0002c0 85 cd e1 3c 02 85 09 bd 03 f3 cf bc 8c 61 20 3d
       0.02756382 -0.03357411 -0.025384432 0.039155528
0002d0 16 bf cc bc 4a df ac 3d d7 59 60 3d b2 c2 fa bd
       -0.02499346 0.084410265 0.054773178 -0.122441664
0002e0 7b 96 aa 3d 00 7c 6e 3b c8 79 17 3d ea ee a1 bd
       0.08329483 0.0036389828 0.036981374 -0.07906897
0002f0 78 6b 2a 3d 8d 6b 0e 3d 6c a2 4d 3d 20 bb 84 3b
       0.041606396 0.034770537 0.050203726 0.0040506274
000300 88 88 35 3d 08 69 97 3d e0 27 2d bc 92 8c 9c bd
       0.04431966 0.0739308 -0.010568589 -0.07643999
000310 40 d8 45 3c 50 25 f3 bd c0 bf 6a bc 16 fc af 3d
       0.012075484 -0.11872351 -0.014327943 0.085930035
000320 ae c0 bf 3d 98 33 c2 bc f0 51 7e bd c8 00 e5 3c
       0.093629226 -0.023706242 -0.06208986 0.027954474
000330 b4 fd 25 3d 1c a1 92 3d c8 77 0e 3d 50 59 f4 bc
       0.040525153 0.071596354 0.0347822 -0.029827744
000340 a8 57 7d bd 34 c4 b9 bd ce 29 b2 3d 78 cd a3 bd
       -0.061851174 -0.09070626 0.0869938 -0.079981744
000350 36 b3 f7 bd 48 65 c6 3d fc 64 82 bd ac 3c 0b 3d
       -0.12094729 0.096872866 -0.063669175 0.033993408
000360 60 82 ea bc b8 e9 68 3d 0e 85 87 bd 04 1f 04 bd
       -0.02862662 0.056863517 -0.06617175 -0.03225614
000370 38 6f 04 bd 68 77 ed bc 98 6e ce bd 28 13 82 bd
       -0.03233263 -0.028987601 -0.10079688 -0.0635131
000380 00 e0 f0 3b 00 db 4f bd 04 22 0e 3d e4 d7 9a bd
       0.0073509216 -0.050745964 0.03470041 -0.07560709
000390 5c 9a 2b 3d 54 07 5f 3d a4 b8 d3 3d ec fb cf bd
       0.041895255 0.054450348 0.10337952 -0.10155472
0003a0 2a e2 f3 bd 5e e4 eb bd 58 bc d4 bd b6 cc af 3d
       -0.11908372 -0.11518167 -0.10387486 0.085839674
0003b0 68 a4 47 3d 7c fb ff 3d 00 01 c1 bc f2 ba ed 3d
       0.048740774 0.12499139 -0.023560047 0.116079226
0003c0 cc cc ea bd 5a 48 e7 bd 38 0d 04 bd a0 c5 8e 3b
       -0.11464843 -0.11293097 -0.03223917 0.004357055
0003d0 d8 b8 ee 3c f4 3b f1 bd cc f3 a7 bd 58 27 e8 bd
       0.029140875 -0.11779013 -0.082007974 -0.11335629
0003e0 c0 fd 38 bb d2 8d ad 3d 32 39 fd 3d 00 59 d0 bd
       -0.0028227419 0.08474316 0.12364425 -0.101732254
0003f0 26 86 de 3d 80 8a ce bd f4 9b cb bd 20 40 84 3d
       0.108654305 -0.100850105 -0.09941855 0.064575434

critic.0.bias f4 [32]
000000 ad f9 9b bd 69 34 8a bd 2b 7b cd bc 74 7b 5b bd
       -0.07615981 -0.06748278 -0.025083145 -0.05358453
000010 b8 6d a5 bc 7a 08 03 bd 78 e7 d5 3d 37 1f d4 3d
       -0.02019392 -0.031990506 0.1044454 0.10357516
000020 74 3e 39 bd 00 ab 46 bc 88 ec 06 3c ad 74 98 bd
       -0.045225576 -0.0121257305 0.008235104 -0.07444129
000030 2f 28 07 3b 57 32 a9 3d 29 69 ce 3d 10 1f a2 bd
       0.0020623317 0.08261555 0.100786515 -0.07916081
000040 b8 0b f4 bc bb 66 1a bb 5a c0 c6 3d 8f ad 35 3d
       -0.029790744 -0.0023559767 0.09704657 0.04435497
000050 fa e3 62 3b 24 24 5d bc 30 40 da 3d c9 06 8a bd
       0.0034620748 -0.013497386 0.10656774 -0.067395754
000060 88 84 4b bc 40 13 21 bd fc 46 2c 3e 80 60 b2 3c
       -0.012421735 -0.039325 0.16823953 0.02177453
000070 c0 a6 ea 3c 67 b6 2e 3e ac 8d f9 bd f8 50 d1 3c
       0.028643966 0.17061768 -0.12185225 0.025551304

critic.2.weight f4 [1, 32]
000000 e3 89 19 3e c0 97 bd bd 7b 0e 08 bb 9f 9b 00 3d
       0.14994006 -0.0925746 -0.0020760584 0.03139841
000010 db df f6 3d 7d f8 1b 3e de 8c 2d bb 32 b3 08 be
       0.12054416 0.1523151 -0.0026481668 -0.13349608
000020 67 2f 9b bd fc 41 9b 3c 73 db f3 bd 1d 8b 28 bd
       -0.07577401 0.018952362 -0.11907091 -0.041148294
000030 b4 d0 6f bd 9a be 5f 3e da 80 1a 3e 49 96 47 bd
       -0.058548644 0.21850052 0.15088215 -0.048727307
000040 51 7b 21 be 17 15 c3 3d ef b6 fe bd 77 e1 44 3e
       -0.15769698 0.09525507 -0.124372356 0.19226633
000050 99 23 45 3e 77 0e 4d 3e 04 24 64 3e e3 c0 42 3e
       0.1925186 0.20025049 0.22279364 0.19018893
000060 6f 9c 30 be 16 e4 13 3c bb fb 96 3d 6f ef 69 bd
       -0.17247175 0.009026548 0.073722325 -0.057113107
000070 4b 22 74 3d ea 3b c5 3d e2 82 2c 3e 8a 60 07 bd
       0.059603017 0.09630568 0.16846803 -0.03305105
