src/franka_h2/scripts/RL/pth/arm_ppo.pth (torch, 69554 bytes, 11 tensors)

shared_layer.0.weight f4 [128, 28]
0	0x3c8ba950	0.017048508
1	0xbd9e657b	-0.077341996
2	0xbd07ba82	-0.033136852
3	0x3c415385	0.011799698
4	0xbe0fb8f0	-0.14035392
5	0xbdfa4ed8	-0.122220695
6	0x3dab561a	0.08366032
7	0x3d94364b	0.07236918
8	0xbdd85e08	-0.1056481
9	0xbe349ef9	-0.17638768
10	0xbd984a60	-0.07436061
11	0x3ccd6720	0.025073588
12	0xbd815f3e	-0.06316994
13	0xbd8500ca	-0.06494291
14	0xbcd108bb	-0.025516858
15	0xbdd273c7	-0.10275989
16	0xbd93dd5e	-0.07219957
17	0xbdedef7a	-0.11617942
18	0xbd992ec8	-0.07479626
19	0xbd41e73b	-0.04733966
20	0x3db2a58f	0.08722984
21	0xbdf02749	-0.11726243
22	0xbd803201	-0.062595375
23	0x3e35ce97	0.17754589
24	0xbe3c4ab0	-0.18387866
25	0x3d02eb38	0.031962603
26	0x3da85ff7	0.08221429
27	0x3dcb35f1	0.09922398
28	0x3d1ae7d2	0.037818737
29	0x3e2a18af	0.16610979
30	0x3e278dd1	0.16362692
31	0x3e180fed	0.14849825
32	0x3c234c19	0.009966874
33	0x3e1a6a00	0.15079498
34	0xbe1f68a5	-0.15567262
35	0x3e00dc23	0.12583975
36	0x3e11133d	0.14167495
37	0xbe22d1a3	-0.15900283
38	0xbd2df04d	-0.042465497
39	0x3e038284	0.12842757
40	0xbd359b42	-0.04433752
41	0x3db1af75	0.08676044
42	0x3e0a8fed	0.13531466
43	0x3d542b5c	0.051799163
44	0xbc3d185e	-0.011541454
45	0x3e177de7	0.14794122
46	0x3cbe67c3	0.023242837
47	0x3d25c799	0.040473554
48	0x3dddd887	0.10832315
49	0xbdccd737	-0.100019865
50	0xbcd9621e	-0.026536044
51	0x3e339d43	0.1754046
52	0x3d2cf5a4	0.04222645
53	0xbcd60640	-0.026126027
54	0x3d540a5c	0.051767692
55	0xbe395d8d	-0.18102093
56	0xbbb25470	-0.0054421946
57	0x3e18d5e2	0.1492534
58	0x3d8aba10	0.0677377
59	0x3e0b925b	0.13630049
60	0xbe21bd81	-0.15794946
61	0xbe3f940d	-0.1870882
62	0xbc674032	-0.014114426
63	0xbd1b2c53	-0.037884068
64	0xbcef2e6f	-0.029196946
65	0x3e1b1fb1	0.15148808
66	0x3d7ab3e1	0.061206702
67	0x3c3d57ad	0.011556548
68	0xbe351a3e	-0.17685792
69	0x3c973e41	0.018462302
70	0x3e343d25	0.1760145
71	0x3db5cf41	0.08877421
72	0x3d4f5a58	0.050623268
73	0xbe3bff7c	-0.18359178
74	0x3d0914f0	0.033467233
75	0x3da5d0d6	0.08096473
76	0x3d804ad8	0.06264275
77	0x3e028bd9	0.1274866
78	0x3cc5dae0	0.02415222
79	0xbbdd1b03	-0.006747605
80	0x3e3db9dd	0.18527932
81	0x39ecf8cf	0.00045198805
82	0x3d2364ab	0.039890926
83	0x3c2c518e	0.010517491
84	0xbdbd54e9	-0.09244711
85	0x3df77bbd	0.12084148
86	0xbd6c4804	-0.057685867
87	0xbde697d9	-0.112594314
88	0xbe14b6f5	-0.14522918
89	0x3c87a6b7	0.016558988
90	0xbdfa9528	-0.122354805
91	0x3db23a13	0.08702483
92	0x3e179132	0.14801481
93	0xbce57bf6	-0.02801321
94	0x3e0a685d	0.13516374
95	0x3e266329	0.16248764
96	0x3e19311f	0.14960144
97	0xbd134e51	-0.03596336
98	0x3ddbe766	0.10737495
99	0x3d110247	0.035402562
100	0xbe075b7e	-0.13218495
101	0xbe01e6c6	-0.1268569
102	0xbd09be26	-0.033628605
103	0x3d984a96	0.07436101
104	0xbe0add92	-0.13561085
105	0xbd95c55d	-0.07313035
106	0xbe1a182d	-0.15048285
107	0xbc1b2f78	-0.009471767
108	0xbde4dc79	-0.11174864
109	0x3e172630	0.14760661
110	0xbe388bc9	-0.18022074
111	0xbdcf2ffd	-0.10116575
112	0xbda9ad2a	-0.082849815
113	0xbe090102	-0.1337929
114	0xbdc4110e	-0.095735654
115	0xbd1f4784	-0.038886562
116	0x3dfbf4d1	0.123025544
117	0xbde7b943	-0.11314633
118	0x3e2ce29e	0.16883323
119	0x3d863722	0.065534845
120	0xbe19813b	-0.14990704
121	0x3e080ed6	0.1328691
122	0xbd887f77	-0.06664937
123	0x3c035c11	0.008017556
124	0x3c5f0903	0.013612988
125	0xbe046ed9	-0.1293291
126	0xbe34c19b	-0.1765198
127	0xbe34ac92	-0.17643955
128	0xbd17c3d7	-0.037052
129	0xbe3f1787	-0.18661319
130	0xbc25d130	-0.010120675
131	0x3e0606fb	0.130886
132	0x3d7bcffd	0.06147765
133	0xbc516ebb	-0.012782748
134	0x3cc722ff	0.02430868
135	0xbe4087f0	-0.18801856
136	0x3e38c9f3	0.18045788
137	0x3dd9ef59	0.10641355
138	0xbe091e7e	-0.13390538
139	0x3e0330ce	0.12811586
140	0xbcc614fd	-0.02417993
141	0x3e2f6228	0.17127287
142	0x3e083c44	0.1330424
143	0xbdc0e414	-0.094185024
144	0x3e3776dd	0.17916436
145	0xba8eeebd	-0.001090489
146	0x3a9450cc	0.0011315583
147	0xbe125461	-0.1429
148	0xbd51e870	-0.05124706
149	0xbdb15f08	-0.08660704
150	0xbdd5d134	-0.10440293
151	0xbe1dc666	-0.15407714
152	0xbd0ff965	-0.03514995
153	0x3e0d9712	0.1382716
154	0xbe25f006	-0.16204843
155	0x3de44cee	0.11147486
156	0xbe3d1ca3	-0.18467955
157	0xbe312e36	-0.17302784
158	0x3e031145	0.12799557
159	0xbda73896	-0.0816509
160	0xbdb49a38	-0.088184774
161	0xbd7d21ea	-0.06179992
162	0x3daf4496	0.085580036
163	0x3e3acd30	0.18242335
164	0x3dc3860c	0.09547052
165	0xbc191373	-0.009343016
166	0xbe37c402	-0.17945865
167	0x3c88339a	0.016626168
168	0xbc492f0b	-0.012279282
169	0xbd62a4a4	-0.055332795
170	0x3de810d5	0.113313355
171	0x3e2a293a	0.16617289
172	0x3d312035	0.043243606
173	0xbde01b10	-0.10942662
174	0xbe16f5c5	-0.14742191
175	0xbd9edf54	-0.0775744
176	0x3e2c184b	0.16806142
177	0x3de92091	0.11383165
178	0x3e120418	0.14259374
179	0xbde0f464	-0.10984114
180	0xbe34cf77	-0.17657267
181	0x3deeb8da	0.116563514
182	0xbe1c7aa4	-0.15281159
183	0xbda8bbf4	-0.08238974
184	0xbde7eef8	-0.113248765
185	0xbdf50ba9	-0.119651146
186	0xbe31aae4	-0.17350346
187	0x3e29fd09	0.16600432
188	0xbe3caae6	-0.18424568
189	0xbdf047a9	-0.11732418
190	0xbe19c64b	-0.15017049
191	0x3d4a085a	0.04932437
192	0xbe08b21d	-0.13349195
193	0xbe0d0516	-0.13771471
194	0x3e0237a2	0.12716535
195	0x3e27dc61	0.16392662
196	0x3dcc8e87	0.099881224
197	0xbe150bc7	-0.14555274
198	0xbd4b4920	-0.049630284
199	0xbd84aa11	-0.0647775
200	0x3dd8f1a3	0.105929635
201	0xbd0c8550	-0.034306824
202	0x3bbca5d8	0.005757075
203	0x3d1654b2	0.036701865
204	0xbdac2087	-0.084046416
205	0x3dda8f3a	0.106718495
206	0xbdff024e	-0.124516115
207	0x3df8da07	0.121509604
208	0xbe1354dd	-0.14387842
209	0xbca395c1	-0.01996887
210	0xbdfb51c3	-0.12271454
211	0xbd432d6a	-0.047650732
212	0x3e162ce1	0.14665557
213	0xbe3329b3	-0.17496376
214	0x3dc12c1d	0.09432242
215	0x3ca42617	0.020037694
216	0x3e0392e3	0.12849002
217	0x3d9f0532	0.07764663
218	0xbe24a416	-0.16078219
219	0xbd02cd44	-0.031934038
220	0xbe3c55be	-0.18392083
221	0x3c36f70f	0.011167302
222	0x3c6c97f5	0.014440526
223	0xbe257e22	-0.16161397
224	0x3e1f7338	0.15571296
225	0x3e129303	0.14313893
226	0x3e1c5fca	0.15270916
227	0x3e0e0f4e	0.13873026
228	0x3d5eec3e	0.054424517
229	0xbc5f37c9	-0.01362414
230	0xbd083847	-0.033256795
231	0x3dbe8c94	0.09304157
232	0x3e041a4d	0.12900658
233	0x3e3ff375	0.18745215
234	0xbd1a86f7	-0.03772637
235	0xbd2dbc9d	-0.042416204
236	0x3d8de5f4	0.06928626
237	0xbe1b0a79	-0.15140714
238	0xbdcb4182	-0.09924604
239	0xbcc1de6b	-0.023665627
240	0xbdd67dd1	-0.10473216
241	0x3e13f268	0.1444794
242	0x3db12902	0.086504
243	0xbe3177be	-0.17330834
244	0xbd325ef9	-0.043547604
245	0xbc88fe91	-0.01672295
246	0xbd692404	-0.056919113
247	0xbc017e09	-0.007903584
248	0x3e2a78f4	0.16647702
249	0x3daee6a7	0.08540087
250	0xbd0df9d8	-0.034662098
251	0xbe20ab34	-0.15690309
252	0x3de046e8	0.10951024
253	0x3df72606	0.12067799
254	0xbd7da87e	-0.061928265
255	0x3e078c08	0.13237011

shared_layer.0.bias f4 [128]
0	0x3e1d0548	0.15334046
1	0xbcc19b30	-0.02363357
2	0xbe36a7e3	-0.17837481
3	0x3c7e0c10	0.015505806
4	0xbc95f022	-0.01830298
5	0x3deb0fa4	0.114775926
6	0xbdb34d69	-0.08754999
7	0x3d0e533b	0.034747344
8	0x3c56bed6	0.013107022
9	0x3da7fd88	0.08202654
10	0x3df18040	0.1179204
11	0x3d5f49c3	0.054513704
12	0x3d9029c3	0.070392154
13	0x3d4ef47c	0.050526127
14	0xbdb6b2b1	-0.089208014
15	0x3e17db9a	0.14829865
16	0x3e407c81	0.18797494
17	0x3e313c8e	0.17308256
18	0xbe1bf269	-0.15229191
19	0xbe0b9090	-0.13629365
20	0x3d71a72b	0.058997314
21	0xbc3d3940	-0.011549294
22	0x3d4e95a3	0.050435673
23	0xbd9589e8	-0.07301694
24	0xbe010f6d	-0.1260354
25	0x3d206c09	0.03916553
26	0xbe244184	-0.16040617
27	0xbbe28d23	-0.0069137975
28	0x3c69265a	0.014230335
29	0x3e2f4d8d	0.17119427
30	0x3d6ddf22	0.058074124
31	0xbd23cfc0	-0.039993048
32	0xbe0f97d8	-0.14022768
33	0xbcb6604c	-0.022262715
34	0xbe1706c4	-0.14748675
35	0xbcb46e00	-0.022025108
36	0x3de1a59f	0.11017918
37	0xbe2041e5	-0.15650137
38	0xbd66e90d	-0.0563746
39	0x3e0987ba	0.13430682
40	0xbcf08b4b	-0.029363295
41	0x3e155109	0.14581694
42	0xbe193ead	-0.14965315
43	0xbd9cfd48	-0.07665497
44	0x3cf279b8	0.029599056
45	0xbda171b2	-0.07883014
46	0x3d67797b	0.056512337
47	0xbe074b63	-0.13212352
48	0x3df44ed8	0.11929101
49	0xbe15903e	-0.14605805
50	0x3d7a53ec	0.06111519
51	0xbe2facb1	-0.1715572
52	0xbde4f58f	-0.11179649
53	0x3e103660	0.14083242
54	0xbe151ff5	-0.14562972
55	0xbd1c3e47	-0.03814533
56	0x3e17017b	0.14746659
57	0x3dbad24d	0.09122143
58	0x3daaa8fc	0.083330125
59	0x3dca1708	0.09867674
60	0x3e1050b4	0.14093286
61	0x3befc56e	0.0073172366
62	0x3d949590	0.07255089
63	0x3dcfea2f	0.10152089
64	0x3e03e224	0.12879235
65	0xbbf1fcc1	-0.007384867
66	0x3d7b4f75	0.061355073
67	0xbe0c5076	-0.13702568
68	0x3d059eeb	0.03262226
69	0x3db994c0	0.09061575
70	0x3df515f9	0.119670816
71	0x3d933d7a	0.0718946
72	0xbe090190	-0.13379502
73	0xbdf33163	-0.11874654
74	0xbe144f6b	-0.1448342
75	0xbc917209	-0.017754572
76	0xbe348196	-0.17627558
77	0xbe170bbe	-0.14750573
78	0xbe3866a1	-0.180079
79	0xbd11fa32	-0.035638995
80	0x3d838d4c	0.064234346
81	0xbe003911	-0.12521769
82	0xbde6e267	-0.112736516
83	0xbdb2f249	-0.087376185
84	0xbde3d2f7	-0.11124223
85	0x3ca58ef3	0.020209765
86	0xbdbc7757	-0.0920245
87	0x3cd69f0a	0.026198883
88	0xbe31cbbd	-0.17362876
89	0x3d55170b	0.05202393
90	0xbdff0ef8	-0.12454027
91	0xbb0173ed	-0.0019752935
92	0xbda4c5ce	-0.08045541
93	0xbe35be5d	-0.17748399
94	0xbd98bb6c	-0.07457623
95	0x3e22ca75	0.15897544
96	0x3e3d35ce	0.18477556
97	0x3cbdaee4	0.023154683
98	0xbe32fa74	-0.17478353
99	0x3e386005	0.18005379
100	0xbd232ab2	-0.03983564
101	0x3cf3dcd1	0.02976838
102	0xbe1c3ee5	-0.15258367
103	0xbe0bdcce	-0.13658449
104	0xbce2d84e	-0.027691033
105	0xbdaf65d6	-0.085643455
106	0x3d9e4b12	0.07729162
107	0x3d209ed3	0.039213967
108	0xbe1538a9	-0.14572395
109	0xbce9adc2	-0.028525237
110	0xbd970dbf	-0.07375669
111	0xbd4b3a0e	-0.049615912
112	0x3df15985	0.117846526
113	0xbdb3eb63	-0.08785131
114	0xbd11c352	-0.035586663
115	0xbc24b342	-0.010052504
116	0xbdcabe72	-0.09899606
117	0x3d838072	0.064209834
118	0xbc2e25db	-0.010629143
119	0xbc065959	-0.008200013
120	0x3c377852	0.01119812
121	0x3cb99e97	0.02265863
122	0xbcedecbd	-0.02904355
123	0xbcec0010	-0.028808624
124	0x3e0522bd	0.13001533
125	0xbe13ece0	-0.1444583
126	0xbdf5075f	-0.119642965
127	0x3ce1ca03	0.027562147

shared_layer.2.weight f4 [64, 128]
0	0xbd966a63	-0.073445104
1	0x3d8703fe	0.06592558
2	0x3d885fd0	0.066589
3	0x3d82bd35	0.063837446
4	0xbd6cccfb	-0.057812672
5	0x3d459074	0.048233464
6	0x3d9b7f7e	0.075926766
7	0xbc4be4db	-0.0124447
8	0xbd5b0523	-0.053471696
9	0x3da8aa00	0.0823555
10	0x3b82ec6b	0.0039954684
11	0x3cdcf726	0.026973318
12	0xbdb4eb7d	-0.08833978
13	0x3d7a17a5	0.061057705
14	0x38c59797	9.421928e-05
15	0xbda3f358	-0.080053985
16	0xbda3e7dd	-0.08003209
17	0xbd979c4e	-0.0740286
18	0xbd7bbe74	-0.061460927
19	0x3d8c2ab5	0.06844083
20	0xbd6b4870	-0.05744213
21	0xbd4445d6	-0.047918163
22	0xbd28c6d8	-0.041205257
23	0x3ccd33d3	0.025049126
24	0xbd60d650	-0.054891884
25	0xbd0cadc1	-0.034345392
26	0x3c534efe	0.012897251
27	0xbd6185eb	-0.055059355
28	0xbdad4a14	-0.08461395
29	0xbd274be6	-0.040843867
30	0xbd45faac	-0.048334762
31	0x3da309af	0.079608314
32	0xbce015b2	-0.027354095
33	0x3c8c51b0	0.017128795
34	0xbd3d63d9	-0.0462378
35	0xbb2661fe	-0.0025387998
36	0xbd9e9e9a	-0.077450946
37	0xbd7ead7a	-0.06217716
38	0xbd605922	-0.054772504
39	0xbd253f94	-0.040343836
40	0x3d257a2b	0.04039971
41	0xbd629384	-0.055316463
42	0x3c455abc	0.012045559
43	0x3d4649fe	0.04841041
44	0xbd8c6eca	-0.06857069
45	0x3d033097	0.03202876
46	0xbd89066a	-0.066906765
47	0x3daa1c9e	0.083062395
48	0x3cdeb7c9	0.027187245
49	0xbc70bf29	-0.014694014
50	0xbc0d97d7	-0.0086421585
51	0xbc1e5e5d	-0.009666053
52	0x3daf8970	0.08571136
53	0xbdb1b885	-0.086777724
54	0x3d88c2f5	0.0667781
55	0x3d5545ae	0.052068405
56	0x3d0f8de3	0.035047423
57	0x3d587e4d	0.052854825
58	0xbc641bb5	-0.0139226215
59	0x3d3d5d5f	0.046231624
60	0x3d6d8eda	0.057997562
61	0x3d1df52f	0.038563903
62	0x3b2163b8	0.0024626087
63	0x3ccc9503	0.024973398
64	0x3c141990	0.009039298
65	0xbda927ac	-0.0825952
66	0xbc25289c	-0.010080483
67	0x3cd8d387	0.026468052
68	0x3b55c085	0.0032615971
69	0xbd756703	-0.059912693
70	0x3cb0c5d1	0.021578701
71	0xbd98ca68	-0.07460481
72	0xbdb4262b	-0.087963425
73	0x3c35ba0f	0.011091723
74	0xbd908fa6	-0.07058649
75	0xbc3bdf31	-0.011466787
76	0xbb5ebdcc	-0.003398764
77	0xbd30113a	-0.04298518
78	0x3db2e3d7	0.08734863
79	0x3cef45e0	0.029208124
80	0x3d8d9ab9	0.06914277
81	0x3cf41109	0.02979328
82	0x3cc1ebab	0.023671946
83	0x3d87e9db	0.06636401
84	0xbdaa26be	-0.08308171
85	0x3c9ee714	0.019397296
86	0x3cab0e48	0.020880833
87	0xbd827fbc	-0.0637202
88	0x3cba38da	0.022732187
89	0xbd9047ae	-0.07044922
90	0xbc973d36	-0.018461805
91	0x3c40dbbe	0.011771141
92	0xbca1b284	-0.019738443
93	0x3cd626a1	0.026141467
94	0x3d559b98	0.05215034
95	0x3caaa322	0.02082974
96	0xbd96f90e	-0.07371722
97	0xbad075b4	-0.0015904219
98	0x3ba0f459	0.004911941
99	0x3b0a283e	0.0021081115
100	0x3d193b09	0.037409816
101	0xbd3533c3	-0.044238817
102	0xbbb1de68	-0.005428124
103	0xbc44f845	-0.012022083
104	0xbc9b4aef	-0.01895663
105	0xbd7a0ef3	-0.061049413
106	0xbd4be815	-0.049781878
107	0xbd81a38e	-0.06330024
108	0x3b66cf9c	0.003521896
109	0xbd910b96	-0.07082288
110	0xbaea4543	-0.0017873425
111	0x3c9ec030	0.019378752
112	0x3d2f01ee	0.04272645
113	0x3d641b46	0.055690072
114	0x3d907b52	0.070547715
115	0x3dab5193	0.083651684
116	0x3bd69e32	0.00654962
117	0x3d7ec5df	0.062200423
118	0xbda66863	-0.08125379
119	0xbc773ea1	-0.0150906155
120	0xbd9e5674	-0.077313334
121	0xbd97a4d2	-0.07404484
122	0x3d814260	0.06311488
123	0x3beb5a5c	0.0071824025
124	0xbd5504d0	-0.052006543
125	0xbdac3538	-0.08408588
126	0xbd8f74dc	-0.07004711
127	0xbdb4a81d	-0.088211276
128	0x3d5a8c88	0.053356677
129	0xbd3e9e20	-0.04653752
130	0x3dadf105	0.084932365
131	0xbbc7f3d0	-0.0061020628
132	0xbdaa8bbd	-0.08327434
133	0xbd8c5d8f	-0.068537824
134	0x3d2bc0ed	0.041932035
135	0xbc5f0345	-0.013611619
136	0xbd4b9e93	-0.049711775
137	0x3d08447e	0.033268444
138	0xbd8a007c	-0.06738374
139	0x3d5cdb76	0.05392023
140	0x3c8343d6	0.016023558
141	0x3d1e0194	0.038575724
142	0xbd8abb2d	-0.06773982
143	0xbd351ec2	-0.044218786
144	0x3db40168	0.08789331
145	0x3cad6c13	0.021169698
146	0x3d803dc6	0.06261782
147	0xbd97cdf5	-0.0741233
148	0x3d942207	0.07233053
149	0x3d21fb2f	0.039546188
150	0xbd5a0a56	-0.053232513
151	0xbd5d272d	-0.05399244
152	0x3d8db0bb	0.06918474
153	0xbd39370e	-0.04521852
154	0xbb7f8ca2	-0.0038993736
155	0xbd9d45cf	-0.076793306
156	0x3d5e89ef	0.054330762
157	0xbd683b2f	-0.056697067
158	0xbd802074	-0.0625619
159	0xbd7ddc02	-0.061977394
160	0x3d7eac2c	0.062175915
161	0x3d0f77f4	0.035026506
162	0xbd65a344	-0.056063905
163	0xbc8b3bf3	-0.01699636
164	0x3cb7bc7a	0.02242874
165	0x3da97bf3	0.082755946
166	0xbd667456	-0.05626329
167	0xbdb14146	-0.08655028
168	0xbdb36ffe	-0.08761595
169	0xbd7ec6ef	-0.062201437
170	0x3d43c757	0.047797527
171	0xbd93dbf7	-0.07219689
172	0x3d9d9fc8	0.076964915
173	0x3d9300dc	0.07177898
174	0xbd358818	-0.044319242
175	0x3d0930b1	0.0334937
176	0x3d8e4775	0.06947223
177	0xbd278d38	-0.04090616
178	0xbca455f0	-0.02006051
179	0xb9213b3c	-0.00015376223
180	0x3c5309e0	0.012880772
181	0x3d4ec8fc	0.050484642
182	0xbd95b3e9	-0.07309706
183	0xbca8f246	-0.020623337
184	0xbc872a8f	-0.016499786
185	0xbd740ef6	-0.05958458
186	0x3cafa069	0.021438794
187	0xbbf21046	-0.007387194
188	0xbd970502	-0.07374002
189	0xbbc21eef	-0.0059240977
190	0xbd8353e1	-0.06412483
191	0xbdb40846	-0.087906405
192	0xbd0a8d1b	-0.033825975
193	0xbd879a0b	-0.06621178
194	0xbb3c010c	-0.0028687147
195	0xbd6772e2	-0.056506045
196	0x3cb7ca0b	0.022435209
197	0xbd90713d	-0.070528485
198	0x3d7ffc20	0.062496305
199	0x3d9f459b	0.07776948
200	0xbd1a788f	-0.03771263
201	0xbc456475	-0.012047877
202	0x3cafdcbd	0.02146756
203	0x3d4b7141	0.049668554
204	0xbd302186	-0.04300072
205	0xbd80ece8	-0.06295186
206	0xbd412479	-0.047153924
207	0xbd5707f7	-0.05249783
208	0xbd02f564	-0.031972304
209	0xbd64fb43	-0.055903684
210	0x3da5986f	0.08085715
211	0xbd5b49ed	-0.053537298
212	0xbcd2cbd9	-0.025731968
213	0x3ca8e27f	0.020615814
214	0x3d1911e4	0.037370577
215	0x3d0b1fd7	0.03396591
216	0xbc99afd2	-0.018760595
217	0xbcc994be	-0.024607059
218	0x3d9780e2	0.07397629
219	0x3d6a02a3	0.05713142
220	0x3d84048d	0.064461805
221	0x3d323304	0.043505684
222	0xbd09fb4f	-0.033686932
223	0x3c7825e6	0.015145754
224	0x3cff3c6c	0.031156741
225	0xbdb3c19d	-0.08777163
226	0xbd066b81	-0.032817367
227	0x3d8305e4	0.06397608
228	0xbd2d5bb3	-0.04232378
229	0x3d19969e	0.037497155
230	0xbc8851bb	-0.016640535
231	0x3da3486b	0.07972797
232	0x3d45062e	0.048101597
233	0xbd994982	-0.07484724
234	0x3d162cbb	0.036663752
235	0x3d3ad58b	0.045613807
236	0x3d4e6d0d	0.050396968
237	0x3da1bd9b	0.078974925
238	0x3da831b4	0.08212605
239	0xbc9e49e1	-0.019322338
240	0xbd182697	-0.037146177
241	0xbd836ee4	-0.06417635
242	0x3cbb2194	0.02284316
243	0x3d240cc6	0.040051244
244	0xbd9538ee	-0.07286249
245	0xbd23d004	-0.0399933
246	0xbd332413	-0.043735575
247	0x3d0dfd2d	0.034665275
248	0xbbf1378c	-0.007361358
249	0x3d7be36b	0.06149618
250	0xbd9387e7	-0.07203656
251	0xbc04a9f1	-0.008097158
252	0x3d9f4387	0.07776552
253	0xbce64055	-0.028106848
254	0xbdabe004	-0.08392337
255	0xbd15b84b	-0.03655271

shared_layer.2.bias f4 [64]
0	0x3af268c0	0.0018494353
1	0x3d9ad735	0.07560579
2	0x3d8b0fb0	0.067901015
3	0xbc31830e	-0.0108344685
4	0x3c4653a3	0.0121049015
5	0xbd7e61c3	-0.06210495
6	0xbd03c6fe	-0.032172196
7	0xbcdae253	-0.026719248
8	0x3d08ee1a	0.033430196
9	0xbd2184bb	-0.039433222
10	0xbd60c3a7	-0.05487409
11	0xbda611b2	-0.08108844
12	0xbcc5803c	-0.024108998
13	0xbd0fb940	-0.035088778
14	0x3c404b2f	0.011736675
15	0x3d0edee0	0.03488052
16	0x3c043daa	0.0080713425
17	0xbd237f05	-0.039916057
18	0xbd48d8c8	-0.049034864
19	0xbc286a55	-0.010279258
20	0x3d032253	0.032015156
21	0xbd55a7d9	-0.052162025
22	0xbdb05815	-0.0861055
23	0x3da36f41	0.079802044
24	0xbda8eb3e	-0.08247994
25	0x3d1de532	0.038548656
26	0x3d8b2ea1	0.06796003
27	0xbd3b9649	-0.04579762
28	0x3d928881	0.07154942
29	0x3ce300bb	0.02771031
30	0x3d9f1c6a	0.077690914
31	0x3c94788f	0.018123893
32	0xbd6ba53f	-0.057530638
33	0x3bb1483c	0.0054102223
34	0x3d0d9958	0.034570068
35	0xbbe4baa1	-0.0069802557
36	0xbd6ed9e3	-0.05831326
37	0x3d1b01bd	0.037843455
38	0xbc1d8e08	-0.009616382
39	0xbd0857e2	-0.033286937
40	0x3c8fd77e	0.01755881
41	0x3cc3aa7e	0.023885008
42	0x3daf76c1	0.085675724
43	0xbc9562be	-0.01823556
44	0xbd20eaea	-0.03928653
45	0xbcd8de33	-0.02647314
46	0xbd0459d1	-0.032312218
47	0xbd8af606	-0.067852065
48	0x3d8f0114	0.069826275
49	0x3d7857af	0.060630497
50	0x3be9b1d4	0.0071317945
51	0x3d277571	0.040883485
52	0xbd959424	-0.07303646
53	0x3d0edbb5	0.034877498
54	0xbd1fde1d	-0.039030183
55	0xbd912eb5	-0.07088987
56	0x3c666596	0.014062306
57	0xbcb69641	-0.022288444
58	0x3cb2e52f	0.021837799
59	0x3d9f7716	0.07786386
60	0xbd88c383	-0.06677916
61	0xbd4cc7e7	-0.04999533
62	0x3b9ef36e	0.0048507964
63	0x3da4e761	0.080519445

actor.0.weight f4 [32, 64]
0	0x3d188a80	0.03724146
1	0xbd934314	-0.071905285
2	0xbddc2b4a	-0.10750444
3	0xbdc668e2	-0.096879736
4	0x3d16dfe0	0.036834598
5	0x3dd1b7b2	0.10240115
6	0xbd5bf250	-0.053697884
7	0xbc7f7970	-0.015592918
8	0x3dd98d24	0.106226236
9	0xbd438924	-0.04773821
10	0xbdc4f0f6	-0.09616272
11	0x3dcc06fa	0.09962268
12	0xbd90ba16	-0.07066743
13	0xbd8ea7b0	-0.069655776
14	0xbd1b1190	-0.037858546
15	0x3d84eda8	0.06490642
16	0x3bb9d360	0.00567095
17	0x3d8c8a78	0.06862348
18	0x3c825520	0.015909731
19	0x3dddb784	0.108260185
20	0x3d96459c	0.07337496
21	0xbd86c5b8	-0.065806806
22	0xbdc1501a	-0.09439106
23	0xbda20f36	-0.079130575
24	0x3cbcd270	0.023049563
25	0x3d5874a8	0.052845627
26	0xbcfe7980	-0.031063795
27	0xbd95debc	-0.07317874
28	0x3ded5c90	0.115899205
29	0xbdd71d44	-0.10503629
30	0xbd2ea54c	-0.042638108
31	0x3ca3bf68	0.01998873
32	0x3dcc7626	0.099834725
33	0xbdfe1a3a	-0.12407346
34	0xbdda848a	-0.10669811
35	0xbdc3dd36	-0.09563677
36	0x3de3c480	0.11121464
37	0x3d2684d4	0.04065402
38	0x3da293dc	0.07938358
39	0xbdf855e2	-0.12125756
40	0x3dea47e4	0.11439493
41	0x3dfa5bc2	0.12224533
42	0x3dead9f6	0.11467354
43	0x3d9a31fc	0.07529065
44	0xbd366df0	-0.04453844
45	0x3d17f024	0.03709425
46	0x3d178e30	0.037000835
47	0x3d9f4a02	0.07777788
48	0xbd64dc3c	-0.055874094
49	0xbd03a104	-0.03213598
50	0xbd1e5680	-0.03865671
51	0xba353000	-0.00069117546
52	0xbdcca198	-0.09991759
53	0x3cb2cbb8	0.021825656
54	0xbdd697a6	-0.104781434
55	0x3d92969e	0.07157634
56	0xbd795f30	-0.060881793
57	0xbc6177e0	-0.013761491
58	0xbdb2cb04	-0.087301284
59	0x3d5d3678	0.054007024
60	0x3dd40412	0.10352339
61	0x3d566760	0.05234468
62	0xbda173a4	-0.07883385
63	0x3d0cab64	0.03434314
64	0xbbe97ae0	-0.0071252435
65	0xbc6d9900	-0.01450181
66	0xbdf8f756	-0.121565506
67	0xbde77b06	-0.11302762
68	0xbd932646	-0.071850345
69	0xbda9bc9a	-0.08287926
70	0xbcfe67e8	-0.031055406
71	0xbc593710	-0.013257757
72	0x3b87a2e0	0.0041392893
73	0x3c5268a0	0.012842327
74	0x3c011750	0.007879093
75	0x3ddde306	0.10834317
76	0x3dd17c58	0.10228795
77	0x3b94dee0	0.0045431703
78	0xbd431ee8	-0.047636896
79	0xbd04aa0c	-0.03238873
80	0xbd165d8c	-0.036710307
81	0xbcafc3b0	-0.021455616
82	0x3db974ee	0.09055506
83	0xbd990a92	-0.07472719
84	0x3cd205a8	0.025637463
85	0xbd228290	-0.039675295
86	0x3d14e234	0.036348537
87	0xbb574e80	-0.0032853186
88	0xbd185228	-0.037187725
89	0xbdaf4e98	-0.085599124
90	0x3dca44ec	0.09876427
91	0x3c10c640	0.008836329
92	0x3d457d38	0.04821512
93	0xbd495f78	-0.04916331
94	0x3dcaca66	0.09901886
95	0xbad99b00	-0.001660198
96	0xbce8eba8	-0.028432682
97	0xbda72aa4	-0.0816243
98	0x3da94186	0.08264451
99	0x3d7cac2c	0.061687633
100	0xbc82a3d8	-0.015947267
101	0xbda0017c	-0.07812783
102	0xbda5031e	-0.08057235
103	0xbc04f9a0	-0.008116156
104	0x3d7ecedc	0.062208995
105	0x3cb1d1d0	0.021706492
106	0x3dec28ec	0.11531243
107	0xbd70f5e4	-0.05882825
108	0xbd0c2c08	-0.03422168
109	0x3c9c88a8	0.019108132
110	0x3d7b9c44	0.061428323
111	0xbdfa7ec4	-0.1223121
112	0x3df6bdc0	0.12047911
113	0xbc443920	-0.01197651
114	0xbd6b0500	-0.057377815
115	0xbcaa1640	-0.020762563
116	0x3dd9d22a	0.10635789
117	0xbde8ab0e	-0.11360751
118	0x3c8089c8	0.0156907
119	0xbb46fa40	-0.0030361563
120	0xbda59138	-0.08084339
121	0x3d358c6c	0.04432337
122	0xbdfcf582	-0.123515144
123	0xbdecb660	-0.11558223
124	0x3ca243d8	0.019807741
125	0xbd76c468	-0.0602459
126	0xbdb37760	-0.08763003
127	0xbc9d3700	-0.019191265
128	0xbd789584	-0.060689464
129	0xbc637080	-0.013881803
130	0x3d9c4e14	0.0763208
131	0xbc8c48e8	-0.017124608
132	0xbc3e72f0	-0.011624083
133	0xbd7b7e14	-0.061399534
134	0x3c943008	0.01808931
135	0x3d0ac7e0	0.033882022
136	0xbd5d6fc4	-0.054061666
137	0x3c036780	0.008020282
138	0xbdfb8ada	-0.12282343
139	0x3df0e08a	0.117615774
140	0xbde35dde	-0.11101888
141	0x3d9e7cc6	0.077386424
142	0x3d74f950	0.059808075
143	0xbc7851f0	-0.015156254
144	0xbdeda56c	-0.11603817
145	0x3de5eb66	0.11226539
146	0x3d50d970	0.050988615
147	0xbdd85716	-0.10563485
148	0x3d3df150	0.04637271
149	0xbdbedb56	-0.09319179
150	0xbba53a00	-0.0050423145
151	0x3dd1a62c	0.10236773
152	0x3da03c94	0.07824054
153	0x3daf240c	0.08551797
154	0x3d872dcc	0.06600532
155	0x3d250398	0.04028663
156	0xbce23ec0	-0.027617812
157	0xbdcbab6e	-0.09944807
158	0xbd023c6c	-0.031795904
159	0x3d9fb684	0.07798484
160	0xbdf83aee	-0.12120615
161	0xbd78f4a8	-0.060780197
162	0xbd1b4f8c	-0.03791766
163	0xbc7514d0	-0.014958575
164	0x3b713880	0.0036807358
165	0xbdebbbf2	-0.11510457
166	0xbd4a3394	-0.049365595
167	0xbdc6f8d8	-0.09715432
168	0x3c12a0e0	0.008949488
169	0xbcc43f10	-0.023955852
170	0x3dd59d46	0.10430388
171	0x3dae7462	0.08518292
172	0xbdeb107c	-0.114777535
173	0x3ce0aa50	0.027424961
174	0x3dcbb622	0.099468485
175	0xbdffb95e	-0.12486528
176	0x3d9bcb12	0.07607092
177	0xbd9343f8	-0.071906984
178	0xbd2e5698	-0.04256305
179	0x3cca86e8	0.024722531
180	0xbdfc1bf4	-0.12310019
181	0x3df4d512	0.119547024
182	0x3dc8883a	0.09791608
183	0x3dab8fc0	0.083770275
184	0xbd7b7f68	-0.0614008
185	0xbdbe0ada	-0.092794135
186	0x3dbb5580	0.09147167
187	0xbd2992c8	-0.041399747
188	0xbd7e2240	-0.062044382
189	0x3db02650	0.086010575
190	0x3d5273d8	0.05138001
191	0xbddd9d12	-0.108209744
192	0xbda6909e	-0.08133052
193	0x3d6ee2b4	0.05832167
194	0x3d5d6f34	0.05406113
195	0xbd30b970	-0.043145597
196	0xbd554b78	-0.052073926
197	0xbd8c6c5c	-0.068566054
198	0x3d5ebd28	0.054379612
199	0x3ddb496a	0.10707362
200	0x3df490a8	0.119416535
201	0xbdc87e3e	-0.09789704
202	0xbdda3890	-0.1065532
203	0x3db7a9de	0.089679465
204	0xbdd1f216	-0.10251252
205	0xbd2b5764	-0.04183139
206	0xbadd3400	-0.0016876459
207	0x3ded41e6	0.11584835
208	0x3a9c5680	0.0011927634
209	0xbd004690	-0.031317294
210	0x3d73ee48	0.059553415
211	0x3de0cb06	0.10976224
212	0x3ccef400	0.025262833
213	0x3d4c7510	0.049916327
214	0x3ddbffe2	0.10742165
215	0xbda0fda8	-0.07860881
216	0xbbf54180	-0.007484615
217	0x3dfe8b80	0.12428951
218	0x3d8cca32	0.06874503
219	0xbc0b60f0	-0.008506998
220	0xbdf977fa	-0.12181087
221	0xbdecac2e	-0.11556278
222	0x3d582188	0.052766353
223	0x3cf39f88	0.029739156
224	0x3d43e5d8	0.047826618
225	0x3aee7580	0.0018192977
226	0xbcd3a710	-0.025836498
227	0xbded2dee	-0.11581026
228	0xbc1de8d0	-0.009638026
229	0xbdbdad42	-0.09261562
230	0xbcf7bb68	-0.03024073
231	0x3de56726	0.11201315
232	0xbd8a48ce	-0.06752168
233	0x3d766e9c	0.06016408
234	0xbd8e423a	-0.069462255
235	0xbc6d3810	-0.014478698
236	0xbddbb46a	-0.107277706
237	0xbdb816b0	-0.08988702
238	0x3d630174	0.055421308
239	0x3d25aacc	0.040446088
240	0xbd380734	-0.044928744
241	0x3db9a1dc	0.09064075
242	0xbd989184	-0.0744963
243	0xbd943226	-0.072361276
244	0xbdabbd68	-0.08385736
245	0xbda4e3fa	-0.080512956
246	0xbda6e104	-0.08148387
247	0x3df6688e	0.12031661
248	0xbdf0a5cc	-0.11750373
249	0x3c9cb750	0.019130379
250	0xbcab1468	-0.020883754
251	0xbc1b3120	-0.0094721615
252	0xbd3d875c	-0.046271667
253	0xbce0ef08	-0.027457729
254	0xbd33a03c	-0.043853983
255	0x3d84f1a8	0.06491405

actor.0.bias f4 [32]
0	0x3d12f7a4	0.0358807
1	0x3b9bc8c0	0.004754156
2	0x3df29500	0.11844826
3	0xbd283448	-0.041065484
4	0x3deff7b2	0.11717166
5	0xbd345980	-0.044030666
6	0x3dd197d8	0.1023404
7	0x3c829d68	0.015944198
8	0xbc8228f8	-0.015888676
9	0x3dc72af2	0.09724988
10	0x3d6378c8	0.055535108
11	0xbda928d4	-0.082597405
12	0x3bcb3040	0.00620082
13	0x3db4b1a0	0.08822942
14	0xbd0b4298	-0.033999056
15	0xbd853ebe	-0.06506108
16	0x3ca627f8	0.02028273
17	0xbdb117b8	-0.08647102
18	0x3d186c8c	0.037212893
19	0x3d98e222	0.074650064
20	0x3da3c002	0.07995607
21	0xbb9641e0	-0.0045854896
22	0xbb8c5a40	-0.0042832196
23	0x3df22e24	0.11825207
24	0xbc153f00	-0.009109259
25	0xbd5539f4	-0.05205722
26	0x3d8a45d4	0.067516
27	0xbd6d0ae8	-0.05787173
28	0x3b57ea00	0.0032945871
29	0xbde43bb4	-0.111442
30	0x3d887c74	0.066643625
31	0xbd1fcb04	-0.03901197

actor.2.weight f4 [7, 32]
0	0xbd8a5cf2	-0.06756009
1	0x3d73d7c9	0.05953196
2	0xbdb5a46f	-0.08869254
3	0xbe01aa82	-0.126627
4	0xbc295dee	-0.010337336
5	0xbda9ff1e	-0.08300613
6	0x3e03d2e1	0.12873413
7	0xbc828b8c	-0.015935682
8	0xbd8528e1	-0.06501938
9	0x3ca331c5	0.019921193
10	0xbe16c36c	-0.14722985
11	0xbbe27ec1	-0.006912083
12	0x3d6f53dd	0.058429588
13	0x3e3252cc	0.17414397
14	0xbdcbfb29	-0.099600144
15	0x3b8bd1ec	0.004266968
16	0xbdaceea1	-0.08443952
17	0x3cc7f545	0.024408946
18	0xbe11aaba	-0.14225283
19	0xbcdc93bc	-0.026925914
20	0x3e0a6a02	0.13517001
21	0x3e0121ac	0.12610501
22	0xbd30233a	-0.043002345
23	0xbd900440	-0.070320606
24	0xbe26cc3c	-0.16288847
25	0x3e1f7c4e	0.15574762
26	0x3de2c788	0.11073214
27	0x3d9933ec	0.074806064
28	0xbdee266d	-0.11628423
29	0x3dba1349	0.090857096
30	0x3d1e7750	0.038688004
31	0x3e299819	0.16561927
32	0xbdecbb51	-0.11559165
33	0xbd002b86	-0.031291507
34	0x3c428084	0.011871461
35	0xbe1f746b	-0.15571754
36	0x3db3e213	0.087833546
37	0x3de343b8	0.11096901
38	0x3dd0efc7	0.10201984
39	0x3a5eb605	0.0008495751
40	0xbc286f04	-0.010280374
41	0x3af5827a	0.0018730902
42	0x3e08c0c0	0.13354778
43	0x3bf42585	0.0074507617
44	0xbdc65644	-0.096844226
45	0x3e0600a2	0.13086179
46	0xbd8e3b23	-0.06944873
47	0xbd2c6b7c	-0.042094693
48	0xbcf5cb66	-0.030004214
49	0xbd9d1ee2	-0.07671906
50	0xbe0987ec	-0.13430756
51	0x3e32efc5	0.17474277
52	0x3e1f50aa	0.15558115
53	0xbe182735	-0.14858706
54	0xb9bd812e	-0.00036145136
55	0x3df4ea95	0.119588055
56	0xbe0b0504	-0.13576132
57	0xbcb4d429	-0.022073822
58	0xbdba69c3	-0.09102204
59	0xbd5faee0	-0.054610133
60	0x3cd86653	0.02641598
61	0xbdb823ce	-0.08991204
62	0xbe348db7	-0.17632185
63	0x3d94d9bb	0.07268091
64	0x3d2c508c	0.042069003
65	0xbe2703e5	-0.1631008
66	0xbd901ec1	-0.07037116
67	0xbdd4b889	-0.1038676
68	0x3d795112	0.06086833
69	0xbbd6c2ca	-0.0065539824
70	0xbdf85aa2	-0.12126662
71	0xbc47849f	-0.012177615
72	0xbd3a8de7	-0.045545485
73	0xbcc0a9ab	-0.023518404
74	0x3e092b38	0.13395393
75	0xbe11a506	-0.14223108
76	0xbdca5e55	-0.09881274
77	0xbd82861c	-0.063732356
78	0xbdf21f5b	-0.11822387
79	0xbde737e3	-0.112899564
80	0x3db0b681	0.0862856
81	0x3d9b23e1	0.07575203
82	0x3dba778d	0.09104834
83	0x3e20d3d2	0.15705803
84	0x3cb3f32b	0.021966537
85	0xbdaad061	-0.08340526
86	0xbdfbbae8	-0.12291509
87	0xbde08ecc	-0.10964736
88	0xbd8ad88b	-0.067795835
89	0x3e1e91da	0.15485325
90	0x3dd4839a	0.103766635
91	0x3d41afeb	0.04728691
92	0x3dcf698e	0.10127555
93	0xbcea80b4	-0.028625824
94	0xbe30eb0e	-0.17277166
95	0xbe16de60	-0.14733267
96	0xba6d5571	-0.0009053564
97	0xbe17d88e	-0.14828703
98	0x3daea9f4	0.0852851
99	0xbe15d746	-0.14632902
100	0xbe215d22	-0.15758184
101	0x3e031fa4	0.12805039
102	0x3dd332c1	0.10312415
103	0xbdef44f0	-0.11683071
104	0x3d387a72	0.045038648
105	0xbcfce64c	-0.030871533
106	0xbc1b9d3f	-0.00949794
107	0xbd8a5ad6	-0.06755607
108	0x3dd8e7f5	0.10591117
109	0xbe170eeb	-0.14751785
110	0xbb2f128c	-0.0026713936
111	0x3da7aec3	0.0818763
112	0x3df5c6ec	0.12000832
113	0xbe1ae648	-0.15126908
114	0x3c314e99	0.010821962
115	0x3d927a83	0.071522735
116	0x3dfc8a27	0.12331038
117	0x3ceea305	0.029130468
118	0x3d9141f0	0.07092655
119	0xbe052ff3	-0.13006572
120	0x3e125009	0.14288343
121	0xbe31b84f	-0.17355464
122	0xbd1c69ee	-0.03818696
123	0xbe0b87c8	-0.13626015
124	0x3da3ca92	0.079976216
125	0xbdd1096c	-0.10206875
126	0x3df62e84	0.12020591
127	0x3d9a15eb	0.07523712
128	0x3d4bcdfc	0.04975699
129	0xbdaed83c	-0.08537337
130	0xbe1e0501	-0.15431596
131	0xbde1e0ce	-0.11029206
132	0xbdca6c16	-0.09883897
133	0xbda3a3db	-0.07990237
134	0xbcc0a2ff	-0.023515223
135	0x3e24d1d8	0.16095674
136	0xbddd3248	-0.10800606
137	0xbdfc3a3a	-0.12315793
138	0xbd3d65a6	-0.046239518
139	0x3d9e2985	0.07722763
140	0xbe07af62	-0.13250497
141	0x3dbf237b	0.09332939
142	0xbbd5f17c	-0.0065290313
143	0x3e10fca9	0.14158882
144	0x3dd38fea	0.10330184
145	0xbd72d518	-0.059285253
146	0x3d2d72d6	0.042345844
147	0xbda87c47	-0.08226829
148	0xbd20c2a1	-0.039248113
149	0xbe1515f6	-0.14559159
150	0x3c10de83	0.008842113
151	0xbe0240d3	-0.12720041
152	0xbe0000e0	-0.12500334
153	0x3e2730dc	0.16327232
154	0xbb6a415f	-0.003574453
155	0x3c9f7bd1	0.01946822
156	0x3c84641d	0.016161019
157	0x3d89df09	0.06731994
158	0x3dbd5e1d	0.09246466
159	0xbdbce7f9	-0.09223933
160	0x3d37456b	0.044743937
161	0xbcf5f776	-0.030025225
162	0xbde93284	-0.11386588
163	0xbe2794f0	-0.16365409
164	0x3d256d60	0.04038751
165	0xbb8718f2	-0.0041228468
166	0xbcf8055f	-0.030275999
167	0xbde9d946	-0.11418395
168	0x3e19ee5d	0.15032335
169	0x3d2e4b0e	0.042552046
170	0x3c5791f9	0.013157361
171	0x3e00a78b	0.12563913
172	0xbdbe8661	-0.093029745
173	0x3cc8d512	0.024515662
174	0xbe285d24	-0.1644178
175	0x3e14477c	0.14480394
176	0x3baf881b	0.005356801
177	0x3dea6975	0.114458956
178	0x3cadbd80	0.021208525
179	0x3d3384f8	0.04382798
180	0x3dbf84a4	0.09351471
181	0xbe2d6c25	-0.16935785
182	0xbd936ee2	-0.071988836
183	0x3de7a9ff	0.11311721
184	0x3ddc9811	0.10771192
185	0x3ddd0824	0.10792568
186	0x3d33bfae	0.043883972
187	0x3dc670c0	0.09689474
188	0xbdb23c90	-0.08702958
189	0xbd4fdab6	-0.05074569
190	0xbd3eda67	-0.046595003
191	0x3e0da864	0.13833767
192	0x3d9bc776	0.076064035
193	0xbd148aad	-0.036265064
194	0xbd84ad90	-0.06478417
195	0x3d8b7b39	0.06810612
196	0xbe2007ab	-0.15627925
197	0x3e338183	0.17529874
198	0x3dc8a913	0.09797873
199	0x3dcb0240	0.099125385
200	0xbc1df759	-0.009641492
201	0xbddef1ef	-0.10885989
202	0x3e065b36	0.13120732
203	0x3e288bbd	0.16459556
204	0x3d85b392	0.06528391
205	0x3cad1c48	0.02113165
206	0xbe094035	-0.134034
207	0xbd5d8169	-0.054078493
208	0x38ef446b	0.00011409152
209	0x3d96fd5f	0.073725455
210	0x3a4d3fb1	0.000782962
211	0x3dfc3a43	0.123158
212	0x3e27ca17	0.16385685
213	0xbe065166	-0.13116989
214	0xbc05181e	-0.008123426
215	0x3e04e75c	0.12978882
216	0xbe0c1a40	-0.13681889
217	0xbe1de2a9	-0.15418495
218	0xbdf04570	-0.11731994
219	0x3b3668a0	0.0027833357
220	0x3da77092	0.08175768
221	0xbce98099	-0.028503703
222	0x3cbc71e0	0.023003519
223	0xbe33641f	-0.17518662

actor.2.bias f4 [7]
0	0xbe0153c0	-0.12629604
1	0xbd0cf3e7	-0.03441229
2	0xbddacd60	-0.106837034
3	0xbdda87e4	-0.1067045
4	0x3d13cd27	0.03608432
5	0x3d8c856d	0.068613864
6	0xbcb05514	-0.021524943

critic.0.weight f4 [32, 64]
0	0xbd31f300	-0.043444633
1	0xbc29b440	-0.010357916
2	0xbd3c9bdc	-0.046047077
3	0xbdc8d67c	-0.09806535
4	0x3d62626c	0.055269644
5	0xbd6921a8	-0.056916863
6	0xbc49f670	-0.012326822
7	0x3d8f7a56	0.070057556
8	0x3d0d3f88	0.034484416
9	0x3c952e00	0.018210411
10	0x3df2f660	0.118633986
11	0xbd686ae8	-0.05674258
12	0x3de7a2f8	0.11310381
13	0x3d559ea0	0.05215323
14	0xbc7c3cb0	-0.015395328
15	0x3dc4bd4c	0.09606418
16	0xbcb1a7e0	-0.021686494
17	0xbd8e6f72	-0.0695485
18	0xbdbae4a0	-0.09125638
19	0x3d4bc0b0	0.049744308
20	0x3d03c5e0	0.03217113
21	0xbb118d00	-0.0022209287
22	0x3dbf09c4	0.093280345
23	0x3df754d2	0.12076725
24	0x3bca2380	0.0061687827
25	0xbd7e96ac	-0.06215541
26	0xbc106ea0	-0.008815438
27	0x3d80da1a	0.062915996
28	0xbcfee4f0	-0.031115025
29	0xbdf4f888	-0.11961466
30	0x3d6bca54	0.057566002
31	0x3d6ab4e8	0.057301432
32	0x3db1b198	0.086764514
33	0xbd5fc098	-0.05462703
34	0xbdc9d6ec	-0.09855446
35	0x3d798a84	0.060923114
36	0xbc8e2e30	-0.017356008
37	0xbd9ae5c6	-0.07563357
38	0x3d9e7370	0.07736862
39	0xbd48e344	-0.049044862
40	0x3db784ee	0.08960901
41	0xbd8fbff0	-0.07019031
42	0xbd66b614	-0.056325987
43	0xbdb6b91e	-0.08922027
44	0x3cd4a0c8	0.025955573
45	0x3dcf5700	0.10124016
46	0xbaa47480	-0.0012546927
47	0xbd6fa06c	-0.0585026
48	0xbddf79c8	-0.109119
49	0x3b396d00	0.0028293729
50	0x3c81dd98	0.015852734
51	0x3cdd2d08	0.026999012
52	0x3da1cfb8	0.07900947
53	0xbdbb7144	-0.09152463
54	0x3dec1ac8	0.115285456
55	0x3dbbaa2c	0.09163317
56	0xbcee6548	-0.029101029
57	0xbd93fafc	-0.07225606
58	0x3d2876f4	0.041129068
59	0x3dae8a8e	0.08522521
60	0x3d74b454	0.059742287
61	0x3d60fdac	0.05492942
62	0x3ca38ed0	0.01996556
63	0xbd9c5dd2	-0.07635082
64	0x3dd8ed88	0.105921805
65	0x3de1c906	0.1102467
66	0xbdddfc6c	-0.10839161
67	0xbda591d6	-0.080844566
68	0xbc94c630	-0.01816091
69	0xbd2ec304	-0.04266645
70	0x3de7fb22	0.11327197
71	0xbdf24bbe	-0.11830853
72	0x3ddd284a	0.107987
73	0x3da23288	0.07919794
74	0xbd8cad02	-0.06868936
75	0xbb0cd700	-0.0021490455
76	0xbdcddde4	-0.10052088
77	0x3de9c3fc	0.11414334
78	0x3defe93a	0.11714406
79	0x3d751a18	0.059839338
80	0xbda1679a	-0.078810886
81	0x3baa4240	0.005195886
82	0x3d6e4878	0.05817458
83	0x3d8e6aba	0.0695395
84	0xbd546c38	-0.051861018
85	0xbd363964	-0.044488326
86	0xbd22f1e0	-0.03978145
87	0xbbee6cc0	-0.0072761476
88	0xbcc17ef8	-0.023620114
89	0xbdb38a48	-0.087666094
90	0x3dfb0e82	0.122586265
91	0xbd38d07c	-0.0451207
92	0xbdafc72c	-0.08582911
93	0x3d158b74	0.036509946
94	0x3db42d5e	0.087977156
95	0x3c17aea0	0.009257942
96	0xbd2eb284	-0.042650715
97	0x3d3ff068	0.04686013
98	0xbccefd80	-0.025267363
99	0x3d99b6b8	0.07505554
100	0xbde032f4	-0.109472185
101	0xbda7f4d6	-0.082009956
102	0xbdf7d74a	-0.1210161
103	0xbd3fa1cc	-0.04678516
104	0xbd09dfc8	-0.03366068
105	0xbde989f6	-0.11403267
106	0x3c15bf10	0.009139791
107	0x3d85c7b8	0.06532234
108	0x3db9fb28	0.090811074
109	0x3d8eb218	0.069675624
110	0x3da49d30	0.08037794
111	0xbd9bded2	-0.07610859
112	0x3d867dc8	0.065669596
113	0x3dbb8884	0.09156898
114	0x3da7c6e6	0.08192234
115	0xbc3fc750	-0.011705235
116	0x3dd7d8f4	0.105394274
117	0x3d9d74e4	0.07688311
118	0xbc536c50	-0.012904242
119	0x3bc21d00	0.005923867
120	0x3d4dd104	0.05024816
121	0x3c08e370	0.008355007
122	0xbd5a0eb0	-0.053236663
123	0xbd6ecee0	-0.05830276
124	0x3d76e3f4	0.060275987
125	0x3db9d6ea	0.09074195
126	0x3d96c35c	0.073614806
127	0x3ced0388	0.028932348
128	0xbb445380	-0.0029956996
129	0x3d9714f4	0.07377043
130	0x3da782f0	0.08179271
131	0x3c942208	0.018082634
132	0xbce924c8	-0.028459921
133	0xbcb2a960	-0.02180928
134	0x3d90c45a	0.07068701
135	0x3dfd8c54	0.12380281
136	0x3d8c3db0	0.068477035
137	0xbda4fdae	-0.08056198
138	0x3d5bf790	0.05370289
139	0x3c0a4160	0.008438438
140	0x3da5120a	0.08060081
141	0xbcbc31a8	-0.022972897
142	0xbdccea76	-0.100056574
143	0x3da0b1ac	0.07846388
144	0xbd976a0e	-0.07393275
145	0xbd193ea4	-0.037413254
146	0xbda0768a	-0.078351095
147	0x3df791a6	0.12088327
148	0xbc14fba0	-0.009093195
149	0x3c059ed0	0.00815554
150	0xbccb64a0	-0.024828255
151	0x3ba231c0	0.0049497783
152	0x3d4052bc	0.0469539
153	0xbde78aae	-0.11305748
154	0xbd4227c4	-0.047401205
155	0x3df18f94	0.117949635
156	0x3c005ac0	0.0078341365
157	0xbdb6e89c	-0.089310855
158	0xbd8bb8aa	-0.06822331
159	0x3bfaec60	0.0076575726
160	0xbca5d360	-0.020242393
161	0x3cefc9a0	0.029270947
162	0x3ddf3958	0.10899609
163	0xbce44190	-0.027863294
164	0xbd751534	-0.059834674
165	0x3c907fa8	0.017638996
166	0xbd42b514	-0.04753597
167	0x3d88c6b8	0.066785276
168	0x3dc40606	0.095714614
169	0xbd7c4f00	-0.061598778
170	0xbcead580	-0.028666258
171	0xbd7f0f08	-0.062270194
172	0x3d7c59bc	0.061609015
173	0x3d6293d4	0.05531676
174	0x3d5724f0	0.05252546
175	0x3dfb1d32	0.12261428
176	0x3d63830c	0.055544898
177	0xbc243bc0	-0.010024011
178	0x3ddaab88	0.10677248
179	0x3cbff0d0	0.023430258
180	0xbd8a05da	-0.06739397
181	0x3dd41462	0.1035545
182	0x3df86ef2	0.12130536
183	0xbc3d05a0	-0.011536986
184	0x3ca29970	0.019848555
185	0x3cd2f8d8	0.025753424
186	0x3dc598ec	0.09648308
187	0x3db22f74	0.08700457
188	0x3ce0e728	0.027453974
189	0x3c7183e0	0.014740914
190	0xbdfd4ff2	-0.12368764
191	0xbdb25dee	-0.08709322
192	0x3d12664c	0.03574209
193	0xbda65a3a	-0.08122678
194	0x3d88312c	0.06650004
195	0x3dd33488	0.10312754
196	0xbc627a10	-0.013823047
197	0xbc66bc40	-0.014082968
198	0xbd8cae7c	-0.06869218
199	0xbdcc314a	-0.09970339
200	0xbd88ee62	-0.06686093
201	0x3d93f58c	0.07224569
202	0x3d4aed8c	0.04954295
203	0x3d18c6a0	0.0372988
204	0xbc62bb90	-0.013838664
205	0xbd9a694c	-0.07539615
206	0xbd460f6c	-0.04835455
207	0xbd0bec90	-0.03416115
208	0xbdff26c2	-0.12458564
209	0x3d99b604	0.0750542
210	0xbdbb2604	-0.0913811
211	0x3daec400	0.08533478
212	0x3cde7068	0.027153209
213	0x3d9ea96c	0.077471584
214	0xbdedec38	-0.11617321
215	0x3da8a80c	0.082351774
216	0x3d92afd0	0.0716244
217	0xbdf1e428	-0.118110955
218	0x3d15ab4c	0.036540315
219	0x3dfde4b2	0.12397136
220	0x3db159dc	0.086597174
221	0x3dfaa4ca	0.12238462
222	0x3b92f300	0.0044845343
223	0x3d5b2f2c	0.053511783
224	0x3d278d3c	0.040906176
225	0xbdfc238c	-0.123114675
226	0x3d733330	0.059374988
227	0xbcce4090	-0.02517727
228	0x3da74b32	0.08168639
229	0xbddf911c	-0.10916349
230	0xbcf439a0	-0.029812634
231	0xbdcb26ea	-0.09919532
232	0x3d5f5f48	0.054534227
233	0xbd4f6e9c	-0.050642595
234	0xbda0c582	-0.078501716
235	0xbc5387c0	-0.012910783
236	0x3d90705a	0.07052679
237	0xbdc36bb6	-0.095420286
238	0xbd951354	-0.07279077
239	0x3cd1daa8	0.025616959
240	0x3ae53d80	0.0017489642
241	0xbda3813a	-0.079836324
242	0xbd1d1bb4	-0.038356498
243	0xbdc2e974	-0.09517184
244	0xbdff5e48	-0.124691546
245	0xbdb88b7e	-0.09010981
246	0xbd50ff90	-0.051024973
247	0xbd97be7a	-0.074093774
248	0xbd2dca44	-0.042429224
249	0xbd5acf08	-0.053420097
250	0xbd44d348	-0.048053056
251	0xbdd64edc	-0.1046426
252	0x3b8e7840	0.004347831
253	0xbcf6e368	-0.030137733
254	0xbdb65514	-0.08902946
255	0x3dc2a712	0.095045224

critic.0.bias f4 [32]
0	0x3d9fcf22	0.07803179
1	0xbdc3725a	-0.09543295
2	0xbdf946e6	-0.12171726
3	0xbc6e68d0	-0.014551356
4	0x3cc6d570	0.024271697
5	0xbdecbe00	-0.11559677
6	0xbdfb932e	-0.12283932
7	0x3ca2a7e0	0.01985544
8	0x3df2f07c	0.11862275
9	0x3d66624c	0.056246087
10	0x3da8892e	0.0822929
11	0x3ded1ca2	0.11577727
12	0x3ca41590	0.020029813
13	0x3ded7430	0.11594427
14	0xbda48ffa	-0.08035274
15	0xbdc163d6	-0.0944287
16	0x3dd893aa	0.1057504
17	0xbd4a79a0	-0.049432397
18	0x3d16c390	0.036807597
19	0xbd19ec10	-0.037578642
20	0x3ca97bb8	0.020688877
21	0x3ce48a28	0.02789791
22	0xbd468f80	-0.048476696
23	0xbddcb83a	-0.10777326
24	0xbdab4eea	-0.08364661
25	0xbd069888	-0.03286031
26	0xbd645d60	-0.05575311
27	0x3dba82d0	0.09106982
28	0xbde59b60	-0.11211276
29	0x3db1fb6c	0.08690533
30	0x3d7f6528	0.06235233
31	0xbd33da88	-0.04390958

critic.2.weight f4 [1, 32]
0	0xbda3cc75	-0.079979815
1	0x3d8dd964	0.069262296
2	0x3e10ed0c	0.14152926
3	0xbd984b9a	-0.07436295
4	0x3d420186	0.047364734
5	0xbc978bd0	-0.018499285
6	0xbe0b8a8c	-0.1362707
7	0x3b93a3be	0.0045056036
8	0x3dbb9f99	0.091613
9	0xbc87b7b1	-0.016567083
10	0xbc904fc4	-0.01761616
11	0xbd470ab0	-0.048594177
12	0x3c296763	0.010339591
13	0xbe31d1cb	-0.17365186
14	0x3df6dfb6	0.12054388
15	0xbbcdc391	-0.006279417
16	0xbd85167b	-0.064984284
17	0xbde7e03e	-0.11322068
18	0xbd939a5c	-0.07207176
19	0xbb581a9f	-0.0032974852
20	0x3d04f27c	0.032457814
21	0xbe0a863a	-0.13527766
22	0x39fb1f52	0.00047897786
23	0xbe2d4692	-0.16921452
24	0x3dc2de46	0.095150515
25	0xbe1e6682	-0.15468791
26	0x3e1e140f	0.15437339
27	0x3cd71125	0.026253292
28	0xbdc7101d	-0.0971987
29	0xbd2516d2	-0.040304966
30	0xbced4632	-0.028964136
31	0xbcd50161	-0.026001634
