src/franka_h2/scripts/RL/pth/arm_ppo.pth (torch, 69554 bytes, 11 tensors)

shared_layer.0.weight f4 [128, 28]
000000 44 c4 4f bd 44 42 38 be 54 0e 0e be 85 89 68 be
       -0.050724283 -0.17994028 -0.13872653 -0.2270871
000010 81 95 56 3d b8 0f 68 be 6e 41 79 be 43 36 60 3d
       0.05238867 -0.22662246 -0.24341366 0.054739248
000020 8a ce ae bd 54 52 aa 3b 00 39 29 3e 3b 86 9e 3c
       -0.08535488 0.0051978026 0.1652565 0.019351115
000030 5f ca db 3d 9b 94 66 3e d5 7a 82 bd ba 70 68 be
       0.107319586 0.22517626 -0.063710846 -0.22699252
000040 3e e1 87 bd 44 46 08 3d 43 55 62 be 7c 96 8c 3e
       -0.066347584 0.033270136 -0.22102837 0.2745856
000050 b8 9c 39 3d 64 10 7b 3e 0a c2 6e be 0c 32 94 3e
       0.045315474 0.24517971 -0.23316208 0.28944433
000060 93 61 5f be 03 32 24 be a4 92 2f bc f3 9b 18 3e
       -0.21814565 -0.16034703 -0.010716114 0.1490324
000070 77 5a 0c be 0c fb 10 be 26 f6 eb 3c 7c 02 4c 3d
       -0.13706385 -0.14158267 0.028803896 0.049807057
000080 fb a2 ac bd 89 ee ea bd ea 7b fc bd b5 19 e0 bd
       -0.084295236 -0.11471278 -0.12328322 -0.10942403
000090 63 ed ba 3d 6a f1 d0 bc 9b 07 ee 3d 1a 2b 4f 3e
       0.09127309 -0.02550574 0.116225444 0.20231286
0000a0 da 2c b0 3d 95 6b 81 bd 0b 07 55 3e 1f 7a 2e be
       0.08602305 -0.06319348 0.20803468 -0.17038773
0000b0 eb 95 a3 3e d6 b2 90 be 3b f6 1b be e3 d5 8d 3e
       0.31950316 -0.2826144 -0.15230648 0.27702245
0000c0 bf 8b 87 3e 7d 9e 22 3d 2c a7 2a bd 4a 17 d6 3d
       0.26473805 0.039701927 -0.041663334 0.10453661
0000d0 e4 c9 3c 3d 54 c4 35 be 25 d6 76 3e 51 3e 11 3e
       0.046090975 -0.17750674 0.24105127 0.14183928
0000e0 ae e4 88 be 85 31 c6 3c 74 ac 60 bd 62 65 27 be
       -0.2673697 0.024193535 -0.054851964 -0.16347268
0000f0 15 62 7a be 9e e9 f7 bd 9a 8e da bd f6 83 37 bd
       -0.24451478 -0.12105106 -0.1067173 -0.044803582
000100 c9 f9 8c 3d 84 39 37 3e b8 a8 b3 bb b4 40 8c 3e
       0.0688358 0.17893034 -0.0054827593 0.27393115
000110 dc 33 17 bd 62 dd 7c 3e 4c 20 03 3d 1a 61 81 be
       -0.03691469 0.24693826 0.032013223 -0.25269395
000120 4e 65 38 3e 47 24 30 bd 69 c8 2b be 66 0d 1f 3d
       0.18007395 -0.043003347 -0.16775669 0.038831137
000130 52 e3 44 3e ef 0c 62 3d 44 a9 2c be 68 c7 08 3e
       0.19227341 0.055188116 -0.16861445 0.13357317
000140 06 93 51 be b7 d9 81 bb 67 75 cc bc e6 19 91 3e
       -0.20466241 -0.003962721 -0.024958326 0.2834007
000150 d4 92 64 be 83 3f b2 bd 2a 65 4c be 41 8f 9f be
       -0.22321635 -0.0870352 -0.19960466 -0.31163982
000160 64 6a 54 bc dc f1 78 be f3 ab 88 be 67 9e 5e 3e
       -0.012964819 -0.24311012 -0.26693687 0.21740113
000170 21 28 8d 3e e7 ee 31 3e 21 04 36 3e 6c bf 21 3e
       0.27569678 0.1737629 0.17775013 0.15795678
000180 37 01 0e 3c da 6a 29 3e 54 7e 9f 3e 11 6c 3d be
       0.008667282 0.16544667 0.31151068 -0.18498255
000190 6b cb 15 3e 44 a1 12 be 6b 78 55 bd 48 a0 0f 3d
       0.14628379 -0.1431933 -0.052116793 0.035064965
0001a0 6e 8f 1e bb e6 a7 fc 3c c9 22 5e be 96 5c ac 3d
       -0.0024194377 0.030841779 -0.21692957 0.08416097
0001b0 fb 50 2a 3c 42 57 46 be 65 d4 16 3e 46 a0 26 3e
       0.010395284 -0.19369224 0.1472946 0.16272077
0001c0 e1 99 b3 bd b0 4c 04 be 7e 61 01 3e 4f 53 e2 3b
       -0.087695844 -0.12919879 0.12634847 0.006906904
0001d0 8b a5 03 be 31 66 32 be 9e da 66 3d ea 05 a8 3d
       -0.12856118 -0.17421795 0.056360833 0.08204253
0001e0 8c c2 e9 bd 6f 00 16 3b 8d 35 1f be ae 3d bf bd
       -0.1141406 0.0022888442 -0.15547772 -0.09337936
0001f0 8a 03 95 bd d0 d5 e5 3d 70 bb 5c 3d 70 fb 9b 3d
       -0.07276066 0.11222422 0.05388969 0.07616317
000200 75 62 2c be 5c d3 0b 3d d9 6b 45 3d 9e a1 ec bd
       -0.16834433 0.034137115 0.048198555 -0.115542635
000210 bf 9c 05 be fe fe a8 bd ca fa 3d bd d3 17 ed bd
       -0.13048075 -0.08251761 -0.04638175 -0.1157681
000220 2c 8d 1d 3e eb 38 2e 3e f4 b8 39 be d8 e0 f8 3d
       0.15385884 0.170139 -0.1813696 0.121522605
000230 ec a8 00 3e 9f d5 39 be 0c c8 3b bd 46 2f fa 3d
       0.12564439 -0.18147896 -0.045845076 0.12216048
000240 76 42 20 3d d8 50 13 3d d5 d6 0e 3c 1e 50 45 3d
       0.039125882 0.03596577 0.008718212 0.04817211
000250 71 7d 14 be ce d0 f8 bd e8 b8 c9 bd 17 67 b8 3d
       -0.14500977 -0.12149201 -0.09849721 0.09004038
000260 2e 09 14 be b1 31 7b 3d f6 d7 ce 3d 26 25 1f be
       -0.14456627 0.061326686 0.10099785 -0.15541515
000270 11 bc 2c 3e 45 8e ff 3d a9 52 2c be 90 10 e0 3d
       0.16868617 0.12478308 -0.16828407 0.10940659
000280 47 4e ed bd 8f 5d 3c bc 40 8a 96 bd 8d 03 90 bc
       -0.11587196 -0.0114969155 -0.07350588 -0.017579818
000290 0a a8 1a bd ae be 9d 3d a4 01 3e 3d 5b f5 c1 3d
       -0.03775791 0.07702385 0.046388283 0.09470626
0002a0 bc 94 f8 3b 13 3f 22 be 89 d4 a0 bd 57 18 01 be
       0.00758609 -0.15844373 -0.07853038 -0.12606941
0002b0 5a d8 72 be b3 4b 34 3d 92 99 d2 bb dc 2d a6 3d
       -0.23715344 0.044017505 -0.0064269984 0.08114216
0002c0 ed 05 43 3d e7 fa 87 3e 04 24 d0 3d f1 22 64 3e
       0.047613073 0.2655861 0.101631194 0.22278954
0002d0 70 7c 98 3d f9 a2 8b 3d 43 10 1f 3e 77 71 2a be
       0.074456096 0.06818194 0.15533547 -0.16644846
0002e0 d8 a1 09 3e 51 da 30 be df 6e 09 3c 5c f3 2a 3e
       0.13440645 -0.17270781 0.00838825 0.16694397
0002f0 25 19 24 3e 9d f0 f2 3d df 17 01 be c8 f4 9f 3e
       0.16025217 0.118622996 -0.12606762 0.3124144
000300 a3 11 4f be a5 04 9b be 9e 39 87 3e 9b 05 6c 3e
       -0.20221572 -0.3027698 0.26411146 0.23049013
000310 60 de 04 be 77 93 dc 3d da 62 50 bd 3c e4 f5 bd
       -0.12975454 0.10770314 -0.050875522 -0.12006423
000320 98 55 b1 3c 5d ac 4b bd b7 b8 30 3e 93 31 59 bd
       0.02164726 -0.049724925 0.17257963 -0.053025793
000330 49 d1 d1 bb 6e 52 9e 3d d7 1f 84 3d dc 60 82 bc
       -0.0064031226 0.07730566 0.064513855 -0.015915327
000340 c1 80 a4 bd a8 80 3d be e2 1b 0d 3e 7e e1 e9 3d
       -0.0803237 -0.1850611 0.13780168 0.11419962
000350 6e f6 90 bd 06 28 10 3e cd 55 28 be 80 29 37 3e
       -0.07078253 0.14077768 -0.1643898 0.17886925
000360 f4 55 00 be 1d 91 b6 bd 72 c0 26 be 41 d2 d7 bd
       -0.12532789 -0.08914397 -0.1628435 -0.105381496
000370 67 29 38 3e c4 87 32 be 6c d2 69 bd 7f 3d 3b be
       0.17984544 -0.17434603 -0.05708544 -0.18285178
000380 07 e0 f7 3d b2 1e a6 bd f8 a7 d4 bd 7f 13 07 3e
       0.12103277 -0.081113234 -0.103836 0.13191031
000390 91 d5 3d be 31 dd 5e 3d 00 6b 6b bd 0d 22 22 3e
       -0.185385 0.054410163 -0.05747509 0.15833302
0003a0 9f cd 01 be 85 9a 2f be 6b 07 e8 3d 25 4d fd 3c
       -0.12676094 -0.17148788 0.1132954 0.030920574
0003b0 5c 64 21 3e 32 6a 35 be 56 3c 01 be 7a 25 36 3c
       0.1576094 -0.17716292 -0.12620673 0.011117334
0003c0 f5 a0 f7 bd ed 97 02 3d 9b 9c 3a be 22 48 bd bd
       -0.12091247 0.03188317 -0.18223803 -0.09242274
0003d0 7a 3d 2e bb 35 af a7 3d 35 90 54 3d 27 51 1c 3e
       -0.0026586936 0.08187715 0.05189534 0.15265332
0003e0 7a 4a 2a 3e b6 b8 1e 3e 76 f1 76 bd f0 18 fb 3d
       0.16629973 0.15500149 -0.06028887 0.12260616
0003f0 ba 23 2f 3d b8 39 63 bd 3b d7 37 be aa 35 81 be
       0.04275868 -0.055474967 -0.17953198 -0.25236255

shared_layer.0.bias f4 [128]
000000 ac 18 88 3e 0b 35 df 3c 2e c6 6c bb 8a 00 a8 3d
       0.26581323 0.027246973 -0.0036128866 0.08203228
000010 1f 0f 24 be f1 de db bd 26 d5 c7 3d 44 5d f9 bd
       -0.16021393 -0.10735882 0.09757452 -0.12175992
000020 bb 6f 0d be 61 c2 05 3e 57 e2 3b bc 71 87 bb bd
       -0.13812153 0.13062431 -0.011467538 -0.09156693
000030 e8 f2 29 be 62 7c 75 3c 3e a9 39 be b8 a9 55 3e
       -0.16596568 0.014983268 -0.18130967 0.20865524
000040 a7 21 7c 3e e5 89 af bc 5a f0 b4 3d 00 26 0b be
       0.24622212 -0.021428058 0.08834906 -0.13588715
000050 b0 ed 60 3d 76 84 86 bc 6f a8 ec 3d 73 fe 20 3d
       0.054914176 -0.016420584 0.11555564 0.03930516
000060 f0 63 e7 3d f7 ed 41 3d b5 aa 17 3e 6f e5 3d 3e
       0.112983584 0.04734608 0.14811213 0.18544553
000070 a3 64 a5 bb bb 3d f6 3d c6 a7 dd 3c 43 e6 3e be
       -0.005047397 0.12023493 0.02705754 -0.18642525
000080 dd 65 d4 bc 0b d6 26 3e 12 af 57 3e 47 80 1f bd
       -0.025927478 0.16292588 0.21062878 -0.038940694
000090 ed b0 69 bd c8 15 8b 3e 53 ac 95 bd 0b 02 6a 3e
       -0.057053495 0.27165055 -0.07308259 0.22852342
0000a0 28 bd 9e 3d de d8 11 3e c8 79 88 3e a8 2f 1d 3e
       0.077509224 0.14242885 0.26655412 0.1535021
0000b0 06 24 6b 3e 7c 3b e8 3d 6b 4b ce 3d db 1e a7 3e
       0.2296296 0.11339471 0.100729786 0.32640728
0000c0 b5 35 e8 3d d1 ce 83 3d f4 aa 3f be 94 8a 18 bd
       0.11338369 0.064359315 -0.18717557 -0.037241533
0000d0 5e f6 c0 3d 4e 6c 04 3e 22 08 cb 3c 54 59 6b 3e
       0.09421991 0.1293194 0.024784151 0.22983295
0000e0 ec b6 ef 3c 8d 56 67 3c f1 be 82 3e 39 a1 5c 3e
       0.029262029 0.014119756 0.25536302 0.21545877
0000f0 50 8d f4 bb 5c 85 33 3c c8 26 7c bd 13 ec 19 3e
       -0.007463135 0.010957088 -0.061560422 0.15031461
000100 da 9a 23 bd e2 28 36 3e 3a f6 a2 3e bb af bc 3d
       -0.0399426 0.17789033 0.3182848 0.092132054
000110 68 e9 e6 bd fc 25 80 3d 08 33 a2 3e 64 ee a0 3d
       -0.112749875 0.06257245 0.3167956 0.078579694
000120 fe dc ba 3d 94 d9 3f 3e f9 0f 0f 3e 68 bd 77 3d
       0.09124182 0.18735343 0.13970937 0.060483366
000130 93 4d 1d 3e 01 2e c9 bc f9 3d 37 be 75 9a 4e 3b
       0.15361623 -0.02455807 -0.17894734 0.003152517
000140 b6 41 97 3e 4d 4a 8b 3e dd 56 f5 3d 68 d8 00 3e
       0.2954232 0.27205124 0.119794585 0.12582552
000150 fa a8 f7 bd 8c 9b 3d 3e b9 cd d6 3d 65 fa 85 3e
       -0.120927766 0.18516368 0.10488457 0.26167598
000160 91 a3 7a 3c 2f cf 84 3e 6b 41 61 3e 30 27 e5 bb
       0.015297786 0.2593932 0.21997611 -0.006993197
000170 f7 85 dc 3d 73 ce bb bd 1b d2 6d 3d b8 6a 77 bd
       0.10767739 -0.091702364 0.0580617 -0.06040451
000180 3f 24 24 3d 11 a4 56 3d 6f ae ef bd 91 55 a4 3e
       0.04007363 0.05240256 -0.117031924 0.32096532
000190 ff 4f 1a 3c 13 06 4a 3e 9c 75 58 3d b2 57 00 ba
       0.009418487 0.1972888 0.052846536 -0.000489588
0001a0 dd f4 57 bb 29 f8 83 3e df 35 d2 bc ce 95 67 3e
       -0.0032952346 0.2577527 -0.025660453 0.2261574
0001b0 28 cd cd 3c cc 4b 7e 3d 52 b0 2d be ef 65 66 3e
       0.02512224 0.062084004 -0.16961792 0.22499822
0001c0 96 a9 42 3e 1f 0c b1 bd 83 bf ea bd d3 8c 52 3e
       0.19010004 -0.0864489 -0.11462309 0.20561533
0001d0 1c 1e 65 3e 8d ac 64 3d 40 e9 96 3d 08 a5 df 3d
       0.22374767 0.05582862 0.07368708 0.10920149
0001e0 20 d1 7c 3e 1c 52 a0 3e 40 77 8c 3d a2 5b d2 3d
       0.2468915 0.31312644 0.06858683 0.10271384
0001f0 c0 e1 d6 bd b3 54 2e 3e 82 37 08 3e ae 16 e2 3d
       -0.10492277 0.17024498 0.13302425 0.11039482

shared_layer.2.weight f4 [64, 128]
000000 29 5c 85 3d 8b f1 b5 bc 11 a4 14 bd 69 ff ab 3d
       0.06511719 -0.022209903 -0.03628928 0.08398325
000010 14 c1 27 3d a0 f6 07 3c ce 03 ef bc 93 2e cf bb
       0.040955618 0.008298546 -0.029176619 -0.0063226908
000020 57 89 53 3d fa 91 17 bd b3 52 5d bd fb b5 78 3d
       0.05164465 -0.03700445 -0.054033946 0.060720425
000030 6b 8c c3 bb 88 a9 a8 bb 49 e3 94 bd fa 66 58 3d
       -0.005967667 -0.005147163 -0.07269914 0.05283258
000040 a9 08 89 bd a8 46 a1 3d cd 8a 9e bd e3 e7 09 bd
       -0.06691105 0.07874805 -0.07741318 -0.03366841
000050 ce 6c 18 bb 3b 8b ec 3c 89 30 6a 3c b8 b0 81 3c
       -0.0023258212 0.028874984 0.014293798 0.015831336
000060 61 f1 94 3d 7b ca e2 3c cc c8 70 3c af e4 17 bc
       0.07272602 0.02768444 0.014696311 -0.009270831
000070 83 ce 9f 3d aa 7a 8b bd 7b ae 85 3d 80 64 82 bc
       0.07803061 -0.06810506 0.0652742 -0.015917063
000080 bd 94 9b 3d 8d 2d d1 bc ac f8 88 3c 24 7e a0 bd
       0.07596729 -0.025534416 0.016720138 -0.078365594
000090 3a 53 99 bd d9 ff ab bc 88 9b fa bb 88 64 81 3d
       -0.07486577 -0.020996021 -0.0076479353 0.06318003
0000a0 7c 7e 5d 3d ae 02 8e 3c aa 69 83 3c 3e 1f 55 3d
       0.054075703 0.017335262 0.016041595 0.052031748
0000b0 86 ea 62 3d 92 d9 a5 3d 87 2f e4 bc 17 e7 0b 3d
       0.05539944 0.08098139 -0.027854694 0.03415593
0000c0 26 e9 67 bd de 47 77 bc 89 1b 89 bd 08 f3 31 3d
       -0.056618832 -0.015092818 -0.06694705 0.043444663
0000d0 5b 46 87 3d d9 fa f4 bc d1 bb 67 bd 2e 41 a0 bd
       0.06605216 -0.02990477 -0.0565756 -0.07824932
0000e0 35 62 85 3c da b0 d9 bb 4c 79 3a 3d 45 a0 a7 bd
       0.01628218 -0.006643397 0.045525834 -0.08184866
0000f0 09 a4 8c bd 0e ad bf bc 04 99 23 3d 06 5d 29 3d
       -0.06867225 -0.023397949 0.03994085 0.04134848
000100 39 0d 8a 3d 70 a3 d5 bb ef 47 90 bd 25 98 a7 bd
       0.06740803 -0.0065197274 -0.0704497 -0.08183316
000110 97 7b 17 bd 4d ba 81 3d de 07 00 3d 91 68 15 3d
       -0.0369831 0.06334362 0.031257503 0.036476675
000120 1c 0c 00 3d 1f 88 1b 3b 09 ca 50 3d 5f 4a e5 bc
       0.03126155 0.0023732258 0.050973926 -0.027989564
000130 42 ae 80 bd 79 5b af bd 86 82 6a 3d af 83 ff 3c
       -0.06283237 -0.08562369 0.057253383 0.031190721
000140 d8 84 6c bc 89 5f 22 3c 90 8f 81 bd 20 22 7f 3c
       -0.014435969 0.009910473 -0.063262105 0.015572101
000150 db be 82 bd 49 a9 ca bc 04 e4 98 bd f4 cb a7 3d
       -0.06384059 -0.024738925 -0.074653655 0.08193198
000160 ff ea 9b 3d dc 88 26 3d 1e 1a d7 bb b1 89 8e 3c
       0.07613181 0.040657863 -0.0065643927 0.01739964
000170 a0 b3 ac bd 8e 63 85 bc 9d 15 fc bc c0 03 90 3b
       -0.08432698 -0.016282823 -0.030772025 0.0043949783
000180 0d 6c e8 3c f2 9e 2c bd b7 d4 84 3d 8f 1e 8e bd
       0.028371835 -0.04214377 0.06485885 -0.06939422
000190 00 39 4c 3c 38 e4 d2 bb 49 ec 20 bd 92 15 b2 3d
       0.012464762 -0.006435897 -0.03928784 0.086955205
0001a0 6d c2 43 bc 41 ae 42 3c 0b 85 3e 3d 6c c0 5d bd
       -0.01194821 0.011882366 0.0465136 -0.054138586
0001b0 09 6a a5 3d 61 b4 ca 3c be 27 48 3c 5a 54 a7 bd
       0.08076865 0.024744214 0.0122165065 -0.08170386
0001c0 93 58 81 bc 61 63 07 3d f4 f9 f6 3b 99 04 81 bd
       -0.015789306 0.03305376 0.007537121 -0.06299705
0001d0 ec a5 75 bc d6 27 21 3d 2b a2 a7 bd 25 d0 22 3c
       -0.014993172 0.03934463 -0.08185228 0.009937321
0001e0 e5 c4 20 3d 40 55 13 bc 1e 93 be bc cd 95 04 bd
       0.039250273 -0.008992493 -0.02326351 -0.032369424
0001f0 f5 90 a9 bd 44 2f 89 bd f8 90 4e 3d 6f 99 81 3d
       -0.082796015 -0.06698468 0.05043122 0.06328093
000200 76 60 e2 3d 44 40 40 3e 39 e4 3c 3e 06 25 1e 3e
       0.11053555 0.18774515 0.18446435 0.15443811
000210 9e 9c 23 3d de 08 bc 3c b7 77 3d 3e 8e d0 e3 3c
       0.039944284 0.022953447 0.18502699 0.027809408
000220 62 35 38 3d cf 1b bf 3d 01 d8 30 3e cc 96 82 3d
       0.044972785 0.09331476 0.17269899 0.063764185
000230 a9 6e 97 bd f7 33 1c 3e 30 f2 5b 3d 93 41 1a 3e
       -0.073941536 0.15254198 0.053697765 0.15064077
000240 24 05 67 3e 11 a8 d7 b9 bd 68 34 3e ff 34 e6 bc
       0.22560555 -0.00041133215 0.1761808 -0.028101442
000250 15 19 2e 3e 7b c8 2b 3e f9 b4 83 bd d6 75 7e 3d
       0.17001756 0.16775696 -0.06431002 0.062124096
000260 48 86 14 3d 89 e5 a4 bd b8 dc 22 3e 2d 3e 14 3d
       0.036260873 -0.08051593 0.1590451 0.036192108
000270 dc 47 14 3e 42 69 68 bd 70 2d 82 3d ca 57 95 3d
       0.14480537 -0.056741007 0.06356323 0.07292135
000280 92 8e fa 3d d1 35 44 3e a4 c4 37 3d 74 e4 9c 3d
       0.122342244 0.19161154 0.044865265 0.076607615
000290 c2 08 e2 3c a3 af 28 3e 90 19 8f bd 22 79 b0 3d
       0.027592067 0.1647325 -0.069872975 0.08616854
0002a0 93 df 03 3e 69 0d 07 3e ef 5d 68 3e f8 2a 39 3e
       0.12878256 0.1318871 0.22692083 0.18082798
0002b0 ed b7 58 3d 7d b2 42 3d f7 e9 54 3e c2 54 3e 3d
       0.05290978 0.0475335 0.20792376 0.04646755
0002c0 11 0a a2 bd d2 a4 32 3e ce da df 3c 75 70 a6 bd
       -0.07912076 0.17445686 0.027326014 -0.08126918
0002d0 af 7e 4e 3e 25 93 6c 3e 25 ec 58 3e b7 2d 67 3e
       0.20165513 0.23103006 0.21183832 0.22576033
0002e0 40 fe 94 3d 8c 36 77 3d d6 a7 55 3e f6 c9 2f 3e
       0.07275057 0.060354754 0.20864806 0.17166886
0002f0 92 53 31 3e 1d 50 61 3c bd 05 a2 bd 64 7f 62 3e
       0.17317036 0.013752011 -0.07911251 0.22118908
000300 ee 72 cd 3d 7a d0 50 3e 45 4c 23 3e e0 34 7f bd
       0.10031687 0.20392027 0.15947063 -0.062306285
000310 73 93 49 3d 19 54 3e 3d 79 6f 55 3e e3 b7 53 3e
       0.049212884 0.04646692 0.20843305 0.20675616
000320 49 15 37 3e d3 98 f7 3d c5 be 12 3c f4 6b 9a 3d
       0.17879213 0.12089696 0.008956616 0.07540122
000330 5b 43 3d 3c 6f b2 8a bd 12 10 a3 3d 82 07 90 bc
       0.011551703 -0.06772315 0.079620495 -0.017581705
000340 30 f4 47 3e a4 e4 c1 3d 8d cd e5 3d 7b 93 2b 3e
       0.19526744 0.09467438 0.11220846 0.16755478
000350 ca 19 82 3c ad 89 4b 3e b3 c5 18 3e a4 3d 68 3e
       0.015881438 0.19876738 0.14919166 0.22679764
000360 5a 66 d7 3d 6e 68 44 3e 19 ac 24 3e 33 c7 23 3e
       0.10517569 0.19180462 0.16081275 0.15993957
000370 a1 3b 60 3d 10 3b db bc 4e c3 4d 3e 35 32 97 3c
       0.054744367 -0.026761562 0.20094034 0.018456558
000380 3b 3e 1b 39 07 64 40 3e 24 7c 5b 3d 77 ca 4b 3e
       0.00014805135 0.18788157 0.053585187 0.19901453
000390 3d 23 98 bd 0f 4a 43 3e cc b7 31 3e 98 7d a5 3b
       -0.07428596 0.1907122 0.17355269 0.0050503723
0003a0 db 9e 28 bd 17 47 14 3e 57 36 13 3d ed 4c 4e 3e
       -0.04116712 0.14480244 0.035940494 0.20146532
0003b0 50 ed 35 3e 25 c3 9c bd 73 ff 92 3d d4 da ad 3d
       0.17766309 -0.07654408 0.07177629 0.08489004
0003c0 c4 a6 8f 3d 98 f2 8c 3d 29 99 f3 b7 22 65 eb 3d
       0.0701423 0.068822086 -2.9039178e-05 0.11493899
0003d0 45 af 2b 3e a1 56 33 3d a2 20 2d 3e e8 bd 8c 3d
       0.16766079 0.043783788 0.1690698 0.06872159
0003e0 34 d7 58 3e 11 01 15 3e 14 20 94 3d 45 be 56 3d
       0.21175843 0.14551188 0.07232681 0.05242755
0003f0 56 c0 ad bd d9 3d 6c 3e b5 47 bd 3c 8b 06 63 bd
       -0.08483951 0.23070468 0.023105482 -0.05542616

shared_layer.2.bias f4 [64]
000000 ab 5a ac bd a3 d0 1d 3e 85 e5 a8 3d 3e 3c 38 bd
       -0.08415731 0.1541162 0.082469024 -0.044979326
000010 65 04 06 bd fc 5d d1 3a 22 ec c5 bc aa 18 0e bb
       -0.032719035 0.0015973444 -0.024160448 -0.0021682181
000020 9a 69 45 3e 35 8b a0 bd 87 88 ab 3d dc fd 3b 3e
       0.19278565 -0.07839052 0.0837565 0.18358558
000030 21 5b 4b 3d 9d 7c c4 3d 71 ba 6e 3d bd a5 57 3d
       0.049647454 0.095940806 0.058283273 0.052648295
000040 07 f3 19 3e 95 ed 32 bd d6 d7 15 bb 48 3c 8b bb
       0.15034114 -0.043683607 -0.0022864244 -0.0042491294
000050 8b 4d 4b bd 8a b6 2c 3e aa 21 be 3d bf 42 1b 3d
       -0.049634498 0.16866508 0.09283765 0.03790545
000060 a3 a1 b6 3d 76 59 74 bd 2c a3 af bd dd 1a dc ba
       0.089175485 -0.05965563 -0.085760444 -0.0016792674
000070 09 f4 28 3e 8c 73 83 3d 1a 43 b1 bd 2a fc 21 bd
       0.16499342 0.06418523 -0.08655377 -0.039547123
000080 59 37 95 3d 20 5d 3a bd 88 33 ac 3d a9 04 1e bd
       0.07285947 -0.045498967 0.08408266 -0.038578663
000090 75 e9 6e 3c 3b cf 8f bd 61 8d 93 3b 35 e2 57 bd
       0.014582028 -0.07021948 0.0045029377 -0.052705962
0000a0 1c 82 19 bd 1b 9f 14 3d 59 84 33 bd 3e e6 2a bd
       -0.037477598 0.036284547 -0.04382739 -0.041723482
0000b0 7c 6a 8e 3d 28 db a3 3d 96 39 20 3d 1b 76 3c bd
       0.06953904 0.08000785 0.03911742 -0.04601107
0000c0 4a c3 42 3e a1 1c 69 3c b3 53 f2 3d fe ef a5 3c
       0.1901981 0.014228017 0.118323706 0.020256039
0000d0 33 2b 38 3e 88 aa 92 3c 6b 10 ef 3d cb 7f 88 bd
       0.17985229 0.017903581 0.11673053 -0.066649996
0000e0 38 35 a7 3d 08 f9 b7 bd 6d 48 86 3b da 19 83 3d
       0.081644475 -0.08983046 0.0040979893 0.06401415
0000f0 e4 ed 01 3e af 17 34 bc 72 a2 a1 bd fb a9 81 bd
       0.12688404 -0.010991975 -0.07892312 -0.06331249

actor.0.weight f4 [32, 64]
000000 64 24 18 3d 50 df fa 3c 0a 25 f6 bd d0 0e fd bd
       0.03714408 0.030624062 -0.120187834 -0.12356341
000010 00 1d c5 3c d2 20 c9 bd 7a da 86 bd ac 05 80 bd
       0.02406168 -0.09820713 -0.0658464 -0.06251082
000020 74 01 20 bd 80 85 c4 3b 4e ce f5 bd 7a 3e a6 bd
       -0.039063886 0.0059973598 -0.1200224 -0.08117385
000030 2a dc d0 bd dc 02 6a bd cc f5 e1 bd 88 83 dd bd
       -0.10198243 -0.057131633 -0.1103321 -0.10816103
000040 1a dc e4 3d a0 2c e0 bb 38 44 46 bd d8 53 5c bd
       0.111747935 -0.006841257 -0.048404902 -0.053790897
000050 f4 15 74 3d b4 04 19 3d e0 7b 66 bc 48 16 c1 bc
       0.05959125 0.037358 -0.01406762 -0.023570195
000060 5e d7 b5 3d 30 73 69 3d 2c c6 06 3d 00 06 4f bb
       0.08878969 0.056994617 0.032903835 -0.003158927
000070 84 55 36 3d 04 6e 83 bd bc 75 ea 3d c0 88 28 3d
       0.044515148 -0.06417468 0.11448237 0.04114604
000080 20 81 25 bc 78 b8 8b bd 9c 94 1e 3d e0 f3 f4 bd
       -0.010101587 -0.06822294 0.038715944 -0.11960578
000090 a0 a8 46 bd 0e 42 fa bd 18 b5 3a 3d 34 f2 2d bd
       -0.048500657 -0.1221963 0.04558286 -0.04246731
0000a0 80 69 d2 3d 80 42 80 3c fc 59 7d 3d 64 a4 cf bd
       0.10274029 0.01565671 0.061853394 -0.10138777
0000b0 74 e4 4f bd e6 8e 88 3d de 73 c5 bd 60 99 e2 bc
       -0.05075498 0.06667881 -0.096412405 -0.027661026
0000c0 80 17 83 3c 80 ea 65 3d 04 cd 41 bd c0 7a 0b 3d
       0.016002417 0.05613184 -0.04731466 0.03405261
0000d0 26 2b e0 bd a0 91 5b bc 6e 9a da 3d e0 90 bc 3c
       -0.1094573 -0.013401419 0.106739864 0.0230183
0000e0 48 a2 d0 3d 86 2e eb 3d 84 df 8a bd 80 d2 70 bc
       0.10187203 0.11483483 -0.067809135 -0.014698625
0000f0 16 3d 82 bd 4e b2 8c bd d4 ea 3b bd 1c ea e1 bd
       -0.063593075 -0.068699464 -0.045878246 -0.11030981
000100 56 6e 89 3d f5 af be 3d ff 7c 8e 3d 00 de 65 bc
       0.06710498 0.09310905 0.06957435 -0.01402998
000110 08 2a 62 3c 00 06 d1 3c f6 ee f1 3d 41 54 61 bd
       0.013803966 0.025515556 0.11813156 -0.05501199
000120 67 d3 70 3d e3 32 3c 3d 1c d8 42 3d 4e a2 d1 3d
       0.05879536 0.045946967 0.04756938 0.10236035
000130 f1 37 93 3d b7 65 35 3d 60 d4 4d bd 26 f7 e0 3d
       0.07188404 0.044286456 -0.050251365 0.1098464
000140 fb d0 87 bd d8 bb 64 3d c0 eb 51 3c 8a d2 9d 3d
       -0.06631657 0.055843204 0.012812555 0.07706173
000150 c0 fd b4 bc 93 d6 e4 3c b4 a0 e5 3d 7e d0 dd bd
       -0.022093654 0.027934348 0.11212292 -0.10830782
000160 e8 aa de bc d4 57 d2 3d 60 fe 9c bb 98 05 eb 3d
       -0.027181104 0.10270658 -0.004791066 0.11475676
000170 66 bc 11 3e 11 3e 98 bb 30 cc 65 3c 94 fa 56 3d
       0.14232025 -0.004646071 0.014025733 0.052485064
000180 32 11 95 3d f0 91 71 3c 14 c0 49 3d 68 03 b2 bd
       0.0727867 0.014744267 0.049255446 -0.08692056
000190 39 2d 9c 3c 40 77 f7 bb 3c 42 ae 3d 6a a6 d9 3d
       0.019064533 -0.0075520575 0.08508727 0.10627444
0001a0 00 33 fc ba 44 42 35 bd 2a ae e5 bd 28 4b 89 3d
       -0.0019241273 -0.04425265 -0.1121486 0.06703788
0001b0 63 01 d4 3d 76 1f 9a bd 9c 7d ac bd c8 3c 8b 3d
       0.10351827 -0.07525532 -0.084223956 0.067987025
0001c0 78 68 a8 bd d0 5f 1c bd 8a 63 14 3e 40 97 d4 3d
       -0.08223051 -0.03817731 0.14491096 0.10380411
0001d0 6e 04 25 3e e4 bc 07 bd 73 86 84 3d e0 a1 d4 bb
       0.16114971 -0.033139125 0.06470957 -0.0064890236
0001e0 b4 7c aa 3d 86 99 6c 3d 03 e9 f2 bd d8 0f 58 b9
       0.083245665 0.0577636 -0.1186085 -0.00020605267
0001f0 1e d2 0e 3e f5 66 08 bc 60 cd 81 bc 1d f2 8f 3d
       0.13947341 -0.008325328 -0.015845 0.07028601
000200 ec 2f 86 3d c9 38 99 bd 4b b2 06 3e e8 b1 98 3d
       0.06552109 -0.07481534 0.13153951 0.07455808
000210 99 c9 a8 3d 12 2f bd 3d 10 58 19 3c 3a 4a 8f bd
       0.08241577 0.092374936 0.009359375 -0.069965795
000220 1f fc 1f bc c3 e4 f6 3d d8 23 db bc 20 36 9b 3c
       -0.0097647 0.120553516 -0.02675049 0.018946707
000230 b3 42 21 3d c3 73 90 3d 79 ad 89 3c 02 2d fa 3d
       0.03937025 0.0705333 0.016806351 0.12215616
000240 3d a5 ca 3d a0 7a 88 bb 66 63 9d bd 76 ce a6 3d
       0.09894798 -0.0041650087 -0.07684974 0.08144848
000250 a8 7c 8b bd 2e f6 d5 3c cf d3 e0 3d 58 cd 6e bd
       -0.06810886 0.026118364 0.10977899 -0.0583013
000260 98 66 a2 ba b4 17 f5 3d f0 88 3b 3c 3e 84 a8 bd
       -0.0012390194 0.11967412 0.011446223 -0.08228348
000270 81 4e 81 bc 8b f8 14 3d 80 67 bc bd b0 3c 15 bd
       -0.015784504 0.03636984 -0.091994286 -0.03643483
000280 00 10 8f ba 12 d8 c7 3d 10 77 a4 bc e2 0b b5 3d
       -0.0010914803 0.09758009 -0.020076305 0.08840157
000290 a0 8d 66 3d fa 0a 9a 3d e0 a4 b4 bc ec 04 75 bd
       0.056287408 0.07521625 -0.022051275 -0.059819147
0002a0 08 56 48 3d c2 9e ed 3d 3c db 98 3d 88 69 5a bd
       0.04891017 0.11602546 0.07463691 -0.0533233
0002b0 0a 6e ed 3d c6 8e 7b 3c 40 38 65 3d 00 7c e0 bb
       0.11593254 0.015353864 0.055961847 -0.0068507195
0002c0 f4 95 9c bd 14 93 42 3d 1a 74 9a 3c 96 2b a7 bd
       -0.07645789 0.047503546 0.01885419 -0.0816261
0002d0 07 df d5 3d 10 d3 c7 bc 24 16 09 3d 62 49 9d 3d
       0.1044293 -0.024392635 0.03346838 0.07680012
0002e0 2a ec 84 bc ea 91 11 3d 2c 14 65 3d 62 0d 09 3e
       -0.016225893 0.035539545 0.05592744 0.13384011
0002f0 25 75 a1 3d 72 24 29 bd e4 62 43 3d cc 49 a8 bd
       0.07883672 -0.041294523 0.04770173 -0.08217201
000300 e6 f6 a8 bd 58 4c 67 bd f2 78 8f 3d bc de f1 3d
       -0.08250217 -0.05646929 0.0700549 0.11810061
000310 f0 60 74 bc 1c 4c 39 bd 4c bc ae 3d f0 f4 91 bd
       -0.01491569 -0.0452386 0.085320085 -0.07126796
000320 ec f8 81 bd 6a e6 c4 bd f6 ea b0 bd 1a 23 8e bd
       -0.06346306 -0.096142605 -0.08638565 -0.06940289
000330 4c 44 69 bd a6 91 c1 bd c8 84 f3 3d 60 66 d5 3d
       -0.0569499 -0.09451608 0.118905604 0.10419917
000340 a8 c0 95 bd 00 b3 4c bd 78 5a e2 3d 7c ec cf bd
       -0.07312137 -0.049975395 0.11052412 -0.10152528
000350 5c 71 e2 3d 00 a7 b0 bd a0 d7 e1 3b a4 4a 43 bd
       0.11056778 -0.08625603 0.0068921596 -0.047678605
000360 20 b8 94 bd 40 5a b8 bc 80 0f 5e 3b 80 60 73 3d
       -0.072616816 -0.022503972 0.003388375 0.0594182
000370 b0 a5 a6 bc 80 ac da bc c0 d2 78 3d a6 9e dd bd
       -0.020342678 -0.026693583 0.06074786 -0.108212754
000380 0c 84 b3 bd 6e 55 ab bd f8 d9 a2 3d 82 23 a4 3d
       -0.0876542 -0.08365904 0.079517305 0.08014585
000390 12 b7 84 bd 98 2e 5d bd e0 93 a0 3b ce 48 c3 3d
       -0.064802304 -0.053999513 0.0049004406 0.09535371
0003a0 f4 f9 47 3d 88 4e 78 bd c0 30 fe bc 00 f6 69 3b
       0.04882236 -0.06062177 -0.031029105 0.0035699606
0003b0 98 bc b2 3c 00 96 1e 3c f4 62 73 3d 2c f8 18 3d
       0.021818444 0.0096793175 0.05942054 0.03734605
0003c0 92 a3 98 bd 40 7d 33 3c 80 b1 64 bb 60 a7 29 bc
       -0.074530736 0.010955155 -0.0034895837 -0.010354847
0003d0 2e 85 f4 3d 50 ff 2e bc 72 12 95 bd a8 3a 78 3d
       0.119394645 -0.010680988 -0.07278909 0.060602814
0003e0 f0 d5 d6 bd 1c d4 96 3d 48 c1 ab 3d 92 6e c8 3d
       -0.10490024 0.073646754 0.08386475 0.097867146
0003f0 68 c5 b7 bc b4 1c 1d bd 7e b6 c9 bd c4 10 ff bd
       -0.022432998 -0.03835745 -0.09849261 -0.1245437

actor.0.bias f4 [32]
000000 68 b1 e1 bd 8d bb 8e 3d 2a ec ce 3d 6c 5b 24 bd
       -0.11020166 0.06969366 0.101036385 -0.04012625
000010 36 58 fc bc d1 3c a6 bd 72 50 d2 bc 68 ef e1 3d
       -0.030803781 -0.081170686 -0.025673125 0.11031991
000020 e0 97 3c bd 22 f8 10 3e a1 f1 99 3d ee 0b b4 3b
       -0.046043277 0.14157155 0.0751679 0.005494586
000030 d3 f7 87 bc 9d ae 71 3d 3b 27 4f 3d 00 23 ba bd
       -0.016597664 0.059004415 0.050574522 -0.09088707
000040 45 05 4c 3d b0 1b bf 3c 28 50 f3 bd 47 5e 48 bd
       0.049809713 0.023328632 -0.11880523 -0.048918035
000050 ea cd 8e bd 3a 6a fb bd fc 5b be bd 7a c3 a3 3d
       -0.06972869 -0.122761205 -0.092948884 0.079962686
000060 28 40 60 3d 4d 9d 92 3b 9e 1c be bd 76 87 b9 bd
       0.054748684 0.004474318 -0.09282802 -0.0905904
000070 e1 4f 95 3d 7f 2a ba 3d d5 f5 88 bd 4d 7c dc 3d
       0.07290626 0.09090137 -0.06687514 0.10765896

actor.2.weight f4 [7, 32]
000000 cb 59 2a bd 67 12 93 bc f8 2a fc bc d5 00 a8 bd
       -0.04158954 -0.01795311 -0.030782208 -0.08203284
000010 a3 a0 22 bc 99 05 10 be 89 16 4a bd 42 3a b0 3a
       -0.009925994 -0.14064635 -0.049337897 0.0013445097
000020 d4 a3 0f 3e d1 cc 02 be 63 3a f5 3d 8e 51 e5 3d
       0.14027339 -0.12773444 0.11974027 0.11197196
000030 26 5d b0 3c e8 63 80 bd d8 be 23 3e 76 5e c0 3d
       0.021528792 -0.062690556 0.1599077 0.09393017
000040 7e 01 3e be de b2 65 3d cc 40 2a be 6a 62 88 3a
       -0.18555257 0.056078784 -0.1662628 0.0010405306
000050 a8 9e f6 3d 27 29 55 3d c8 78 a8 3d 78 05 57 be
       0.1204198 0.0520412 0.08226162 -0.2099818
000060 aa f4 30 3d 87 58 fa 3d 49 a3 67 be cc b9 f7 bd
       0.04320208 0.122239165 -0.22620882 -0.12095985
000070 5b 08 a2 bd e7 9f 07 be 9c ce 1d bd 67 ab d0 3d
       -0.0791175 -0.13244592 -0.038527116 0.101889424
000080 07 9e dd 3d b3 2c 0a be b9 25 a1 bd b4 fa 14 be
       0.10821157 -0.13493614 -0.07868523 -0.1454876
000090 94 d3 93 3d f7 81 e6 bd 4d b4 75 3b f5 f5 e5 3d
       0.0721809 -0.112552576 0.00374915 0.11228553
0000a0 5d a9 48 3d c3 a7 3e be 92 fb 28 be a5 0f e0 bc
       0.048989642 -0.18618684 -0.16502216 -0.02735121
0000b0 49 9b ad 3a c9 86 c6 ba a5 a4 02 3d 96 80 9f bd
       0.0013245131 -0.001514637 0.0318953 -0.07788198
0000c0 46 46 04 3e 35 65 18 3e d3 ac 30 3d 4b 9a 7b 3c
       0.12917432 0.14882357 0.043133568 0.0153566105
0000d0 9f be 3f 3d ee 31 23 be 6a 6a 33 be 4d fa 90 bd
       0.04681265 -0.15937015 -0.17521062 -0.07078991
0000e0 7c 1a a4 bd 2e c3 10 3e 1f 5d 07 bd e8 d0 a8 3d
       -0.08012864 0.14136955 -0.03304779 0.08242971
0000f0 3c 2e ae 3d 92 f4 d7 3d ac 40 8c bd b3 88 2c be
       0.08504912 0.10544695 -0.06848273 -0.16849022
000100 f5 27 90 bd d9 94 db ba bf 15 35 be 94 ec a1 3d
       -0.07038871 -0.0016752734 -0.17684077 0.07906452
000110 89 fb 99 bd 90 cd fd 3d 41 53 00 be 35 0f fa bd
       -0.0751868 0.123927236 -0.12531759 -0.12209932
000120 ae 5d b7 3d f9 d8 47 be d4 a6 d0 bd eb ab 28 be
       0.08953415 -0.19516362 -0.1018807 -0.16471832
000130 43 a5 ab 3d 24 82 1d be ce 06 d2 3d e4 c8 20 be
       0.083811305 -0.15381676 0.10255204 -0.15701634
000140 84 49 91 3d 9b 02 18 3e cd 8d 1f be c3 27 f6 bd
       0.070941 0.14844744 -0.15581436 -0.12019303
000150 02 23 22 be 29 38 0e be 37 6a e0 bb 2c ab dc 3d
       -0.15833667 -0.13888611 -0.0068485993 0.10774836
000160 1d 22 23 3e 34 34 49 bd 83 1d cc 3d 10 96 42 be
       0.15930982 -0.04912205 0.099665664 -0.19002557
000170 bf f8 1c 3e 03 a7 52 3c 46 d4 12 3e 27 c6 0f be
       0.15329264 0.0128572015 0.14338788 -0.14040433
000180 38 ac b2 bd 69 57 2c be c1 a4 b1 bc 6f da 99 3d
       -0.08724254 -0.1683022 -0.021685006 0.07512366
000190 38 0f 32 bd 4d 50 05 3e 4e ec b5 3d 30 73 00 be
       -0.043471545 0.13018914 0.08882962 -0.1254394
0001a0 a4 66 5b bc 12 0f 1e be fa 22 fc bc f7 5c f1 3d
       -0.013391171 -0.15435436 -0.030778397 0.1178531
0001b0 e7 8e 6c 3d 51 a4 0b bd 81 77 bd bc dd 98 21 3d
       0.05775347 -0.03409225 -0.023128273 0.039452422
0001c0 1a f4 0e 3d fe 5b 41 bd f9 01 d3 3d 2a f4 4e be
       0.034900762 -0.04720687 0.10303111 -0.20210329
0001d0 b5 76 93 3d 26 a9 24 3e d7 53 06 be 33 46 82 bb
       0.07200376 0.1608015 -0.1311792 -0.0039756536
0001e0 52 f3 18 be a1 74 d7 bd bf 13 d2 3b e3 5c fa 3b
       -0.1493657 -0.10520292 0.0064110453 0.0076404675
0001f0 3c 8f 06 3d b2 95 3a be c2 24 18 3e c4 21 30 be
       0.032851443 -0.18221167 0.14857772 -0.1720038
000200 1a 65 e0 bd 5d 66 c3 3d 9d ec 32 be b0 14 19 be
       -0.109567836 0.095410086 -0.17473073 -0.14949298
000210 4d e3 3b be b1 bd d6 bd 21 f4 37 bd 22 39 13 3e
       -0.18348427 -0.104853995 -0.044910554 0.14377263
000220 25 93 d2 3d 8c 7f 4b 3d 8a d3 c0 bd 5e 9e 8a 3d
       0.10281972 0.049682185 -0.09415348 0.067684874
000230 9d 0a 47 3d d5 4b e3 bd 26 a5 87 3c 5b e1 9e bd
       0.048594106 -0.11098448 0.016558241 -0.07757827
000240 d7 d5 84 3d c1 9f 2a 3c 58 07 62 3d ff 20 e9 bd
       0.06486099 0.010414065 0.055182785 -0.11383247
000250 be e4 dc 39 16 1c 10 be 6f 2c 3d be a9 e1 a3 3b
       0.00042132096 -0.14073214 -0.18473981 0.005001266
000260 3a fe 0a be ee 11 62 bd 7f 42 09 be 96 d6 93 bd
       -0.13573542 -0.05519288 -0.13404272 -0.072186634
000270 c3 82 c2 bc 78 5e 25 3d 23 8d 1c 3e 0e 1c 02 bd
       -0.023743993 0.040373296 0.15288214 -0.031765036
000280 0a 9a 74 bd d4 2a 41 be e1 a2 51 bd 97 1c 10 be
       -0.059717216 -0.18863994 -0.051180724 -0.14073406
000290 3b dc d6 bd 1a 3c d6 bc de 3c 09 3d 34 6e df 3d
       -0.104912244 -0.026151706 0.033505313 0.109096915
0002a0 83 4c 61 3d b9 06 29 be 3e 85 32 3d 06 38 fa bd
       0.055004608 -0.1650647 0.0435841 -0.12217717
0002b0 97 df 91 3d 85 f0 cd bd 7b 01 50 bd 1f 6b 0a be
       0.071227245 -0.10055641 -0.050782662 -0.13517426
0002c0 97 39 f8 bd 04 bf f9 3d d7 c1 c5 bc ea f3 5a bd
       -0.121203594 0.121946365 -0.024140282 -0.05345527
0002d0 72 ac d9 bd 4e 95 88 bd 75 ba 15 be 58 65 68 bd
       -0.106285945 -0.066691026 -0.14621909 -0.056737274
0002e0 e4 c4 b0 bb f9 71 09 bd b9 22 ae bd 78 5e eb 3c
       -0.005394565 -0.03355596 -0.085027166 0.02873157
0002f0 f5 92 b4 bd 9f d5 62 3d 44 f4 01 be 13 05 bb bd
       -0.08817092 0.055379506 -0.12690836 -0.09131827
000300 38 81 e0 bd 9c 91 11 bd 22 b6 37 be e1 31 11 3e
       -0.109621465 -0.035539255 -0.17940572 0.14179184
000310 b7 81 df 3d 95 1d 06 be 4a 22 06 3e 5b 97 05 3e
       0.10913413 -0.13097222 0.13099018 0.13046019
000320 f7 48 8f bd b8 77 a1 3d 4e be 08 3c 9d a3 c8 3d
       -0.06996339 0.07884163 0.008346153 0.09796832
000330 db 97 b7 bc b4 d2 1b bd 49 d3 28 3c 7f 7c 82 3d
       -0.022411278 -0.03804274 0.010304281 0.06371402
000340 eb bb db bd f4 54 13 3e d2 f8 2e 3e 8c d5 e9 3d
       -0.10729202 0.14387876 0.17087105 0.11417684
000350 3d e8 ca bb 4c e6 4a bc 10 46 52 bd 7c 30 63 be
       -0.0061922357 -0.012384009 -0.051336348 -0.22186464
000360 ef 2a 21 be b2 b5 31 3c af b5 b8 3d 3a d8 a5 bd
       -0.15739034 0.010846542 0.090190284 -0.080978826
000370 b6 41 0f 3e 48 60 19 bd 57 fb f7 3d 6c d2 61 be
       0.1398991 -0.037445337 0.12108486 -0.22052926

actor.2.bias f4 [7]
000000 ee 01 f9 3d 4e 10 ff bd 44 d4 41 be 56 a6 8b 3d
       0.12158571 -0.12454282 -0.18928629 0.068188354
000010 27 f4 fb bd bc fd 14 be 97 22 df 3d
       -0.12302428 -0.14549917 0.10895269

critic.0.weight f4 [32, 64]
000000 60 1c e1 bb 80 aa cc 3d 98 b4 cc bc 10 be ae 3c
       -0.0068698376 0.09993458 -0.024988458 0.021330863
000010 40 c9 e2 3d a4 dd 25 3d b0 bd c8 3d 6c 6f ba bd
       0.11073542 0.040494576 0.09801805 -0.09103283
000020 46 37 f5 bd b4 d6 3c bd da 30 91 3d dc e1 42 bd
       -0.11973433 -0.046103194 0.07089396 -0.047578678
000030 ac 11 b4 bd f8 6b f9 3c 9e 4c 86 bd 64 d0 de bd
       -0.08792433 0.030446991 -0.06557582 -0.10879591
000040 46 3d a6 3d 0c d6 7a bd 42 99 c1 bd 06 87 e0 bd
       0.08117156 -0.061239287 -0.0945306 -0.10963254
000050 6c 45 1e bd 30 f0 8a bc a0 8c ec bb d0 9b aa bd
       -0.038640425 -0.016960233 -0.0072189122 -0.083305
000060 fc 0a ea bd 58 59 8c bd 78 8c 5a bd 80 b0 ea bd
       -0.11427876 -0.068529785 -0.053356618 -0.11459446
000070 9c ac 9a bd 90 c6 ae 3c 80 86 ac 3b 1c 88 2e 3d
       -0.07552454 0.021334916 0.005265057 0.042610273
000080 18 21 12 3d 28 01 85 3d 20 94 6d 3c 36 6d fe 3d
       0.035676092 0.06494361 0.014500648 0.12423174
000090 9e ea a6 bd 64 51 bf bd 20 b0 ba bd 38 45 d5 bd
       -0.081502184 -0.09341696 -0.091156244 -0.10413593
0000a0 e6 be ae bd 0c 5c 4f 3d 80 64 5e 3c f0 b4 f8 bd
       -0.08532505 0.050624892 0.013573766 -0.12143886
0000b0 50 0e b9 3d 94 d1 06 3d a0 da d1 3b f4 3e 00 bd
       0.09035933 0.032914713 0.006404236 -0.031310037
0000c0 20 9b b1 bd 00 d6 0e ba 30 bd 5a bc 96 18 eb 3d
       -0.08672166 -0.00054487586 -0.01335077 0.11479299
0000d0 80 32 26 bd 60 d9 1a bc 30 be ab bd 9c 99 d3 3d
       -0.040575504 -0.00945124 -0.08385885 0.10332033
0000e0 92 1d a0 3d f0 a0 1d 3c d4 9e 6f bd 32 d6 ea 3d
       0.0781814 0.00962089 -0.05850108 0.11466636
0000f0 b2 bd c3 bd 8c 9f 5e bd c2 db de bd 10 23 01 bc
       -0.09557666 -0.054351375 -0.10881759 -0.007881895
000100 8c ae 50 bd a8 5a 16 3d cc e6 cb bd a8 ed dd 3c
       -0.05094771 0.03670755 -0.099561304 0.027090862
000110 de 9b f7 bd 10 0e d8 bd 78 7c 14 bd aa a7 a2 bd
       -0.12090276 -0.10549557 -0.036251515 -0.07942136
000120 6c 9e 3f 3d a0 fe ac bc e0 03 68 bc 5a d0 94 3d
       0.046781942 -0.021117508 -0.01416108 0.072663024
000130 b4 84 cd bd e0 79 fd bd 5c fc c9 3d 58 bb 79 3d
       -0.10035077 -0.123767614 0.09862587 0.06096968
000140 d6 2a 9b bd 6e e8 c3 3d 80 c5 71 bd 10 24 32 bc
       -0.0757653 0.09565817 -0.05902624 -0.010872856
000150 b0 ea 30 3d 1c 3e e4 bd aa 15 94 3d 3c c8 ef bd
       0.043192565 -0.11144659 0.072306946 -0.117081136
000160 a0 eb f8 bd a0 4f 9d bd 06 9c b3 3d 06 74 b2 3d
       -0.12154317 -0.07681203 0.087699935 0.08713536
000170 e0 55 43 3c 14 b5 e5 3d b0 18 de bc 40 65 35 3b
       0.01192233 0.112161785 -0.027111381 0.0027678758
000180 48 cf c3 bd 04 fc e9 bd 2a b8 be bd 1e 68 9d bd
       -0.0956102 -0.11425021 -0.0931247 -0.076858744
000190 2e a1 9d bd 90 a0 77 3d 40 33 b4 3c 6e 95 90 bd
       -0.07696758 0.06045586 0.021997094 -0.070597515
0001a0 fc b1 38 3d d8 89 66 3d de 8a 93 3d 48 b9 6c 3d
       0.045091614 0.0562838 0.07204221 0.057793885
0001b0 3e e3 8c 3d b2 e2 ad 3d ea 5e d8 3d 00 00 52 3b
       0.068792805 0.08490504 0.105649784 0.0032043457
0001c0 00 53 32 bd 82 81 90 bd 08 51 a2 bd e0 d5 42 3d
       -0.043536186 -0.07055952 -0.07925612 0.04756725
0001d0 58 01 c2 3c e0 fb 74 3d d0 82 0b bc d6 5e cd bd
       0.023682281 0.05981052 -0.008515075 -0.10027854
0001e0 18 14 67 3d 8e 57 97 3d fe 56 cb bd 5c f5 b5 bd
       0.056415647 0.073897466 -0.09928702 -0.08884689
0001f0 e0 f8 8e bc 68 9a a8 bd b8 fa 6c 3d 00 f2 f9 b9
       -0.017452657 -0.08232576 0.05785629 -0.00047673285
000200 e6 5c b4 bd 79 f1 1f bd 57 2e dc 3d c4 44 36 bd
       -0.088067815 -0.039048646 0.10751026 -0.044499174
000210 d1 3e ae 3d a0 aa a1 3c e6 47 ad bd 79 49 0c 3b
       0.08508075 0.01973468 -0.08460979 0.0021406098
000220 6c 1b 81 bd fc 29 c4 3d 20 3d 50 3d a8 9b c4 3c
       -0.063040584 0.095783204 0.050839543 0.024000004
000230 78 0b c5 3c 7a ac 51 bd a5 ba 2a bd 45 92 db 3d
       0.02405332 -0.051189877 -0.041681904 0.10721258
000240 38 b0 0c bb dc 50 01 bd 80 95 7c 3c c4 60 85 3d
       -0.002146734 -0.031571254 0.015416503 0.06512597
000250 88 54 c6 3d 60 ba d2 bd 96 4d 8b 3d 44 79 29 3d
       0.09684092 -0.102894545 0.06801908 0.041375414
000260 f8 47 bf 3d 96 12 f5 bd 4c 5a 55 3d c0 8f f7 bc
       0.09339899 -0.119664356 0.052088067 -0.030219913
000270 b4 77 bd bd 94 06 8b 3d 9a 4a 9b bd 60 cf af 3b
       -0.09251347 0.06788364 -0.075825885 0.005365297
000280 ac 18 fb 3d ee 05 84 3d 80 c1 a6 3c c0 7c 24 bc
       0.12260565 0.064464435 0.02035594 -0.010039508
000290 5d b3 a1 bd 40 29 14 3c 20 f0 3d bc 00 de ba b9
       -0.07895539 0.009043038 -0.011592895 -0.00035642087
0002a0 7a 1c a4 3d 5e 3a 99 bd 34 73 ba 3d 6c 21 af bd
       0.08013244 -0.07481836 0.091040045 -0.085512966
0002b0 94 3b 4e 3d 1a c4 d6 3d 20 a2 f1 bc b0 15 e5 3d
       0.050349787 0.10486622 -0.029496253 0.11185777
0002c0 80 41 bd bc 94 98 2c bd 28 32 88 3c ce 09 86 bd
       -0.023102522 -0.042137697 0.016625479 -0.06544839
0002d0 b6 21 ad bd 30 29 fc 3d 40 15 68 3a 00 72 e6 3a
       -0.084536955 0.123125434 0.0008853264 0.0017581582
0002e0 f4 1a aa 3d a0 bf b7 3d 1b 03 3e bd e7 87 d9 3d
       0.08305922 0.089720964 -0.04638968 0.106216244
0002f0 d4 84 80 3b 82 1c d7 3d e8 c1 5a bd 56 15 bc 3c
       0.0039220843 0.10503484 -0.05340758 0.022959393
000300 2e fc b5 3d 67 c1 e6 bd 5c 25 b0 3c ec df 31 bd
       0.0888599 -0.11267357 0.02150219 -0.04342644
000310 8e a7 ba bd 72 14 d9 bd 64 65 a1 3d be dc 7f 3d
       -0.0911399 -0.10599603 0.07880667 0.062466376
000320 bd 14 36 3d dc d1 c7 3d 48 a9 d2 bd 82 c4 f4 bd
       0.04445337 0.097568244 -0.10286194 -0.119515434
000330 81 44 f3 3d 88 47 32 bd d8 63 e2 bd 18 3b b4 bd
       0.118783005 -0.04352525 -0.110542 -0.08800334
000340 0b e8 c0 3d 7e 76 ae 3d b0 15 ec bd bc f4 aa bd
       0.09419259 0.08518694 -0.11527574 -0.08347461
000350 00 d0 8e 3d 70 9d ef bd 76 15 54 3c 12 1c 93 3d
       0.069732666 -0.11699951 0.01294457 0.07183088
000360 e4 9e be 3c aa 93 c8 bd 70 90 c9 bc f4 f3 c0 bd
       0.023269124 -0.0979379 -0.024605006 -0.0942153
000370 3e c7 ae 3d e4 52 d1 3d 7c e6 6b bd 28 9b 1f 3d
       0.08534096 0.10220888 -0.057592854 0.038966328
000380 30 a3 31 bc 22 93 f6 3d 42 49 ae 3d 52 bf 94 3d
       -0.01084213 0.12039782 0.085100666 0.07263054
000390 55 d6 f6 3c 56 8f b0 3d a0 c5 cd bc dc 82 78 3d
       0.030131498 0.08621089 -0.025118649 0.060671672
0003a0 90 c1 de 3c 20 11 e3 bb d8 9c 66 3d 56 30 95 3d
       0.027191907 -0.0069295317 0.05630192 0.0728461
0003b0 03 9c b4 3d 08 5a 2d bd 58 87 ce 3c 10 71 98 bc
       0.088188194 -0.04232219 0.025211021 -0.0186086
0003c0 1f a2 56 bd 6a 02 9d 3d 4c f9 1d 3d 90 c4 16 3c
       -0.052400704 0.07666476 0.038567826 0.009202138
0003d0 12 82 85 bc fc a5 d5 3d 47 04 d6 3c a6 a0 c4 3d
       -0.016297374 0.1043205 0.026125086 0.09600954
0003e0 a0 84 f8 3c 8f c4 3d 3d 20 1e 84 3d 46 eb 27 3d
       0.030336678 0.04633003 0.064510584 0.04099586
0003f0 54 56 dd 3c 25 92 ec bd 18 95 b0 3d 29 d6 21 3d
       0.027018704 -0.11551312 0.086221874 0.03951088

critic.0.bias f4 [32]
000000 3a 88 fb bd e0 1c 62 3d 56 83 4a bd 57 6a 25 bd
       -0.122818425 0.05520332 -0.049441658 -0.040384617
000010 7b d9 b5 3d 44 87 44 3e 94 24 7e 3d 33 08 e9 bd
       0.08879372 0.19192225 0.062046602 -0.11378517
000020 00 3d 3c 3b 2c 0c 39 3d a9 ec de 3d 29 ae f3 3c
       0.0028722882 0.045177624 0.10884983 0.029746132
000030 c8 e2 2a bd 40 c5 23 bc 52 68 a1 bd 76 30 a0 3c
       -0.04172018 -0.0099957585 -0.07881226 0.019554358
000040 48 e6 7f bc f4 33 32 3d c4 9b 30 bd 5b c3 bc 3c
       -0.015618868 0.043506578 -0.0431173 0.023042371
000050 36 77 d5 bd a8 d4 47 3e c1 6e 2e 3d 91 35 b2 3d
       -0.10423128 0.19514716 0.042586092 0.08701623
000060 fd f9 08 bc 39 00 a4 3d 7c 9c e5 3d 40 2b ce 3b
       -0.008360383 0.08007855 0.11211488 0.006291777
000070 b5 e6 47 3d b4 29 80 3d 1f d0 97 bd dc fc 17 3e
       0.048804004 0.06257954 -0.07412743 0.14842552

critic.2.weight f4 [1, 32]
000000 f5 c6 24 3e f9 58 32 be d6 64 cd 3d ac f4 f7 3d
       0.16091521 -0.17416753 0.100289986 0.12107214
000010 3e 2b 4f 3d ad 5e 51 be ea 1b 24 be e9 d1 00 3e
       0.05057835 -0.20446272 -0.16026273 0.12580074
000020 83 2b 01 3e 94 13 63 3d f1 d2 37 3d 02 5f 8f 3c
       0.12614255 0.055438593 0.044878904 0.017501358
000030 62 0c 31 3e 6a 81 27 be 4b 09 99 bd 3a db 13 3e
       0.1728988 -0.16357961 -0.074724756 0.14439097
000040 97 a5 80 be ba b2 ad 3d 70 61 28 3e a6 37 7b be
       -0.25126335 0.08481355 0.1644342 -0.24532947
000050 35 87 53 3d 2c 76 1b be f4 7a 91 be 0a 45 25 be
       0.051642615 -0.15181798 -0.28414118 -0.16139618
000060 06 7e f5 3b e8 20 fc 3d 6e 12 e7 3c f8 65 d8 3c
       0.00749183 0.12310964 0.02820703 0.02641581
000070 54 fd c7 3c 0e 8b be bc e2 da 62 3d d9 02 9d be
       0.024412788 -0.023259666 0.055384524 -0.30666235
