src/franka_h2/scripts/RL/pth/arm_ppo.pth (torch, 69554 bytes, 11 tensors)

shared_layer.0.weight f4 [128, 28]
0.017819341 -0.17625396 -0.013959409 0.17912972 -0.05770159 -0.17126529 -0.14219868 0.07744004
-0.006703945 0.08946921 -0.14480278 -0.15446252 0.11037583 0.037617624 -0.018531285 0.02289921
-0.0033419135 -0.042053767 0.056260698 0.17775683 -0.1609688 -0.042194974 0.1823338 0.007058137
0.023637626 -0.08358958 -0.06947754 0.1072152 0.048305184 0.024027413 0.06883233 -0.11297471
0.057506472 -0.02420978 0.016248591 0.028677957 -0.063690014 0.03075357 0.0012212215 0.18049991
0.05404284 -0.08761794 -0.14958037 0.12626533 0.13185647 -0.1515518 0.11359208 -0.100740165
0.10615949 -0.1789498 -0.08159426 -0.047507565 -0.04807012 0.04459135 -0.13724993 -0.110391505
-0.016414175 -0.1828736 -0.07274903 -0.16286227 -0.16597581 -0.06680572 -0.16026197 -0.14631265
-0.071251296 0.037108053 0.061516695 0.17858766 0.031622447 0.02992716 0.056064248 -0.15581433
-0.12073319 -0.06073144 0.032132693 0.1721533 0.18849365 0.12652276 -0.09149062 -0.018251257
-0.105681986 0.16263764 -0.14563736 0.0049600187 -0.18554227 -0.15619488 0.117178425 0.07422032
0.10879827 -0.043068334 -0.041445747 -0.13792522 0.17491174 -0.042016752 0.17495808 -0.026224025
0.011542242 -0.14742161 -0.10470713 0.18777993 -0.17953281 -0.0326374 -0.0035383615 -0.09397098
-0.058199674 0.006411233 -0.16400543 -0.06727676 0.18403366 0.1199152 0.18528605 0.02921819
0.15707915 0.0039903047 -0.0077991425 -0.11273913 -0.13210805 0.17676835 -0.06290034 0.13015983
0.11145992 -0.0638615 0.0017021812 0.087151304 0.031267084 0.03797346 -0.03092233 -0.108306885
-0.055910084 -0.12397154 -0.17738597 -0.033368535 -0.024555817 0.089174226 -0.11873748 -0.18787003
0.010747079 0.17074846 0.17306738 -0.10378272 -0.17421395 -0.17588742 -0.04750004 -0.11291636
-0.06121256 0.06736755 -0.07172836 -0.018207168 -0.00082532933 0.17552683 -0.1482651 0.16525804
-0.18637878 0.12654842 -0.005658738 0.12994508 -0.021363942 -0.10930622 -0.06518455 0.06449376
0.056098513 -0.13644767 0.1858996 -0.18622914 -0.13859285 -0.09027645 0.03249844 0.07556092
0.12150104 0.0452893 -0.18695344 -0.18657406 0.02710412 -0.09180519 -0.040117763 -0.07778851
-0.058565333 0.1746794 -0.13133316 0.039169315 0.14543962 -0.030986784 -0.03500739 -0.11528917
-0.09993732 -0.08500624 0.06786345 0.17666857 -0.031838067 0.030112118 -0.11189828 0.09261556
-0.1683578 -0.019992772 0.022997592 -0.15456243 0.08390142 0.00615745 -0.045379054 0.023604373
-0.028178819 -0.12902077 0.16212593 0.036579516 -0.007945487 0.048575163 -0.14459407 0.09755683
-0.17128001 -0.06319648 0.0770218 0.07019951 0.15835081 0.13981646 -0.16871847 0.18213214
-0.07642502 -0.083487555 -0.006723928 -0.15005748 -0.13174908 -0.18833004 -0.041612864 -0.05727231
-0.052726053 0.15393947 -0.037155703 0.10532806 0.07445845 -0.06117372 -0.008998827 0.13943578
-0.062206626 0.18847229 -0.03362998 0.0018008782 -0.107856564 -0.04320684 -0.02943284 -0.031524673
0.038514663 -0.15605481 0.060361706 -0.03426555 -0.15552007 -0.024848213 -0.12886728 -0.07434752
0.05071532 -0.04579919 0.082501866 -0.18309756 0.077848956 -0.10160391 -0.03656947 0.17738044
00000000: def9 913c eb7b 34be 01b6 64bc c86d 373e
00000010: 8158 6cbd 2b60 2fbe 889c 11be e298 9e3d
00000020: c4ac dbbb a23b b73d 2e47 14be 6c2b 1ebe
00000030: b90c e23d f014 1a3d ecce 97bc 2097 bb3c
00000040: 0104 5bbb 9240 2cbd 9e71 663d e305 363e
00000050: 01d5 24be a3d4 2cbd b6b5 3a3e f247 e73b
00000060: b2a3 c13c 0431 abbd 3e4a 8ebd a593 db3d
00000070: a8db 453d 23d5 c43c f7f7 8c3d 495f e7bd
00000080: e88b 6b3d 9753 c6bc c41b 853c 09ee ea3c
00000090: e96f 82bd e9ee fb3c 6511 a03a f8d4 383e
000000a0: 065c 5d3d 0971 b3bd 992b 19be b34b 013e
000000b0: 6205 073e 6530 1bbe f7a2 e83d dc50 cebd
000000c0: 266a d93d 9e3e 37be e41a a7bd 4b97 42bd
000000d0: 2de5 44bd 6ba5 363d 3f8b 0cbe f114 e2bd
000000e0: 0577 86bc 3843 3bbe 72fd 94bd 5ec5 26be
000000f0: 90f5 29be 70d1 88bd b71b 24be fcd2 15be
00000100: 33ec 91bd 9dfe 173d eef8 7b3d afdf 363e
00000110: 8a86 013d ce29 f53c a0a3 653d cb8d 1fbe
00000120: f642 f7bd 88c1 78bd 929d 033d f448 303e
00000130: 7b04 413e 2f8f 013e 6f5f bbbd a983 95bc
00000140: cc6f d8bd 7b8a 263e f621 15be a787 a23b
00000150: cbfe 3dbe 8df1 1fbe 3efb ef3d d300 983d
00000160: a1d1 de3d 6c68 30bd 04c3 29bd 453c 0dbe
00000170: 101c 333e c219 2cbd 3628 333e c4d3 d6bc
00000180: ac1b 3d3c b1f5 16be b170 d6bd 6249 403e
00000190: 73d7 37be cbae 05bd dbe3 67bb db73 c0bd
000001a0: c862 6ebd 5215 d23b 0af1 27be 66c8 89bd
000001b0: 5273 3c3e 1a96 f53d a0bb 3d3e fc5a ef3c
000001c0: 5bd9 203e 1ac1 823b f38f ffbb c6e3 e6bd
000001d0: 5547 07be c302 353e e5d1 80bd 9e48 053e
000001e0: 1945 e43d d1c9 82bd b91b df3a 627c b23d
000001f0: ea11 003d 0f8a 1b3d d450 fdbc 00d0 ddbd
00000200: f901 65bd cae4 fdbd aba4 35be 72ad 08bd
00000210: 4829 c9bc faa0 b63d a32c f3bd 0061 40be
00000220: 8414 303c afd8 2e3e 9338 313e 098c d4bd
00000230: 2465 32be d51b 34be 678f 42bd b140 e7bd
00000240: 05ba 7abd 00f8 893d 52e6 92bd 3327 95bc
00000250: ea5a 58ba 4ebd 333e ced2 17be 6739 293e
00000260: 14da 3ebe e995 013e ef6c b9bb 5310 053e
00000270: 6f03 afbc f1db dfbd 7a7f 85bd 4e15 843d
00000280: 8ec7 653d f0b8 0bbe 775c 3e3e dab2 3ebe
00000290: 49eb 0dbe dce2 b8bd 161d 053d afbf 9a3d
000002a0: 8ad5 f83d 4681 393d b970 3fbe 450d 3fbe
000002b0: 7609 de3c 5c04 bcbd 8652 24bd 954f 9fbd
000002c0: 34e2 6fbd 28df 323e 337c 06be 0170 203d
000002d0: 20ee 143e ffd7 fdbc e963 0fbd ba1c ecbd
000002e0: f0ab ccbd c017 aebd fefb 8a3d 9be8 343e
000002f0: a268 02bd b0ad f63c ed2a e5bd 3aad bd3d
00000300: fd65 2cbe e2c7 a3bc 7265 bc3c 9d45 1ebe
00000310: 82d4 ab3d 6fc4 c93b 63df 39bd f55d c13c
00000320: 44d7 e6bc 051e 04be 5704 263e 67d4 153d
00000330: ca2d 02bc c0f6 463d 7810 14be e0cb c73d
00000340: 0764 2fbe 286d 81bd 9bbd 9d3d c3c4 8f3d
00000350: b726 223e 0c2c 0f3e 89c4 2cbe d980 3a3e
00000360: b984 9cbd 86fb aabd 6554 dcbb aba8 19be
00000370: 3be9 06be 97d9 40be 4072 2abd 5f96 6abd
00000380: 46f7 57bd 4fa2 1d3e 9430 18bd 3db6 d73d
00000390: ac7d 983d 4b91 7abd d16f 13bc 41c8 0e3e
000003a0: 60cc 7ebd e1fe 403e 97bf 09bd 720b ec3a
000003b0: e7e3 dcbd a8f9 30bd 241d f1bc 0420 01bd
000003c0: 8dc1 1d3d d5cc 1fbe d63d 773d 095a 0cbd
000003d0: a740 1fbe 7b8e cbbc c9f5 03be 8343 98bd
000003e0: deba 4f3d ee97 3bbd bdf6 a83d ed7d 3bbe
000003f0: 466f 9f3d b615 d0bd dec9 15bd 38a3 353e

shared_layer.0.bias f4 [128]
-0.16129637 -0.08068281 -0.10018845 0.06301042 0.1005895 -0.067208596 -0.06897775 -0.030844405
-0.06696382 0.045934852 -0.14322844 -0.15422824 0.14845341 0.14100948 -0.17602462 0.03988534
-0.1822816 0.11588205 -0.11573904 0.18866138 0.026612775 -0.1362335 0.09129568 0.16358206
0.11934719 -0.07022055 -0.061778046 0.046104517 -0.17907168 0.09970618 -0.10193602 -0.043980803
-0.16854867 -0.10029453 0.036107294 0.1776501 -0.060018238 -0.07498115 -0.073061034 -0.0075791073
0.04770016 -0.011952215 -0.10931102 -0.00089712744 -0.031087983 -0.113292135 0.12374112 -0.03643887
0.059002902 0.17235406 -0.11146053 -0.1338428 0.13008703 0.06214769 -0.008814476 -0.12225908
-0.024383385 0.03112083 -0.049887534 -0.07011413 0.15466964 0.15275475 -0.006742378 -0.0023905376
-0.16411427 0.06528611 0.06658045 0.090487 0.15425347 -0.015317716 -0.15838575 -0.057335775
0.17564666 -0.05674598 0.13804708 -0.08778965 0.13373747 -0.06404945 0.00075769896 -0.0018571994
-0.04139425 0.032425158 0.17905606 -0.17191581 0.07443729 0.13674955 0.16422062 0.18101983
0.18139225 0.09261743 0.113241106 0.122253336 -0.13403535 0.0076563344 0.12269438 -0.11806228
0.05474469 0.065119326 0.09672578 0.17888133 -0.13952957 0.11246262 -0.056367073 0.034001384
0.17174692 -0.04015097 0.17340903 -0.13566898 -0.1726304 0.1194453 0.12314312 -0.06726359
0.07842683 0.054452565 -0.052260004 0.18783534 -0.043208644 -0.12050038 0.10349217 0.0014662409
-0.13573448 0.051431656 -0.18869685 -0.15175022 0.050455093 -0.12108139 0.106548175 0.12225086
00000000: e02a 25be 073d a5bd 9a2f cdbd 9b0b 813d
00000010: de01 ce3d a9a4 89bd 3544 8dbd 68ad fcbc
00000020: 5424 89bd 2f26 3c3d 7aaa 12be 02ee 1dbe
00000030: 2c04 183e ca64 103e cc3f 34be cf5e 233d
00000040: 07a8 3abe 9153 ed3d 9708 edbd 7330 413e
00000050: 0903 da3c cb80 0bbe 3bf9 ba3d 0e82 273e
00000060: 4d6c f43d cbcf 8fbd fa0a 7dbd 17d8 3c3d
00000070: 915e 37be c132 cc3d d5c3 d0bd 3725 34bd
00000080: 0698 2cbe 3867 cdbd 3ee5 133d e8e9 353e
00000090: afd5 75bd b88f 99bd 06a1 95bd 295a f8bb
000000a0: 3e61 433d 39d3 43bc 75de dfbd 342d 6bba
000000b0: 3aac febc b505 e8bd fc6b fd3d ed40 15bd
000000c0: 07ad 713d 957d 303e 6b45 e4bd 160e 09be
000000d0: 8935 053e 948e 7e3d 986a 10bc f862 fabd
000000e0: aabf c7bc 1cf1 fe3c df56 4cbd ff97 8fbd
000000f0: b861 1e3e be6b 1c3e 2bef dcbb 91aa 1cbb
00000100: 920d 28be b9b4 853d 555b 883d 4051 b93d
00000110: 9ff4 1d3e 28f7 7abc e02f 22be ebd8 6abd
00000120: b8dc 333e 796e 68bd 375c 0d3e 0fcb b3bd
00000130: 7af2 083e 5c2c 83bd 51a0 463a 456d f3ba
00000140: 048d 29bd 3ed0 043d 795a 373e b30a 30be
00000150: 9472 983d 1308 0c3e 7329 283e 435d 393e
00000160: e4be 393e 35ae bd3d f4ea e73d f55f fa3d
00000170: 9040 09be fde1 fa3b 3147 fb3d a3ca f1bd
00000180: f83b 603d 485d 853d 2a18 c63d ab2c 373e
00000190: d7e0 0ebe cd52 e63d 29e1 66bd 0945 0b3d
000001a0: 6dde 2f3e 5875 24bd 2392 313e cfec 0abe
000001b0: 06c6 30be bd9f f43d 7632 fc3d 7ec1 89bd
000001c0: 3f9e a03d a709 5f3d 960e 56bd e857 403e
000001d0: 8cfb 30bd e7c8 f6bd b4f3 d33d e12e c03a
000001e0: fbfd 0abe 00aa 523d bf39 41be 6964 1bbe
000001f0: 00aa 4e3d 85f9 f7bd ee35 da3d a95e fa3d

shared_layer.2.weight f4 [64, 128]
-0.020968026 0.014601502 -0.07808214 0.05872941 -0.06648764 0.054963186 -0.053488765 0.08160447
0.0717898 -0.07762614 -0.030416938 0.06276834 -0.014390451 -0.005694503 -0.050386608 0.012339438
0.0840103 -0.05169765 -0.050625592 0.0093332715 -0.06599052 -0.045758337 -0.013144243 0.044023793
-0.023470936 0.0021430198 -0.001025201 -0.009898682 -0.04390987 0.06061626 -0.025092283 0.08482162
0.08740227 0.0199555 0.056702945 -0.07184709 0.04630945 0.079554155 0.04718511 0.061277576
-0.061317004 0.008840775 -0.0015895051 0.07537225 0.034725357 0.08006174 0.010651067 0.010423221
-0.050276913 -0.040835343 -0.060735714 0.079772964 -0.06618419 -0.04074295 0.05434642 -0.08810075
0.06699983 0.035414215 0.038951706 -0.084058866 -0.0345216 0.038200155 0.06554795 0.04538872
-0.050818276 -0.014672919 -0.014337568 -0.05563272 -0.030929117 0.04733326 0.009088314 -0.0835402
-0.023700152 0.03526511 -0.013248156 0.055024512 0.08495834 0.04148077 -0.028208168 -0.019181663
0.08004974 0.046450306 0.033019263 0.071290225 -0.020831954 0.028980384 -0.05129734 0.033570122
0.016129546 -0.012011894 0.038014896 -0.029025301 0.05381025 -0.039721843 0.006468108 0.035890106
-0.08508909 0.05293422 -0.019638177 0.014161688 -0.07378686 0.085425116 -0.0753537 -0.034404
-0.07415301 -0.087067254 -0.017413517 -0.053383544 0.026036954 -0.017928679 -0.08041678 0.015359671
-0.06334644 -0.08187692 0.08550868 -0.0263206 -0.044796538 -0.07215898 -0.07787777 0.04735722
0.054400664 -0.028726323 -0.052006576 -0.027585408 0.059805125 -0.065117426 -9.944549e-05 0.0590604
-0.058919787 -0.07645014 -0.06992223 -0.05333905 0.046007067 0.06490433 0.0839993 -0.07909148
-0.053663526 -0.07735874 0.054412004 -0.07245882 0.05574773 -0.033960275 -0.077058114 0.029877815
-0.053105585 0.041489094 -0.08033505 0.03509091 0.03661852 -0.0755325 -0.060444027 0.03608787
0.03428177 -0.08180543 -0.06482901 0.07577719 -0.04305742 0.053616986 0.06665488 -0.04122831
0.051288415 0.06803003 0.012974085 -0.021510202 0.014809791 0.073737994 0.08453772 -0.07453603
0.015990019 -0.04192053 0.010451523 0.058986127 0.004657153 0.0237596 0.049582385 0.028740367
0.0539039 -0.07448637 -0.085695624 -0.018310813 -0.028441789 0.08773984 -0.037937082 0.07382327
0.051968582 -0.08755264 0.01203794 -0.07286448 -0.07404977 0.025490245 0.045795534 -0.019655973
0.08026367 -0.06579895 0.025369389 0.08686019 0.08793296 -0.009699707 -0.026691588 0.029567415
-0.07064571 0.063405335 0.03244006 0.062040202 0.073418126 0.013514935 0.002601177 -0.056425463
0.02859102 0.057719056 0.002459574 -0.03830683 -0.008845665 -0.03791271 0.033800274 -0.04325688
-0.08430643 -0.041114494 0.029108299 -0.038173422 0.056571268 -0.042796206 0.013469364 -0.029056838
-0.019331684 -0.022336997 0.022388406 -0.049860608 -0.06119265 0.027699498 0.011255327 -0.011235633
-0.024037316 0.06501911 -0.06139951 -0.065437846 -0.06063606 0.06952815 0.048914365 0.05065381
0.0035575416 -0.03005675 0.0077352426 -0.04966746 -0.026571997 -0.009521837 -0.031908587 0.07248101
-0.009099779 0.03426796 0.023845 0.01154301 -0.08537628 -0.010659928 0.0022810402 0.024001103
00000000: 23c5 abbc 233b 6f3c 87e9 9fbd 408e 703d
00000010: ac2a 88bd 1421 613d 0917 5bbd 3f20 a73d
00000020: 8806 933d 74fa 9ebd f12c f9bc b08c 803d
00000030: edc5 6bbc f498 babb 3062 4ebd 5b2b 4a3c
00000040: 980d ac3d eac0 53bd c85c 4fbd 94ea 183c
00000050: 0a26 87bd 186d 3bbd f35a 57bc 4b52 343d
00000060: 1f46 c0bc e871 0c3b 0a60 86ba 152e 22bc
00000070: d6da 33bd c148 783d 558e cdbc f5b6 ad3d
00000080: f6ff b23d b779 a33c 5941 683d 9124 93bd
00000090: faae 3d3d 4aed a23d 2d45 413d 32fe 7a3d
000000a0: 8a27 7bbd e6d8 103c f156 d0ba c45c 9a3d
000000b0: 2d3c 0e3d 69f7 a33d d081 2e3c 28c6 2a3c
000000c0: 2aef 4dbd f642 27bd 03c6 78bd 0260 a33d
000000d0: 948b 87bd 14e2 26bd 5a9a 5e3d 2b6e b4bd
000000e0: 3537 893d 7f0e 113d d38b 1f3d 0e27 acbd
000000f0: 8566 0dbd c477 1c3d 013e 863d 86e9 393d
00000100: d326 50bd af66 70bc 1ee8 6abc 23df 63bd
00000110: 0f5f fdbc 85e0 413d 27e7 143c 2017 abbd
00000120: d226 c2bc 2672 103d cb0e 59bc 6261 613d
00000130: a3fe ad3d bde7 293d d114 e7bc dd22 9dbc
00000140: 1ef1 a33d ad42 3e3d 353f 073d 9c00 923d
00000150: c6a7 aabc 4568 ed3c 291d 52bd d380 093d
00000160: 1c22 843c 89cd 44bc 82b5 1b3d 78c6 edbc
00000170: 2368 5c3d 5fb3 22bd 6cf2 d33b 8101 133d
00000180: 3043 aebd 8dd1 583d 3ee0 a0bc 6d06 683c
00000190: 911d 97bd 5df3 ae3d 0a53 9abd 35eb 0cbd
000001a0: 89dd 97bd 5150 b2bd cba6 8ebc b4a8 5abd
000001b0: 734b d53c 2adf 92bc 8eb1 a4bd 21a7 7b3c
000001c0: c7bb 81bd 16af a7bd 2d1f af3d 4d9e d7bc
000001d0: 937c 37bd 16c8 93bd 617e 9fbd a5f9 413d
000001e0: 3bd3 5e3d 7753 ebbc d904 55bd cbfa e1bc
000001f0: 38f6 743d 495c 85bd 648d d0b8 51e9 713d
00000200: e055 71bd e491 9cbd 6333 8fbd 0c7a 5abd
00000210: e871 3c3d 90ec 843d d307 ac3d b7fa a1bd
00000220: 49ce 5bbd 426e 9ebd 1fdf 5e3d 4a65 94bd
00000230: bb57 643d ee19 0bbd a5d0 9dbd 52c2 f43c
00000240: 3e85 59bd 78f0 293d b486 a4bd 7cbb 0f3d
00000250: 4dfd 153d c9b0 9abd 2894 77bd e0d0 133d
00000260: 0b6b 0c3d 9b89 a7bd 12c5 84bd 1231 9b3d
00000270: fa5c 30bd 7c9d 5b3d 5b82 883d 04df 28bd
00000280: cd13 523d 5453 8b3d 4291 543c 2a36 b0bc
00000290: c4a4 723c f203 973d 1d22 ad3d 59a6 98bd
000002a0: 80fd 823c ddb4 2bbd dd3c 2b3c 709b 713d
000002b0: 089b 983b 7ea3 c23c e616 4b3d eb70 eb3c
000002c0: 56ca 5c3d 4f8c 98bd 3081 afbd 8f00 96bc
000002d0: c1fe e8bc f2b0 b33d ea63 1bbd a830 973d
000002e0: 02dd 543d cc4e b3bd c83a 453c f939 95bd
000002f0: 68a7 97bd ebd0 d03c 1994 3b3d 9005 a1bc
00000300: 4761 a43d 9ac1 86bd 77d3 cf3c c1e3 b13d
00000310: 3216 b43d 85eb 1ebc 51a8 dabc 5d37 f23c
00000320: b3ae 90bd a8da 813d dedf 043d de1d 7e3d
00000330: 3e5c 963d bf6d 5d3c 8278 2a3b 631e 67bd
00000340: b737 ea3c d16a 6c3d ce30 213b 9fe7 1cbd
00000350: 68ed 10bc 5c4a 1bbd 2872 0a3d 202e 31bd
00000360: d9a8 acbd ac67 28bd 8774 ee3c bc5b 1cbd
00000370: 46b7 673d 134b 2fbd 9bae 5c3c 9b08 eebc
00000380: 7b5d 9ebc 14fc b6bc e467 b73c a33a 4cbd
00000390: 25a5 7abd 0fea e23c 4368 383c a915 38bc
000003a0: e8e9 c4bc bd28 853d 0d7e 7bbd 4704 86bd
000003b0: 845d 78bd c664 8e3d 6e5a 483d 5f7a 4f3d
000003c0: a525 693b 9339 f6bc eb77 fd3b 1b70 4bbd
000003d0: 84ad d9bc 7b01 1cbc 94b2 02bd ec70 943d
000003e0: 3d17 15bc 8f5c 0c3d 9756 c33c e51e 3d3c
000003f0: c2d9 aebd fba6 2ebc 817d 153b f69d c43c

shared_layer.2.bias f4 [64]
0.025078438 -0.07196407 0.029919531 0.08710559 0.05395436 -0.07161308 -0.05828908 0.02801169
0.010637833 -0.024764087 -0.065340035 -0.025525605 0.044732116 0.067653574 0.06288568 0.08337269
0.043447025 -0.039806537 0.062484946 0.008214779 0.08285368 0.06456376 0.006754306 0.064289704
0.06062073 -0.06772288 0.006827484 -0.078931816 0.07444104 0.049675446 -0.07708998 0.02501603
-0.051543858 -0.049162854 0.041598644 0.07370535 -0.0041508744 -0.08772052 -0.034472033 -0.035620503
-0.014891757 -0.06702913 0.0092352275 0.01588246 0.08780235 0.039367728 0.048988305 -0.014629529
0.041954406 -0.016188487 -0.06235235 -0.002920513 -0.038604878 -0.0009555112 0.009018983 -0.0640583
0.026877752 0.08670721 -0.08196516 -0.050524347 0.069092266 -0.041274935 -0.0778269 0.06245796
00000000: 4c71 cd3c e661 93bd ce19 f53c 6a64 b23d
00000010: 3fff 5c3d e1a9 92bd 88c0 6ebd c678 e53c
00000020: 4e4a 2e3c 0ede cabc ffd0 85bd 131b d1bc
00000030: 0639 373d f58d 8a3d 35ca 803d 4dbf aa3d
00000040: 82f5 313d 2e0c 23bd 37f0 7f3d 4897 063c
00000050: 31af a93d 013a 843d 3a53 dd3b 52aa 833d
00000060: 714d 783d 4bb2 8abd 16b9 df3b 01a7 a1bd
00000070: 8b74 983d 7b78 4b3d 5ae1 9dbd 6bee cc3c
00000080: a71f 53bd fd5e 49bd 5763 2a3d d5f2 963d
00000090: 0f04 88bb d1a6 b3bd 8c32 0dbd cee6 11bd
000000a0: 8efc 73bc 9246 89bd 5a4f 173c ef1b 823c
000000b0: b8d1 b33d 0e40 213d f6a7 483d b1b0 6fbc
000000c0: 62d8 2b3d b89d 84bc 2e65 7fbd 1466 3fbb
000000d0: 2620 1ebd 457b 7aba 5bc4 133c ff30 83bd
000000e0: bb2e dc3c 8d93 b13d 5add a7bd 9ef2 4ebd
000000f0: 3f80 8d3d e80f 29bd b663 9fbd ebd3 7f3d

actor.0.weight f4 [32, 64]
0.084743336 -0.12155555 -0.016547635 -0.076858714 -0.043909922 -0.09544726 0.10469216 0.021644086
-0.0840835 -0.01518254 0.099746674 0.11614135 0.10426085 -0.09690142 0.122669235 -0.105722114
-0.042460546 0.062487632 -0.08437149 0.080698654 0.03946793 0.08518492 -0.12241389 -0.007866144
-0.11489479 -0.108738735 0.07593101 0.12292017 -0.04030335 0.012085527 0.07800323 0.02840273
-0.07974647 0.11153397 -0.019364238 -0.07126103 0.11271314 0.053013965 -0.03644815 0.031451136
0.10563658 0.010781571 -0.122147456 0.011605963 -0.10652952 -0.08922376 0.040519536 -0.034992933
-0.04783845 -0.006488979 -0.06599857 0.10910289 0.06066619 -0.09151706 -0.022640303 -0.0020459592
0.004277557 0.10269712 -0.0041797906 -0.10064225 -0.10000932 -0.03225577 0.04109764 0.048392177
0.002149284 -0.041865766 0.10656285 0.02491653 -0.049080998 0.094467655 0.10100065 -0.11684802
0.03918402 -0.053325996 0.08572586 -0.030386478 -0.12088078 -0.118482545 -0.0020124614 0.040604174
-0.028035685 0.079603955 0.11358021 -0.12152484 0.041492864 0.071977064 -0.08075526 -0.03742604
0.048993066 -0.10121243 -0.11604422 -0.06424475 0.005952552 -0.0347483 -0.011120915 -0.105157614
0.07985394 -0.113688424 0.09992547 -0.02630055 -0.08374445 -0.061127096 0.03271909 -0.01524891
-0.016609728 0.087151095 -0.065711185 0.082721144 0.07284498 -0.11046687 0.09223691 0.034335792
0.085097566 -0.062181547 0.011980981 -0.026763886 0.029870898 -0.05257839 -0.10368949 0.08748749
0.11274773 -0.041544095 -0.10808155 -0.03026846 0.07556774 0.05656317 -0.029384494 -0.063880414
-0.060798332 0.060892552 0.055993244 -0.006493017 -0.0056740195 0.027062401 0.06982453 0.090493545
0.0012728721 0.11527273 -0.08821894 0.08532709 0.0620856 0.03857611 0.067488804 -0.11738025
-0.060162917 0.023302719 0.011084378 0.121437564 -0.043545246 -0.12197125 -0.062429234 -0.122983366
-0.005468756 -0.09366712 0.058887735 0.11746059 -0.01106891 0.09673211 -0.028193071 -0.09400143
0.0031622797 0.023145646 -0.034867913 0.05175905 0.097326726 0.11206441 -0.05201988 -0.02439621
-0.061950162 -0.10358709 -0.065724015 0.1113517 0.0066876113 -0.05586697 -0.052075982 -0.012384549
-0.07564747 -0.012385786 0.119591236 0.07757978 0.12288885 0.11361517 -0.016848788 -0.014535293
-0.032930404 -0.012775511 0.041285753 -0.01914391 -0.07520908 -0.105994284 0.04759544 0.07411341
0.005460292 0.017459214 -0.056315005 -0.09127796 0.008307844 -0.04950869 -0.036693335 -0.034539253
-0.104637206 -0.04357405 -0.002746135 -0.09910704 -0.012761101 0.08666374 -0.12008713 0.0021499544
-0.07786651 0.06548488 0.10065599 0.04291351 0.030599684 -0.109008074 0.031149864 -0.100278005
-0.008381128 0.06866534 0.0393887 -0.006261587 -0.015727788 0.023666501 0.023849353 -0.0495812
-0.027418718 -0.045825854 -0.1100471 -0.12188229 -0.05113457 0.10392715 -0.009620339 -0.094231114
-0.06153427 -0.05490102 0.033340573 0.047075257 -0.04484406 0.0023702234 0.11320381 0.006661147
-0.07512672 -0.008589521 0.104466066 0.07209319 -0.04563637 0.053984717 0.1022359 0.012703717
0.029034376 -0.105052546 -0.013966829 0.027963743 -0.1022826 0.121702075 0.12299633 -0.024004847
00000000: ea8d ad3d 1ef2 f8bd e88e 87bc 1a68 9dbd
00000010: e4da 33bd da79 c3bd d868 d63d f04e b13c
00000020: f833 acbd 30c0 78bc fc47 cc3d 84db ed3d
00000030: b686 d53d 4074 c6bd 023a fb3d d684 d8bd
00000040: 1ceb 2dbd 08f3 7f3d f6ca acbd 5645 a53d
00000050: 20a9 213d 6e75 ae3d 22b4 fabd 00e1 00bc
00000060: f64d ebbd 6ab2 debd b881 9b3d 92bd fb3d
00000070: 2015 25bd 6002 463c 28c0 9f3d d8ac e83c
00000080: 1e52 a3bd ec6b e43d c0a1 9ebc 4ef1 91bd
00000090: 26d6 e63d 2c25 593d a84a 15bd e8d2 003d
000000a0: fe57 d83d 30a5 303c 7228 fabd f026 3e3c
000000b0: 262c dabd f2ba b6bd d0f7 253d c054 0fbd
000000c0: 40f2 43bd 80a1 d4bb 422a 87bd 5671 df3d
000000d0: 1c7d 783d 4c6d bbbd 2878 b9bc 8015 06bb
000000e0: c02a 8c3b de52 d23d a0f6 88bb 861d cebd
000000f0: b0d1 ccbd a01e 04bd 0056 283d e036 463d
00000100: 00db 0c3b 707b 2bbd a03d da3d c01d cc3c
00000110: 2809 49bd 4278 c13d 6ed9 ce3d 044e efbd
00000120: 6c7f 203d 5c6c 5abd 0a91 af3d 10ed f8bc
00000130: 5890 f7bd faa6 f2bd 80e3 03bb 9050 263d
00000140: 18ab e5bc 6607 a33d be9c e83d 04e2 f8bd
00000150: 6cf4 293d b668 933d 0463 a5bd 0c4c 19bd
00000160: f4ac 483d 7648 cfbd 98a8 edbd c092 83bd
00000170: a00d c33b 3c54 0ebd 8034 36bc e05c d7bd
00000180: 768a a33d 7ad5 e8bd baa5 cc3d 4074 d7bc
00000190: 3682 abbd 6860 7abd 7404 063d 90d6 79bc
000001a0: 2011 88bc 467c b23d 9693 86bd b469 a93d
000001b0: c02f 953d 743c e2bd b4e6 bc3d b0a3 0c3d
000001c0: a247 ae3d 14b2 7ebd e04b 443c f03f dbbc
000001d0: d0b3 f43c 705c 57bd 285b d4bd a42c b33d
000001e0: 48e8 e63d 242a 2abd dc59 ddbd 90f5 f7bc
000001f0: 42c3 9a3d c8ae 673d c0b7 f0bc bcd3 82bd
00000200: ac07 79bd 786a 793d 2c59 653d 60c3 d4bb
00000210: 20ed b9bb f8b1 dd3c 2a00 8f3d ae54 b93d
00000220: 80d6 a63a 1c14 ec3d 22ac b4bd f8bf ae3d
00000230: 784d 7e3d fc01 1e3d 9237 8a3d 0e65 f0bd
00000240: 646d 76bd 58e5 be3c 409b 353c 42b4 f83d
00000250: 805c 32bd 10cc f9bd ccb5 7fbd b4de fbbd
00000260: 4033 b3bb 8cd4 bfbd 4434 713d 2e8f f03d
00000270: 605a 35bc 7c1b c63d 28f5 e6bc d283 c0bd
00000280: 403e 4f3b f09b bd3c a8d1 0ebd 4c01 543d
00000290: 3c53 c73d 0682 e53d cc12 55bd 90da c7bc
000002a0: 74bf 7dbd 7825 d4bd 509a 86bd 5c0c e43d
000002b0: c023 db3b c4d4 64bd a04d 55bd 90e8 4abc
000002c0: 10ed 9abd c0ed 4abc 40ec f43d 26e2 9e3d
000002d0: 26ad fb3d 12af e83d 7806 8abc 7025 6ebc
000002e0: 08e2 06bd 6050 51bc 401b 293d b0d3 9cbc
000002f0: 3807 9abd 8813 d9bd 70f3 423d c6c8 973d
00000300: 40ec b23b a006 8f3c 90aa 66bd f0ef babd
00000310: a01d 083c a0c9 4abd c04b 16bd 0879 0dbd
00000320: 084c d6bd b47a 32bd 80f8 33bb a2f8 cabd
00000330: f013 51bc c27c b13d 3ef0 f5bd 40e6 0c3b
00000340: 7a78 9fbd f01c 863d ba24 ce3d 14c6 2f3d
00000350: 30ac fa3c a03f dfbd 002e ff3c 8e5e cdbd
00000360: 0051 09bc 6aa0 8c3d 0c56 213d 002e cdbb
00000370: 90d7 80bc 40e0 c13c b85f c33c a815 4bbd
00000380: 389d e0bc e4b3 3bbd 6060 e1bd 6c9d f9bd
00000390: 7c72 51bd c2d7 d43d a09e 1dbc 3efc c0bd
000003a0: 5c0b 7cbd e4df 60bd 2090 083d fcd1 403d
000003b0: 68ae 37bd c055 1b3b 66d7 e73d c045 da3b
000003c0: 0adc 99bd 10bb 0cbc 4ef2 d53d 98a5 933d
000003d0: 34ed 3abd 141f 5d3d 0e61 d13d 4023 503c
000003e0: 80d9 ed3c ca25 d7bd 20d5 64bc 3814 e53c
000003f0: 8a79 d1bd f03e f93d 80e5 fb3d d0a5 c4bc

actor.0.bias f4 [32]
-0.023208424 0.026217476 -0.029859602 -0.06064485 -0.00021283329 -0.091441244 0.022031784 0.1240886
0.071939036 -0.07001217 0.03931965 0.016822472 -0.0054253936 0.027612314 -0.116341606 0.09831759
0.09042084 0.032774284 0.011186674 0.0053829104 -0.044145897 0.121711195 -0.01086162 0.09328166
-0.09624827 -0.017984644 0.09237678 -0.071597055 -0.036182895 0.07840684 -0.039920673 0.07191771
00000000: 981f bebc 08c6 d63c 209c f4bc bc66 78bd
00000010: 002c 5fb9 8c45 bbbd 007c b43c 2a22 fe3d
00000020: c654 933d 8a62 8fbd a40d 213d 48cf 893c
00000030: 80c7 b1bb 3833 e23c 8244 eebd bc5a c93d
00000040: 902e b93d 543e 063d 5048 373c 2063 b03b
00000050: 54d2 34bd b843 f93d f0f4 31bc 740a bf3d
00000060: d01d c5bd 8854 93bc 0a30 bd3d 7aa1 92bd
00000070: 8434 14bd c493 a03d dc83 23bd 9849 933d

actor.2.weight f4 [7, 32]
0.085588194 0.04346046 -0.038548287 -0.052461445 0.15418348 -0.01733167 0.03446449 -0.15387172
0.10082036 0.006918342 -0.17194594 -0.1409838 0.110258155 -0.04106441 -0.17179905 0.101594664
0.119092114 -0.16716404 0.11551404 -0.06817495 0.13776098 0.111762606 0.03004356 0.16416836
0.057306036 0.046323474 -0.104335114 -0.12980822 -0.04844091 -0.17039774 -0.17136127 0.10413978
-0.04708315 -0.00638491 0.08499137 0.07377698 -0.1140389 0.098632075 0.14386272 0.17310132
0.009370171 -0.07419516 0.14562012 0.09685875 0.0473075 -0.1716322 0.126413 -0.09166263
-0.02903353 -0.04176837 -0.09606946 0.005624834 0.1558689 0.06654174 0.05880619 0.15348811
0.1761436 -0.11044552 0.11521629 -0.012707885 0.116847456 -0.12230324 0.16340978 -0.103816114
0.16251622 -0.045133248 0.10785134 -0.13042483 0.10796534 -0.14466794 -0.046413288 0.032081444
-0.15246268 -0.13052417 -0.15020387 0.098666295 0.080096185 -0.03198712 -0.13005127 -0.03463415
0.13642539 -0.1421846 -0.16892579 0.042546693 0.17093667 0.0958472 0.052649528 0.15952015
0.01660571 0.007010791 0.024483336 0.11225817 0.11052823 -0.16180056 -0.015356435 -0.107930616
-0.0668194 -0.088018216 0.13186406 -0.14834794 -0.09080146 -0.025214646 -0.11216006 0.1761238
-0.1370906 -0.06607132 0.15495278 -0.14394931 -0.14761856 0.15718028 0.056133468 -0.108519934
-0.16904026 0.100076154 0.09819803 0.14954478 -0.12008705 0.10646728 -0.07667184 0.1309865
0.14461108 -0.17433548 0.09909272 -0.028979667 -0.10785488 0.05267941 -0.066840895 0.018824467
-0.045949128 -0.055020243 -0.0019577001 0.0058599925 0.051729757 -0.049155004 -0.12934206 0.08305799
-0.08473177 -0.09954934 0.16020565 -0.11234774 -0.030241143 -0.047743045 -0.012563849 0.047800172
0.118005335 0.15566236 0.007281922 -0.13817853 0.10403819 0.14179443 0.13205153 0.061946087
-0.14038268 0.050371975 -0.007552083 -0.012253205 0.14604025 0.12173929 -0.06625708 -0.012278073
-0.12214079 -0.13453248 -0.029006725 0.10435159 0.06166634 -0.02731021 -0.09811036 -0.018134039
0.13062945 0.07164926 0.024315929 -0.0072431886 -0.009954959 -0.027717052 -0.16855659 -0.09706103
-0.12219867 0.090048805 -0.150261 0.08329991 -0.012167268 -0.1639385 -0.021056397 -0.09826542
0.13898039 0.1115566 0.053759485 -0.021520138 0.020976359 -0.010394277 -0.104256295 -0.17122278
0.017510878 -0.111675195 -0.16921403 0.13964814 0.07933438 -0.07997156 -0.07499915 -0.005353619
-0.08641792 0.120988846 0.109312974 0.07717307 0.12795725 -0.15188874 -0.019429633 0.021249134
-0.17381625 0.0118157845 0.16568147 -0.009123717 0.1260633 -0.07872254 -0.06353393 -0.09204924
0.05455591 -0.16019599 0.12571752 0.10702526 0.0002476338 -0.040282186 0.026531061 -0.033078175
00000000: dd48 af3d 9803 323d cfe4 1dbd d0e1 56bd
00000010: 46e2 1d3e 25fb 8dbc a32a 0d3d 8c90 1dbe
00000020: e87a ce3d 42b3 e23b 9912 30be 0f5e 10be
00000030: 07cf e13d 2833 28bd 17ec 2fbe dd10 d03d
00000040: 91e6 f33d 0d2d 2bbe a092 ec3d 4f9f 8bbd
00000050: 3711 0d3e cbe3 e43d e91d f63c c01b 283e
00000060: bcb9 6a3d afbd 3d3d a6ad d5bd 72ec 04be
00000070: fa69 46bd bf7c 2ebe 5479 2fbe 3d47 d53d
00000080: 43da 40bd 8238 d1bb f50f ae3d 6318 973d
00000090: 3a8d e9bd 9dff c93d c050 133e 7941 313e
000000a0: 5985 193c a2f3 97bd 711d 153e e15d c63d
000000b0: 82c5 413d 5ac0 2fbe 6972 013e 9eb9 bbbd
000000c0: bad7 edbc 4f15 2bbd 11c0 c4bd 8750 b83b
000000d0: 199c 1f3e 0947 883d c2de 703d fd2b 1d3e
000000e0: fd5e 343e 4331 e2bd 85f6 eb3d bc34 50bc
000000f0: b84d ef3d 1f7a fabd e554 273e 8b9d d4bd
00000100: a76a 263e a4dd 38bd 2ae1 dc3d 168e 05be
00000110: ef1c dd3d d523 14be dc1b 3ebd d567 033d
00000120: 2d1f 1cbe 21a8 05be 0bcf 19be 8e11 ca3d
00000130: 7809 a43d ed04 03bd 292c 05be 8adc 0dbd
00000140: 19b3 0b3e d798 11be e2fa 2cbe 7145 2e3d
00000150: 060a 2f3e 894b c43d 08a7 573d 4059 233e
00000160: b308 883c c7ba e53b 4791 c83c 9de7 e53d
00000170: a05c e23d 0caf 25be 8f99 7bbc ba0a ddbd
00000180: 9cd8 88bd e542 b4bd 5f07 073e 86e8 17be
00000190: 1ef6 b9bd f28e cebc 2cb4 e5bd cc59 343e
000001a0: 7a61 0cbe 6650 87bd f1ab 1e3e 7367 13be
000001b0: 5229 17be def3 203e 35ec 653d b33f debd
000001c0: e418 2dbe baf4 cc3d 0c1c c93d 4422 193e
000001d0: 33f0 f5bd 840b da3d 2006 9dbd 5321 063e
000001e0: ed14 143e 0085 32be 20f1 ca3d c466 edbc
000001f0: 05e3 dcbd 5dc6 573d e1e3 88bd c535 9a3c
00000200: 2735 3cbd e85c 61bd c24c 00bb 2e05 c03b
00000210: 95e2 533d c256 49bd 3f72 04be 4f1a aa3d
00000220: da87 adbd 86e0 cbbd f30c 243e 9216 e6bd
00000230: 46bc f7bc 368e 43bd 9ad8 4dbc 1dca 433d
00000240: c8ac f13d f465 1f3e 309d ee3b ac7e 0dbe
00000250: f911 d53d 8f32 113e 8438 073e 2ebb 7d3d
00000260: 7ac0 0fbe d852 4e3d 7777 f7bb abc1 48bc
00000270: 938b 153e 7352 f93d cbb1 87bd f829 49bc
00000280: f324 fabd e2c2 09be 839f edbc 49b6 d53d
00000290: d895 7c3d a9b9 dfbc 16ee c8bd d68d 94bc
000002a0: bac3 053e d9bc 923d 3332 c73c 4558 edbb
000002b0: 201a 23bc df0e e3bc 199a 2cbe efc7 c6bd
000002c0: 4c43 fabd 826b b83d 05de 19be 2599 aa3d
000002d0: 3959 47bc 7fdf 27be 777e acbc 613f c9bd
000002e0: e050 0e3e c977 e43d e832 5c3d 004b b0bc
000002f0: 9dd6 ab3c c24c 2abc 5384 d5bd 0655 2fbe
00000300: f972 8f3c f7b5 e4bd 7146 2dbe ecff 0e3e
00000310: 107a a23d 21c8 a3bd 2899 99bd 696d afbb
00000320: e1fb b0bd 00c9 f73d 7bdf df3d ea0c 9e3d
00000330: 3a07 033e b988 1bbe e52a 9fbc aa12 ae3c
00000340: e3fc 31be fe96 413c 67a8 293e a57b 15bc
00000350: bd16 013e 4839 a1bd 141e 82bd 5084 bcbd
00000360: 0576 5f3d 6b0a 24be 18bc 003e 0f30 db3d
00000370: d9d4 8139 effe 24bd ab57 d93c fb7c 07bd

actor.2.bias f4 [7]
-0.05139452 -0.1491569 0.033891693 -0.020665463 0.08421503 -0.098156214 0.05805745
00000000: 0f83 52bd 96bc 18be 04d2 0a3d 9e4a a9bc
00000010: ee78 ac3d 2006 c9bd a6cd 6d3d

critic.0.weight f4 [32, 64]
-0.08762336 0.029664233 0.097564295 0.10234548 -0.025894403 -0.0010240227 0.026773274 -0.031203747
-0.006637156 -0.1096597 -0.061599508 -0.017242968 -0.08945702 0.11683163 0.059855416 -0.07099749
-0.1222194 -0.009454325 -0.0070341825 -0.062079683 0.005064994 0.017997935 -0.011484519 0.015434921
0.030409142 -0.1196416 0.067814246 -0.11034332 0.11640607 0.093437225 0.11582567 -0.09958327
-0.101632565 -0.101641 -0.09014727 0.070707574 0.06751287 -0.01818353 0.060824797 0.12081748
-0.041119948 -0.030127615 0.066071525 -0.02138719 0.055119768 0.06497876 0.07622282 -0.036045358
-0.023986846 0.0018569976 -0.092317685 0.12271984 -0.09974606 0.095106125 0.12175058 0.036950096
-0.03897527 0.004028842 0.04025179 -0.10163887 0.011779815 0.066021696 0.09937653 0.10708283
0.082257375 -0.11226083 0.047458127 -0.003327787 0.09581566 -6.5118074e-05 0.109650254 -0.05562295
0.0015391856 -0.0288288 -0.014174834 0.08111586 0.0030559152 -0.047686905 0.027327001 -0.07903299
-0.06293216 0.11097251 0.05734606 -0.092966855 -0.013651282 0.09973176 0.048156664 0.03430809
0.112734705 -0.10119866 0.0066858977 -0.070053026 -0.10097267 -0.07874653 -0.11792301 0.11215797
-0.038197756 0.066232294 -0.11880472 -0.042808056 0.10135935 0.011943102 -0.044411853 -0.056920975
-0.030917108 -0.052605808 -0.0023064464 0.024393007 0.112100646 0.0151153505 0.058353916 0.085084036
0.11144689 0.06167327 0.107668355 -0.10421859 0.07205948 -0.029593766 -0.014747828 -0.078642175
0.010686934 -0.045580134 -0.1030166 -0.003065139 -0.023552433 0.067775905 0.010124221 0.110995784
0.11559473 0.06601609 -0.0053351223 -0.08294965 -0.021721601 0.09240836 -0.110859215 -0.10766825
-0.103695735 0.106487334 -0.00037436187 0.009242624 0.037456185 -0.08016436 -0.09722072 -0.094429895
-0.04314497 -0.0122704655 0.1238835 0.103603676 0.079848856 0.0802502 -0.016235113 -0.06882183
-0.12137203 -0.041856423 0.12019549 -0.027576849 0.11678621 0.05525939 0.010689318 -0.10135025
-0.00321877 0.06160961 -0.10445014 -0.097546965 0.0593884 0.108493045 -0.03255482 0.100582585
0.09071949 -0.066789806 -0.12381533 0.085924596 0.041552067 -0.038620323 0.0132204 -0.061821043
0.082513705 0.051081777 -0.036010966 -0.06250769 0.054802254 -0.03197381 -0.098250955 -0.09908335
0.026290134 0.08961716 0.06592739 -0.09474315 -0.079832345 -0.086301506 -0.05353178 0.07396233
-0.047846228 0.09823462 -0.08202729 -0.08077517 -0.04687187 -0.09592874 0.11501081 0.08185777
0.08554894 0.046565726 -0.067660615 -0.082358375 -0.11199923 -0.075589344 0.008374393 0.04139018
-0.045176223 0.051111788 -0.035871997 0.013101339 -0.010677144 -0.021753028 0.051631972 0.11334331
0.0692627 0.012329459 -0.06891589 -0.088696316 -0.016012758 -0.06341295 -0.041775852 0.11480115
-0.074817315 -0.07916926 -0.107162446 0.030153066 -0.049970508 0.081423625 -0.09840767 0.05000536
0.057283327 -0.050927952 0.092951015 0.04961203 0.028727457 0.06626019 -0.061377764 0.08967145
-0.11587854 0.09777266 -0.016669735 0.094610915 0.040113375 -0.017333776 0.060255185 0.051705718
0.0019592047 -0.048984468 0.0384468 0.0996715 -0.023880675 0.043693542 0.08322327 -0.12471844
00000000: e073 b3bd 6802 f33c cacf c73d 829a d13d
00000010: 8020 d4bc 8038 86ba a053 db3c 009f ffbc
00000020: 807c d9bb 4495 e0bd c44f 7cbd 2041 8dbc
00000030: 3e35 b7bd 6c45 ef3d f42a 753d 2267 91bd
00000040: 2a4e fabd 50e6 1abc 007f e6bb 4447 7ebd
00000050: 40f8 a53b 6870 933c 9029 3cbc c0e2 7c3c
00000060: 981c f93c a806 f5bd 32e2 8a3d aefb e1bd
00000070: 4e66 ee3d 045c bf3d 0236 ed3d 50f2 cbbd
00000080: bc24 d0bd 2829 d0bd 229f b8bd 22cf 903d
00000090: 3044 8a3d a0f5 94bc 6c23 793d 286f f73d
000000a0: 646d 28bd 30ce f6bc 8250 873d 3034 afbc
000000b0: 44c5 613d 9613 853d b61a 9c3d 4ca4 13bd
000000c0: 1080 c4bc 8066 f33a 0e11 bdbd 8a54 fb3d
000000d0: aa47 ccbd 00c7 c23d 5e58 f93d fc58 173d
000000e0: 88a4 1fbd 6004 843b 10df 243d 0a28 d0bd
000000f0: 2000 413c 6236 873d ec85 cb3d 3e4e db3d
00000100: 8e76 a83d 02e9 e5bd 7463 423d 0017 5abb
00000110: 003b c43d 0090 88b8 5090 e03d e4d4 63bd
00000120: 80be c93a 602a ecbc 903d 68bc 1220 a63d
00000130: c045 483b 5853 43bd e0dc df3c 0cdc a1bd
00000140: 94e2 80bd 8e45 e33d b4e3 6a3d 6865 bebd
00000150: a0a9 5fbc 2a40 cc3d ec3f 453d a486 0c3d
00000160: 74e1 e63d 3e41 cfbd 6015 db3b f677 8fbd
00000170: c2ca cebd dc45 a1bd 9e81 f1bd 14b3 e53d
00000180: 4075 1cbd cca4 873d e44f f3bd 8057 2fbd
00000190: 7e95 cf3d 00ad 433c 34e9 35bd f825 69bd
000001a0: e045 fdbc 3079 57bd c027 17bb d8d3 c73c
000001b0: 0695 e53d 60a6 773c 8404 6f3d 8a40 ae3d
000001c0: 443e e43d 1c9d 7c3d 3a81 dc3d 8e70 d5bd
000001d0: ec93 933d a06e f2bc e0a0 71bc 260f a1bd
000001e0: 4018 2f3c 3cb2 3abd 5efa d2bd 80e0 48bb
000001f0: 08f1 c0bc 18ce 8a3d 10e0 253c c251 e33d
00000200: eebc ec3d 7233 873d 40d2 aebb 82e1 a9bd
00000210: 80f1 b1bc 9840 bd3d 280a e3bd 2c81 dcbd
00000220: 6e5e d4bd 0816 da3d 0046 c4b9 606e 173c
00000230: a86b 193d 362d a4bd a81b c7bd 7664 c1bd
00000240: c8b8 30bd 100a 49bc a2b6 fd3d 2a2e d43d
00000250: cc87 a33d 385a a43d 80ff 84bc 76f2 8cbd
00000260: e691 f8bd a471 2bbd 0e29 f63d d8e8 e1bc
00000270: 9c2d ef3d ac57 623d 4022 2f3c b890 cfbd
00000280: 00f2 52bb 5c5a 7c3d f4e9 d5bd b4c6 c7bd
00000290: 4041 733d 9a31 de3d 3458 05bd 3efe cd3d
000002a0: 24cb b93d 18c9 88bd e492 fdbd 3cf9 af3d
000002b0: 8032 2a3d 5830 1ebd 609a 583c 1038 7dbd
000002c0: f2fc a83d 203b 513d 3c80 13bd 0804 80bd
000002d0: 5478 603d f8f6 02bd cc37 c9bd 36ec cabd
000002e0: 685e d73c 3489 b73d f004 873d b208 c2bd
000002f0: 247f a3bd d8be b0bd 2444 5bbd 9079 973d
00000300: 68fa 43bd 3c2f c93d ecfd a7bd 746d a5bd
00000310: b8fc 3fbd 4a76 c4bd ca8a eb3d 0ca5 a73d
00000320: 4834 af3d b4bb 3e3d a691 8abd 82ab a8bd
00000330: da5f e5bd 96ce 9abd c034 093c c088 293d
00000340: b40a 39bd 985a 513d 84ee 12bd 00a7 563c
00000350: 30ef 2ebc 6833 b2bc 0c7c 533d 8a20 e83d
00000360: 9ad9 8d3d 8001 4a3c c623 8dbd 6aa6 b5bd
00000370: 302d 83bc a6de 81bd 281d 2bbd de1c eb3d
00000380: d239 99bd 7e23 a2bd fc77 dbbd 9003 f73c
00000390: e0ad 4cbd 6ec1 a63d f689 c9bd 6cd2 4c3d
000003a0: eca1 6a3d d499 50bd 1a5d be3d fc35 4b3d
000003b0: d855 eb3c 6cb3 873d 4067 7bbd aaa5 b73d
000003c0: ba51 edbd 083d c83d f88e 88bc 5ec3 c13d
000003d0: ec4d 243d 90ff 8dbc 24ce 763d 60c9 533d
000003e0: 0066 003b f0a3 48bd 647a 1d3d 9220 cc3d
000003f0: 68a1 c3bc 00f8 323d f670 aa3d 626c ffbd

critic.0.bias f4 [32]
-0.109513834 0.053429738 -0.042560726 0.016529784 0.08149837 0.05863993 0.054521605 0.102082685
0.030156791 -0.09989038 0.084681764 -0.06050788 -0.00020489097 -0.11733137 0.044793338 0.09301868
-0.006028697 0.08775902 -0.10276368 -0.09722616 0.02401717 0.025927559 0.06828101 -0.01814863
-0.017193004 0.06184779 -0.06592168 0.09155288 -0.032047153 -0.068838745 -0.0030527413 0.04871176
00000000: ca48 e0bd 24d9 5a3d 2854 2ebd 7869 873c
00000010: 9ee8 a63d 6c30 703d 0c52 5f3d ba10 d13d
00000020: 600b f73c 5493 ccbd a26d ad3d 1cd7 77bd
00000030: 00d8 56b9 6e4b f0bd 3879 373d 9480 be3d
00000040: 608c c5bb 00bb b33d c475 d2bd 821e c7bd
00000050: a8bf c43c 0866 d43c ead6 8b3d 70ac 94bc
00000060: 58d8 8cbc 1c54 7d3d f201 87bd 1480 bb3d
00000070: e043 03bd 54fb 8cbd 8010 48bb fc85 473d

critic.2.weight f4 [1, 32]
0.08458795 -0.032795873 -0.075967714 0.16437568 -0.058030244 -0.13270253 0.07495821 -0.06611972
0.07606514 0.16817503 -0.0061978414 0.1168817 0.086827144 0.007291447 0.16340786 0.09511593
-0.036078375 0.015075759 -0.11392472 -0.14133279 0.09485519 -0.11092633 -0.028537083 -0.059602577
0.12630261 0.026040178 -0.1496264 -0.15548195 0.07016272 -0.03468534 -0.044356693 -0.13071586
00000000: 723c ad3d f754 06bd f694 9bbd 1952 283e
00000010: 1fb1 6dbd 2ce3 07be b183 993d c769 87bd
00000020: 0ac8 9b3d 1336 2c3e 4317 cbbb ac5f ef3d
00000030: 6ed2 b13d 17ed ee3b 6454 273e 24cc c23d
00000040: ebc6 13bd 5100 773c 5d51 e9bd 8bb9 10be
00000050: 7043 c23d 582d e3bd 9ac6 e9bc d521 74bd
00000060: 7955 013e 3652 d53c aa37 19be a936 1fbe
00000070: 79b1 8f3d 3712 0ebd 5daf 35bd 61da 05be
